checkpoint_actor.pth (torch_old, 524603 bytes, 6 tensors)

fc1.weight f4 [400, 24]
0	0xbda73eb6	-0.08166258
1	0x3e2180f6	0.15771851
2	0x3b1ee87f	0.0024247465
3	0x3dc2e8fa	0.09517093
4	0x3c583cb1	0.013198064
5	0xbd34d164	-0.044145003
6	0xbb5c85b3	-0.0033649027
7	0x3ddd48ba	0.10804887
8	0xbdaee416	-0.08539598
9	0x3e134421	0.14381458
10	0xbcd79930	-0.026318163
11	0xbc0365c1	-0.0080198655
12	0x3c8bc12a	0.017059881
13	0xbe3c4eac	-0.18389386
14	0xbc7f4ec4	-0.015582744
15	0xbae39ee4	-0.0017366079
16	0xbd510c28	-0.051036984
17	0x3e481c61	0.19542076
18	0xbc9432a6	-0.018090557
19	0xbd385d7a	-0.04501102
20	0x3db14d0f	0.08657276
21	0xbebc8114	-0.3681723
22	0xbcdaf945	-0.02673019
23	0x3bb9314a	0.0056516277
24	0xbdb6c542	-0.08924343
25	0x3dd5aa24	0.104328424
26	0xbcf9b70b	-0.03048279
27	0xbd634011	-0.05548102
28	0xbd149013	-0.036270212
29	0xbd28c7d1	-0.041206185
30	0x3b627a20	0.0034557655
31	0x3c616ec0	0.013759315
32	0xbd88c520	-0.066782236
33	0x3da5ad55	0.08089701
34	0x3d18c895	0.037300665
35	0xbcbba839	-0.022907363
36	0x3d37dc7a	0.044887997
37	0xbdbe48d0	-0.09291232
38	0xbc8a5a3e	-0.016888734
39	0xbdbceed9	-0.09225244
40	0xbd3e73a2	-0.046496995
41	0x3d7f372b	0.06230847
42	0xbd52c5e2	-0.051458247
43	0x3e068844	0.13137919
44	0x3e0d8657	0.13820778
45	0xbe7a046b	-0.24415748
46	0x3cb2db13	0.021832978
47	0x3def40a4	0.11682251
48	0xbcc4178e	-0.023937013
49	0xbe711167	-0.23541795
50	0xbbe89e74	-0.007098967
51	0xbc88cb64	-0.016698547
52	0xbe14b193	-0.14520864
53	0x3de42616	0.11140077
54	0x3d84e811	0.06489576
55	0x3cadc11d	0.021210248
56	0xbaad90bf	-0.001324199
57	0xbe8f03f1	-0.27932695
58	0xbc1e2c65	-0.009654139
59	0xbd6443fd	-0.0557289
60	0x3d3148dc	0.043282375
61	0x3dab26c0	0.08357
62	0xbc13ae1d	-0.00901368
63	0xbd3bd669	-0.045858774
64	0xbc7a6281	-0.015282274
65	0xbe55182b	-0.2081
66	0xbd1c435f	-0.038150188
67	0xbdce90cc	-0.100862116
68	0x3e133416	0.14375338
69	0xbdb25f78	-0.087096155
70	0xbd605983	-0.054772865
71	0xbd88e4a6	-0.06684236
72	0x3a50c784	0.00079643005
73	0xbe0c60a6	-0.13708743
74	0x3d3a205f	0.045441028
75	0xbc4bf846	-0.01244933
76	0x3c64a599	0.013955497
77	0x3dc83860	0.09776378
78	0x3bcfe300	0.006344199
79	0xbd7f13d2	-0.06227476
80	0xbd68616e	-0.05673354
81	0xbe14c4c1	-0.1452818
82	0xbc730618	-0.014832996
83	0xbe244662	-0.16042474
84	0xbbb42128	-0.0054971166
85	0xbdd373cf	-0.10324823
86	0x3c11303d	0.008861599
87	0xbe0f3500	-0.13985062
88	0xbd2a8e01	-0.04163933
89	0xbe3d8385	-0.18507202
90	0x3d113f2d	0.03546064
91	0xbdb332fd	-0.087499596
92	0x3dd748fc	0.105119675
93	0xbe950d3a	-0.29111654
94	0xbd19009b	-0.037354093
95	0xbdb3758d	-0.087626554
96	0x3d16dbad	0.036830593
97	0xbdb18278	-0.08667463
98	0x3d250c78	0.040295094
99	0xbd25c689	-0.04047254
100	0x3d2876a9	0.04112879
101	0xbdf03ad2	-0.11729969
102	0x3cba80d8	0.022766516
103	0xbcee63fe	-0.029100414
104	0x3db0768d	0.08616362
105	0xbd8359cb	-0.06413611
106	0xbd432fde	-0.04765307
107	0xbd99eb3e	-0.07515572
108	0x3e308a79	0.17240323
109	0xbe07b0bf	-0.13251017
110	0x3c178efb	0.009250398
111	0xbe18cc7b	-0.14921753
112	0x3e0a67c8	0.13516152
113	0xbca343e3	-0.019929832
114	0x3ceb103b	0.028694263
115	0xbd552a4f	-0.0520423
116	0x3e6e850e	0.23292944
117	0xbe76e033	-0.24108963
118	0x3c8933d0	0.016748339
119	0xbd4e17a7	-0.050315525
120	0x3e16a497	0.14711224
121	0x3e0c7ed8	0.13720262
122	0x3c0c6ca5	0.008570825
123	0x3d6e5a16	0.05819138
124	0xbc45104d	-0.012027812
125	0x3e851acc	0.25997007
126	0x3cd1c1db	0.025605133
127	0x3d526834	0.051368907
128	0x3de020a8	0.10943729
129	0x3ddc9bcf	0.10771906
130	0xbd3b75fc	-0.045766816
131	0xbdc3e8b3	-0.09565868
132	0x3c80734d	0.01567998
133	0x3e0ca09e	0.13733146
134	0xbc52b1b7	-0.012859753
135	0xbca9aea6	-0.020713162
136	0x3db55175	0.08853427
137	0x3db6fb3c	0.08934638
138	0x3d00999c	0.031396493
139	0xbd22a478	-0.03970763
140	0xbbdf3186	-0.0068113236
141	0x3dc4f4b6	0.096169874
142	0x3c8a3b35	0.016873935
143	0xbdc8c490	-0.09803116
144	0xbdb00064	-0.085938245
145	0x3e1d58c4	0.15365893
146	0x3c82c559	0.015963243
147	0xbb7f46ac	-0.0038952036
148	0xbe1a8df7	-0.15093218
149	0x3e52d7bb	0.20590107
150	0x3b51a0f4	0.0031986805
151	0xbb123fb5	-0.0022315804
152	0xbc6c67ee	-0.014429076
153	0x3dec6c8f	0.115441434
154	0x3c83572f	0.016032783
155	0x3caa7787	0.020808948
156	0x3c3c38ce	0.011488153
157	0x3e06b68e	0.13155577
158	0xbbe66a30	-0.0070317015
159	0x3d97df28	0.074156106
160	0x3d05ad77	0.032636132
161	0x3e392690	0.18081117
162	0x3b7c8a58	0.0038534608
163	0x3d0a0def	0.033704694
164	0x3dfb4353	0.122687005
165	0x3e4a38ad	0.19748183
166	0xbb897af7	-0.0041955668
167	0xbc4bd4ff	-0.012440919
168	0xbd4fbeee	-0.050719194
169	0x3e14b736	0.14523014
170	0x3cffaf73	0.03121159
171	0xbcb6f86d	-0.022335256
172	0x3cbb8377	0.022889836
173	0xbe153235	-0.14569934
174	0xbd1b166b	-0.037863176
175	0x3c103fc3	0.0088042645
176	0xbd839e21	-0.06426645
177	0x3ddffa2a	0.10936387
178	0xb9f2cee7	-0.0004631199
179	0xbc1eeacd	-0.009699536
180	0x3d53e680	0.051733494
181	0xbe5281d5	-0.2055734
182	0x3cd8a089	0.026443737
183	0x3ab816a9	0.0014044839
184	0xbdf2c799	-0.118544765
185	0xbd54d6e8	-0.051962763
186	0xbc732f5f	-0.014842837
187	0x3db1bd73	0.08678713
188	0x3e146f96	0.14495692
189	0xbe64782f	-0.22311471
190	0x3ca64b16	0.020299476
191	0x3dcc0553	0.09961953
192	0x3dd7639d	0.105170466
193	0x3e176fd4	0.14788753
194	0x3d034546	0.032048486
195	0x3c9b1379	0.018930184
196	0x3c798931	0.015230463
197	0xbe41fb14	-0.18943435
198	0x3cc60a0d	0.024174714
199	0x3c1aed31	0.009455965
200	0x3e0445e6	0.12917289
201	0x3e5a006c	0.21289223
202	0x3d1cf992	0.038323946
203	0x3d8d3acd	0.06895981
204	0xbc39a963	-0.011331889
205	0xbe46ea84	-0.19425398
206	0xbd058afd	-0.032603253
207	0x3dc5e976	0.0966367
208	0x3dd5debb	0.10442873
209	0x3e52d98f	0.20590805
210	0x3c6eae3c	0.014567908
211	0xbcffd195	-0.031227866
212	0xbd4fc58d	-0.05072551
213	0xbdafbd48	-0.085810244
214	0xbd14767d	-0.03624581
215	0x3c4f7702	0.012662651
216	0x3dcc5aa9	0.099782296
217	0xbc9caaab	-0.01912435
218	0x3d40ddef	0.047086652
219	0x3cdd05e0	0.02698034
220	0xbca497e1	-0.020091953
221	0xbedb0ca2	-0.42783076
222	0x3d858757	0.06519955
223	0xbd4ecfd9	-0.050491188
224	0x3dcfb760	0.10142398
225	0xbd94c0bf	-0.07263326
226	0xbcb64602	-0.02225018
227	0xbe2181d5	-0.15772183
228	0xbd571c17	-0.052517023
229	0xbe9a974d	-0.30193558
230	0xbd5688af	-0.052376445
231	0xbde0a768	-0.1096943
232	0x3de32d29	0.11092598
233	0xbd446df4	-0.047956422
234	0xbccf7226	-0.025322985
235	0x3cad1136	0.02112637
236	0xbdec3f99	-0.11535568
237	0xbc0d9023	-0.008640322
238	0xbb568c66	-0.0032737493
239	0x3c7a61fd	0.015282151
240	0xbc7fbd74	-0.015609134
241	0xbe9598ed	-0.29218236
242	0x3cf84a7c	0.030308954
243	0x3b1e8611	0.0024188797
244	0x3e25a7cf	0.16177295
245	0x3e0904dc	0.1338076
246	0xbd176feb	-0.036971968
247	0x3c8aff5d	0.01696747
248	0x3c0efe91	0.008727686
249	0xbe93aaf3	-0.2884136
250	0xbc20a800	-0.009805679
251	0x3c1bdbeb	0.009512882
252	0x3d10fca8	0.0353972
253	0xbd15ada9	-0.03654257
254	0x3bbaf8ca	0.0057059275
255	0x3d96e152	0.07367195

fc1.bias f4 [400]
0	0x3dbf9a37	0.09355586
1	0x3ccb282d	0.02479943
2	0x3e2ef292	0.1708472
3	0x3df1e89d	0.118119456
4	0x3e6a67ee	0.22891209
5	0xbe3ab4ee	-0.18233082
6	0xbe715f3c	-0.23571485
7	0x3ea091e2	0.313613
8	0x3e3a5cfd	0.18199535
9	0x3d034562	0.03204859
10	0x3ebf30f5	0.3734204
11	0x3db2234a	0.08698137
12	0xbe88791b	-0.26654896
13	0x3d6a2be4	0.057170764
14	0xbd81a594	-0.0633041
15	0xbe956383	-0.29177484
16	0xbe2e3252	-0.17011383
17	0xbd595a86	-0.053064846
18	0xbe268f2e	-0.16265556
19	0x3d28b131	0.041184608
20	0xbd90926d	-0.070591785
21	0xbe1f8d03	-0.15581135
22	0xbe502082	-0.20324901
23	0x3daac675	0.08338634
24	0x3d8f5203	0.06998064
25	0xbe1f6cc2	-0.15568832
26	0xbe583d9d	-0.21117254
27	0xbe3bb6ed	-0.183315
28	0xbcc23c00	-0.02371025
29	0xbe808f52	-0.25109345
30	0x3d8aed6d	0.067835666
31	0xbe418f33	-0.18902282
32	0x3de51230	0.111851096
33	0x3e1efa3d	0.15525146
34	0xbd7d2989	-0.06180719
35	0x3e4fa395	0.20277245
36	0x3ce30ef2	0.027717087
37	0x3e5057df	0.2034602
38	0xbe3632b0	-0.17792773
39	0x3e185c01	0.14878847
40	0xbd784f7c	-0.060622677
41	0x3dc610ed	0.09671197
42	0x3e008d6b	0.12553947
43	0xbe1a8902	-0.15091327
44	0xbd2d8934	-0.042367175
45	0xbe3a30ee	-0.18182728
46	0x3e8ff362	0.28115374
47	0x3bfe828f	0.0077670286
48	0x3e3387a9	0.17532219
49	0xbdbd73eb	-0.09250625
50	0xbe225885	-0.1585408
51	0xbd16a038	-0.03677389
52	0x3e42441d	0.18971296
53	0x3e931a02	0.2873078
54	0xbe2e4d2a	-0.17021623
55	0xbe14b54f	-0.14522289
56	0x3e60230a	0.21888366
57	0xbe4184fe	-0.18898389
58	0x3dbc5961	0.09196735
59	0xbe43832c	-0.19093007
60	0xbba0b82e	-0.0049047684
61	0x3e6368ec	0.22207993
62	0x3e5bafe6	0.21453819
63	0xbe6c1262	-0.23053887
64	0x3d94e97a	0.072710946
65	0xbe02533e	-0.12727067
66	0x3db05826	0.08610563
67	0x3d853c4b	0.065056406
68	0x3df08da6	0.11745767
69	0xbe18fedd	-0.14940973
70	0xbe579172	-0.21051577
71	0x3c8bf20c	0.01708319
72	0x3bd9a82f	0.0066423635
73	0x3c9358a3	0.017986601
74	0x3e05ec09	0.13078322
75	0xbe48625c	-0.19568771
76	0x3dd78f29	0.105253525
77	0x3da2f060	0.07956004
78	0x3e866462	0.2624846
79	0xbe4d657d	-0.20058246
80	0x3cb1750a	0.021662254
81	0xbe1e27a9	-0.15444817
82	0x3e83424a	0.25636512
83	0xbdc27e2d	-0.09496722
84	0x3dab5872	0.08366479
85	0x3dfb8f2b	0.122831665
86	0x3e8844f6	0.26615113
87	0x3ddad249	0.1068464
88	0x3da1c670	0.07899177
89	0xbcfbbf5c	-0.030730896
90	0x3d54fde2	0.051999934
91	0xbe07a50a	-0.13246551
92	0x3de0055d	0.10938523
93	0x3cbe9960	0.023266494
94	0x3b0fc129	0.00219352
95	0x3d2fc5b4	0.042913154
96	0x3ea06bd0	0.31332254
97	0xbe6299da	-0.22129002
98	0x3bddc21b	0.006767524
99	0xbcd5d27a	-0.02610134
100	0x3bd35dd0	0.0064503923
101	0x3e05bda3	0.13060622
102	0xbe2cefd6	-0.16888365
103	0xbe55e750	-0.2088902
104	0xbe352e53	-0.17693453
105	0xbc386d5b	-0.011256541
106	0xbd7d4fd1	-0.061843697
107	0xbecf0466	-0.40433043
108	0x3de0aa49	0.10969979
109	0xbe211e6f	-0.15734266
110	0x3e1cc439	0.15309228
111	0xbe55845c	-0.20851272
112	0xbdda8a47	-0.106709056
113	0xbd8b347c	-0.0679712
114	0xbd18eac8	-0.03733328
115	0x3e01d2bb	0.12678044
116	0x3dace2b8	0.08441681
117	0xbde4cd02	-0.11171915
118	0xbc87c0d9	-0.01657145
119	0xbd2bd814	-0.041954115
120	0xbd042ce3	-0.03226937
121	0xbe298ddf	-0.16558026
122	0xbe5c441a	-0.21510354
123	0x3e29a58a	0.16567054
124	0xbe32ff87	-0.17480288
125	0xbd8b1a2f	-0.067921035
126	0xbda439ad	-0.08018813
127	0x3ccf0929	0.025272923
128	0x3e0439ed	0.12912722
129	0xbe2d87b5	-0.169463
130	0xbe1f714d	-0.15570565
131	0xbc7e53f1	-0.015522943
132	0xbdd61310	-0.10452855
133	0x3e21da9a	0.15806046
134	0xbdc276f9	-0.094953485
135	0xbea655a6	-0.3248722
136	0xbce79629	-0.028269844
137	0xbd9b75b6	-0.07590811
138	0x3d1e7f7b	0.038695794
139	0x3ea03849	0.31292942
140	0xbd4c3541	-0.049855474
141	0xbe78b514	-0.24287826
142	0x3d841a5a	0.06450339
143	0x3e828eca	0.25499564
144	0x3ae9d857	0.0017840964
145	0xbdc980fc	-0.09839055
146	0x3c81974a	0.01581921
147	0x3db77a34	0.08958855
148	0xbcc52836	-0.024067026
149	0xbb80c6f8	-0.003929969
150	0xbe1caa04	-0.15299231
151	0xbe59557c	-0.21224016
152	0x3ca30c32	0.019903276
153	0xbd5fc18c	-0.05462794
154	0xbeb75243	-0.35804948
155	0xbce2bb05	-0.027677068
156	0xbe124b2a	-0.14286485
157	0x3d079063	0.033096682
158	0x3df16fee	0.11788927
159	0xbc1e695c	-0.009668674
160	0xbb6aebe3	-0.0035846166
161	0xbe08c450	-0.13356137
162	0xbe598b97	-0.21244656
163	0xbd8a16a3	-0.06742599
164	0x3e45ddc0	0.19322872
165	0x3e089f9b	0.13342135
166	0xbe5d1ff8	-0.21594226
167	0x3d02ae96	0.03190478
168	0xbd912232	-0.070866
169	0xbea25b4a	-0.31710273
170	0x3e1ddd6d	0.15416498
171	0xbc95dd3d	-0.018293971
172	0xbe9befd8	-0.30456424
173	0x3e060672	0.13088396
174	0x3e2e9a0d	0.17050953
175	0x3e025e38	0.12731254
176	0x3e91a40c	0.2844547
177	0xbda07f9a	-0.07836838
178	0x3e216853	0.15762453
179	0xbdd9f04c	-0.10641536
180	0xbda60774	-0.0810689
181	0xbe3a6387	-0.18202029
182	0x3dbe3443	0.09287312
183	0xbe019bfa	-0.12657157
184	0xbd76e51c	-0.06027709
185	0x3e83ee3e	0.25767702
186	0xbe372a47	-0.17887221
187	0x3e62576a	0.22103658
188	0xbdeb5191	-0.11490167
189	0x3e04228e	0.12903807
190	0xbe7da0e0	-0.247684
191	0x3e80ccb2	0.2515617
192	0x3e068afc	0.13138956
193	0xbe5a9fa2	-0.21349958
194	0xbcb04b35	-0.021520237
195	0x3e84b0b8	0.25916076
196	0x3bf6437c	0.007515369
197	0xbe0ea274	-0.13929158
198	0xbe574eb1	-0.21026112
199	0x3e23348c	0.15938014
200	0x3e32ab69	0.174482
201	0x3dd28305	0.10278896
202	0xbd82d73e	-0.063887104
203	0x3e83d091	0.2574506
204	0x3cba9b34	0.022779085
205	0x3d902ab6	0.070393965
206	0x3d96d2fa	0.07364459
207	0x3ddfff3e	0.109373555
208	0x3e7e272c	0.2481963
209	0x3e7e3b02	0.24827197
210	0xbe60753c	-0.21919721
211	0x3da51737	0.080610685
212	0x3d52c8e7	0.051461127
213	0xbe7c5bed	-0.24644442
214	0x3d54a316	0.051913343
215	0x3d8b3814	0.067978054
216	0x3e49c181	0.19702722
217	0x3e3265cc	0.17421645
218	0xbc45151f	-0.012028961
219	0xbd88a531	-0.06672133
220	0xbdbd515a	-0.09244032
221	0x3e72b5f9	0.2370223
222	0xbc9022a2	-0.01759464
223	0xbd5395b4	-0.05165644
224	0x3a99dfd3	0.0011739678
225	0x3e02743c	0.12739652
226	0xbe40609b	-0.18786852
227	0xbe687f15	-0.22704728
228	0x3e382b4e	0.1798527
229	0xbe283661	-0.16426994
230	0x3d8596f8	0.06522936
231	0xbe0b8f48	-0.13628876
232	0x3dee5333	0.11636963
233	0x3d939eb0	0.072080016
234	0x3d44c57a	0.04803989
235	0xbd5fdd8a	-0.054654635
236	0x3dcaf69d	0.09910319
237	0xbd25dc46	-0.040493272
238	0x3d23c576	0.039983235
239	0xbe1464f4	-0.14491636
240	0xbc923c18	-0.01785092
241	0x3e73031d	0.23731656
242	0x3e847b14	0.2587515
243	0xbd7c3b7f	-0.061580177
244	0x3e309437	0.1724404
245	0x3e015b08	0.12632382
246	0xbd91adda	-0.07113238
247	0x3dc2c1d6	0.095096275
248	0xbdd861be	-0.10565518
249	0x3d2ee4b6	0.042698584
250	0xbca388f5	-0.019962767
251	0x3cd65e4d	0.026168013
252	0x3e1e8ac4	0.15482622
253	0xbe6637b5	-0.22482188
254	0xbe82d9ee	-0.25556892
255	0xbd90a7f2	-0.07063283

fc2.weight f4 [300, 400]
0	0x3d220544	0.039555803
1	0xbdd4f845	-0.10398916
2	0xbd7b6e2c	-0.061384365
3	0xbe10c123	-0.14136176
4	0x3d38df82	0.04513503
5	0x3ce80755	0.028323809
6	0xbd9c1be0	-0.07622504
7	0xbda5910b	-0.080843054
8	0x3c0cce0a	0.008594045
9	0xbd247768	-0.040152937
10	0x3dcc321b	0.09970494
11	0x3d6dd88a	0.058067836
12	0xbcc61129	-0.024178104
13	0x3dce35f7	0.10068887
14	0xbdaf7ff4	-0.08569327
15	0xbdc0b856	-0.09410159
16	0x3dec35b7	0.11533683
17	0xbe19f259	-0.15033855
18	0xbe28c129	-0.16479935
19	0xbc79b521	-0.015240938
20	0x3d7e4c2f	0.062084373
21	0xbe0d113c	-0.13776106
22	0x3d721848	0.059105188
23	0x3bccc2a5	0.0062487894
24	0x3e092d36	0.13396153
25	0xbdcbca11	-0.099506505
26	0xbd7b0205	-0.061281223
27	0xbe0c3903	-0.13693623
28	0x3d24b288	0.040209323
29	0xbddaa002	-0.1067505
30	0x3e0999d9	0.13437594
31	0xbd3c837f	-0.046023842
32	0xba796cbf	-0.00095148006
33	0xbdbe16b4	-0.09281674
34	0x3dcff4f4	0.10154143
35	0xbd470f96	-0.04859885
36	0xbdcee637	-0.10102504
37	0xbe8426d1	-0.25810865
38	0xbc393ca9	-0.011305966
39	0x3d1d85f0	0.03845781
40	0xbcb7a2ae	-0.022416439
41	0xbd016433	-0.031589698
42	0x3d05c68c	0.032660052
43	0x3e2817d6	0.16415343
44	0xbbdbb4ee	-0.006704918
45	0x3d8fd22b	0.07022508
46	0xbd3733f9	-0.0447273
47	0xbd1e572f	-0.038657364
48	0x3d4d226d	0.05008166
49	0xbd720373	-0.05908532
50	0x3d6f47fe	0.058418266
51	0x3e0abf41	0.1354952
52	0x3e08749a	0.1332573
53	0x3d15510a	0.036454238
54	0xbd0139c0	-0.031549215
55	0x3d0ac71b	0.033881288
56	0xbe1804a3	-0.14845519
57	0x3d48a2c5	0.048983354
58	0xbd52e242	-0.051485308
59	0x3cbdb8d2	0.023159418
60	0xbdafd09f	-0.08584713
61	0xbd72b92e	-0.059258632
62	0xbd844ff6	-0.06460564
63	0x3d7ba9e6	0.061441325
64	0x3d38c23b	0.045107108
65	0x3b1a014e	0.0023499313
66	0xbd934189	-0.07190234
67	0x3d2a8700	0.041632652
68	0x3e05608d	0.13025112
69	0x3dc657fd	0.09684751
70	0x3d6609a8	0.056161553
71	0x3be36496	0.006939481
72	0x3de8f747	0.113752894
73	0x3d966229	0.07342941
74	0xbd9ba3ef	-0.07599627
75	0x3e2522d3	0.16126566
76	0x3dbed6b1	0.09318293
77	0x3d4ebaac	0.050470993
78	0x3cae77f9	0.021297442
79	0x3d2df499	0.042469595
80	0x3dd0a367	0.101874165
81	0xbcd361c8	-0.025803462
82	0x3df7fccb	0.12108763
83	0xb8a03bf0	-7.640559e-05
84	0x3dc85b7b	0.097830735
85	0x3d09612b	0.033539932
86	0x3c5d0c25	0.013491665
87	0x3dcd10d5	0.10012976
88	0x3d69c0e7	0.05706873
89	0xbdbb779c	-0.09153673
90	0xbd85aa58	-0.06526631
91	0x3c3e6ba7	0.011622346
92	0xbe30bc5b	-0.17259352
93	0x3d4f3dfd	0.050596226
94	0x3c8ecc2d	0.017431343
95	0xbd65c460	-0.05609548
96	0x3dd8c1f6	0.1058387
97	0xbdc7745e	-0.09738992
98	0xbd6e52a5	-0.058184285
99	0xbc4b6051	-0.0124131
100	0xbe18f0cd	-0.14935608
101	0xbd1354dc	-0.0359696
102	0xbd8174ae	-0.06321083
103	0xbddff4f1	-0.10935391
104	0xbe1a60a0	-0.15075922
105	0xbbf9d4f3	-0.0076242625
106	0x3d9ce23b	0.076603375
107	0x3d03226c	0.03201525
108	0xbdb6edbf	-0.08932065
109	0xbc77b62d	-0.015119118
110	0x3d03efe3	0.032211196
111	0xbdd174d4	-0.10227361
112	0x3da88980	0.08229351
113	0xbb6f775f	-0.0036539657
114	0x3e1ad318	0.15119588
115	0xbe1537a1	-0.14572002
116	0xbe0b36bf	-0.13595103
117	0x3c762227	0.015022791
118	0xbd852c46	-0.06502585
119	0xbd6bc652	-0.05756218
120	0xbd83a437	-0.06427806
121	0xbd6088f0	-0.054818094
122	0x3d08f1cb	0.033433717
123	0x3ddeb711	0.10874761
124	0x3d9ebb25	0.07750539
125	0x3d357146	0.04429748
126	0xbdb86be2	-0.09004952
127	0xbdfcc80a	-0.12342842
128	0xbd12aca3	-0.03580917
129	0x3c0613fe	0.008183477
130	0x3e18df20	0.14928865
131	0x3c62a6df	0.0138337305
132	0x3d89a29c	0.067204684
133	0xb9e509f3	-0.00043685696
134	0x3c579714	0.013158578
135	0x3d1775d0	0.03697759
136	0xbe0633f3	-0.13105755
137	0xbb58e56b	-0.0033095728
138	0x3d3c72db	0.046007972
139	0xbca60976	-0.020268183
140	0x3c97d700	0.018535137
141	0x3ce137b9	0.027492391
142	0x3e2abd24	0.16673714
143	0xbe0b2590	-0.13588548
144	0x3dab0345	0.08350233
145	0x3cb5e3f8	0.02220343
146	0x3cf73335	0.030175785
147	0x3cc0bec7	0.02352847
148	0x3cbbdfe0	0.0229339
149	0x3c291253	0.01031931
150	0x3d132c22	0.03593076
151	0x3cf8033e	0.030274983
152	0xbe00c8c1	-0.12576582
153	0x3c8a8eac	0.016913734
154	0x3e0df848	0.13864243
155	0xbbebfc36	-0.0072016967
156	0xbcb604bd	-0.022219056
157	0x3db77e75	0.08959667
158	0xbdac3127	-0.084078126
159	0xbd5ededa	-0.054411747
160	0xbdb24bb4	-0.087058455
161	0x3da29e5b	0.0794036
162	0x3d1c3ce6	0.038144015
163	0xbde0da09	-0.10979087
164	0x3d591fed	0.053008962
165	0x3e06d0a2	0.13165525
166	0xbd63ab26	-0.05558314
167	0x3df97fa8	0.121825516
168	0x3aaf6e79	0.0013384364
169	0xbe326204	-0.17420202
170	0xbc05124c	-0.008122038
171	0xbd56864b	-0.052374166
172	0xbd36a930	-0.044594944
173	0xbde12cdb	-0.109948836
174	0x3dc9dd52	0.098566666
175	0x3c73d896	0.014883181
176	0x3c6242c0	0.01380986
177	0xbdd8b6f2	-0.10581769
178	0xbdfeb8c8	-0.12437588
179	0x3e5db96e	0.21652767
180	0x3b7ca03b	0.0038547653
181	0x3db157f5	0.086593546
182	0x3ce284c8	0.027651206
183	0x3d60f77a	0.054923512
184	0xbb5a2265	-0.003328466
185	0xbe0a521d	-0.13507886
186	0xbe1e4f01	-0.15459825
187	0x3d2dd2ce	0.042437367
188	0xbcd82d2b	-0.026388725
189	0x3e2c45fb	0.1682357
190	0x3c76b9ba	0.015058929
191	0x3d885ed0	0.06658709
192	0xbc7aa32d	-0.015297693
193	0xbcc7be64	-0.024382778
194	0x3db6844a	0.08911951
195	0x3b9585b3	0.0045630573
196	0x3c637fd8	0.013885461
197	0xbd70065d	-0.05859982
198	0xbe06bf2a	-0.13158861
199	0xbb63493e	-0.0034681107
200	0x3c4c0f9a	0.012454892
201	0xbe2bab24	-0.16764504
202	0xbd923843	-0.07139637
203	0xbd70341e	-0.058643453
204	0x3d7ea885	0.06217243
205	0x3d7c1e7b	0.061552506
206	0xbcf77200	-0.030205727
207	0xbd1b4f65	-0.037917513
208	0x3d09aa73	0.03360982
209	0x3dfa0703	0.12208369
210	0xbdb0dbc9	-0.08635671
211	0xbdc2e68e	-0.09516631
212	0xbca2c5d3	-0.01986972
213	0xbcfea2b7	-0.031083448
214	0xbdadbea4	-0.084836274
215	0x3cc839c6	0.024441611
216	0x3c8ee659	0.017443823
217	0xbd9cbcea	-0.0765322
218	0xbe2412f9	-0.16022862
219	0xbe6c2cbc	-0.2306394
220	0x3c08a3e1	0.008339853
221	0x3cf66893	0.030079162
222	0xbdaacedf	-0.08340239
223	0xbd3976d5	-0.045279343
224	0x3d3cd7ca	0.04610423
225	0xbe130341	-0.1435671
226	0xbce26b35	-0.02763901
227	0xbde14c6b	-0.11000904
228	0xbd53c212	-0.05169875
229	0xbd143be9	-0.036189947
230	0xbe5a0947	-0.21292602
231	0x3d1631b8	0.03666851
232	0xbd5a5b49	-0.053309713
233	0xbd16babc	-0.036799178
234	0x3cde32a1	0.027123751
235	0x3d18aaef	0.03727239
236	0x3dd60089	0.10449321
237	0xbd4405c3	-0.047857057
238	0xbe353826	-0.176972
239	0xbe7d899f	-0.2475953
240	0xbb952ff1	-0.004552834
241	0xbd1ede12	-0.038786
242	0xbe173423	-0.14765982
243	0x3d8e2d09	0.069421835
244	0xbe0c0eab	-0.1367747
245	0x3d95621d	0.07294104
246	0xbd3062ca	-0.043062963
247	0x3b3f02fd	0.0029146068
248	0xbdce61d5	-0.10077254
249	0xbd91a7fe	-0.0711212
250	0xbe069105	-0.13141258
251	0x3e0e6a31	0.13907696
252	0x3d4129d5	0.047159035
253	0x3d65816c	0.05603163
254	0xbe47f165	-0.19525678
255	0xbcf22d53	-0.029562628

fc2.bias f4 [300]
0	0xbd2aef19	-0.041731928
1	0x3c24f6f3	0.010068643
2	0xbd17266b	-0.036901873
3	0xbde2a8bc	-0.1106734
4	0xbd88164b	-0.06644877
5	0x3dc7bfea	0.097534016
6	0xbcfe0eac	-0.031012855
7	0xbdaf23a3	-0.08551719
8	0xbdbcb2ed	-0.09213815
9	0xbcfbb187	-0.0307243
10	0xbe04bca5	-0.12962587
11	0xbe11c7d5	-0.14236386
12	0x3cbaf19b	0.022820285
13	0xbe1626c8	-0.14663231
14	0xbd8b0789	-0.067885466
15	0xbd280687	-0.04102185
16	0xbdb44d9d	-0.08803866
17	0x3d8d7189	0.06906421
18	0xbe148a3d	-0.14505859
19	0xbcfb1b29	-0.0306526
20	0xbdb8c159	-0.09021253
21	0xbd131b43	-0.03591467
22	0x3dbe5956	0.09294383
23	0x3de03787	0.10948091
24	0xbd8b898a	-0.06813343
25	0x3cca5021	0.024696412
26	0xbdbdee25	-0.09273938
27	0x3cbae5a0	0.022814572
28	0xbd9559bf	-0.07292508
29	0xbd6e57a9	-0.058189068
30	0xbd89e32e	-0.06732784
31	0xbe84c213	-0.25929317
32	0xbaa9ae21	-0.0012945571
33	0x3cc7d0b2	0.024391506
34	0xbd49cc09	-0.04926685
35	0xbe0c81bf	-0.13721369
36	0x3c107517	0.008816979
37	0x3cb25109	0.021767156
38	0xbde88c8c	-0.11354932
39	0x3cf163b9	0.029466497
40	0x3d579589	0.052632842
41	0xbd583f9a	-0.05279503
42	0xbd5f8ccf	-0.054577645
43	0xbc82cb60	-0.015966117
44	0x3d844a24	0.06459454
45	0xb99aaa83	-0.0002950021
46	0x3de1330e	0.10996066
47	0x3d6b6f60	0.057479262
48	0xbe0ee4e2	-0.139545
49	0x3dc71049	0.09719903
50	0xbdad158d	-0.08451376
51	0x3de2d09b	0.110749446
52	0xbd935013	-0.07193007
53	0xbcb10582	-0.021609072
54	0x3dafbbce	0.08580743
55	0xbc00bb69	-0.007857182
56	0xbda50a53	-0.0805861
57	0xbb346823	-0.002752789
58	0x3b38f2cc	0.002822089
59	0x3d553f02	0.052062042
60	0x3d91e7db	0.07124301
61	0xbcd543f5	-0.026033381
62	0x3be2fd7c	0.0069271903
63	0xbe476f50	-0.19476056
64	0xbdbc2c68	-0.09188157
65	0xbda46070	-0.080262065
66	0xbd107d0c	-0.035275504
67	0xbcb91860	-0.02259463
68	0xbe184ab9	-0.14872254
69	0x3d75883d	0.05994438
70	0xbcde95dc	-0.027171068
71	0xbe36d462	-0.17854455
72	0xbd5963f3	-0.053073835
73	0x3a9d32f4	0.0011993335
74	0x3d72be65	0.059263606
75	0xbe2f29ba	-0.17105761
76	0xbd0709d6	-0.032968365
77	0xbd8df01b	-0.06930562
78	0xbbc9025f	-0.006134316
79	0x3d26fcb4	0.04076834
80	0x3d82e3f5	0.063911356
81	0x3d391c7a	0.045193173
82	0xbe145ee3	-0.14489321
83	0x3d61fd22	0.055173047
84	0x3ca9e8c3	0.020740872
85	0x3d98082c	0.07423434
86	0xbc68e6eb	-0.014215211
87	0x3c852c0b	0.016256353
88	0xbdd6b853	-0.10484376
89	0x3c8179d0	0.015805155
90	0x3c70ecc9	0.0147048915
91	0xbd060c1f	-0.032726403
92	0xbdf78742	-0.12086345
93	0x3d01ace1	0.03165901
94	0x3ab73a18	0.0013979105
95	0x3cea7555	0.028620401
96	0xbb3c2a0c	-0.0028711585
97	0xbd0302b6	-0.031985007
98	0xbdca7b89	-0.09886844
99	0x3cc21d0d	0.023695493
100	0x3cb07fd2	0.021545324
101	0xbda5f1bb	-0.08102747
102	0x3d5fbd85	0.0546241
103	0xbde97242	-0.11398746
104	0xbc9ac245	-0.018891463
105	0x3c018293	0.0079046665
106	0xbbf61e3b	-0.007510928
107	0x3c93b388	0.018029943
108	0xbe2476f8	-0.16061008
109	0xbd847f66	-0.06469612
110	0xbd8f4f26	-0.06997518
111	0xbc5e3a05	-0.013563638
112	0xbdd29fb5	-0.10284368
113	0xbe145e20	-0.14489031
114	0x3df54f09	0.119779654
115	0x3d0bcccb	0.034130853
116	0xbce4127e	-0.027840849
117	0x3dbbbf66	0.09167366
118	0x3ca75174	0.020424582
119	0xbcd22a00	-0.025654793
120	0xbdcdf0d5	-0.10055701
121	0xbdbd55e5	-0.09244899
122	0xbe06dbe4	-0.13169819
123	0x3da1e8de	0.07905744
124	0x3dad724e	0.084690675
125	0x3d922b29	0.071371384
126	0xbd6d7d29	-0.05798069
127	0x3d3038a0	0.04302275
128	0x3dc3bfa3	0.09558036
129	0xbb197cf7	-0.0023420432
130	0xbe2dfddd	-0.16991372
131	0xbc24bd5a	-0.010054911
132	0x3cae2ec0	0.021262527
133	0xbda56628	-0.080761254
134	0x3d57d8ca	0.05269698
135	0xbd34fc5d	-0.044185985
136	0x3cd17aa4	0.025571175
137	0xbd20129b	-0.039080244
138	0xbe0e9b40	-0.1392641
139	0x3a551020	0.0008127708
140	0xbe078af4	-0.132366
141	0xbda1c63d	-0.07899139
142	0xbd8a47e1	-0.06751991
143	0xbd51b7cc	-0.051200673
144	0x3c89cb7e	0.016820665
145	0x3caa9cb0	0.020826668
146	0xbcaedde1	-0.021346034
147	0x3bdfad05	0.0068260455
148	0xb91ee3c5	-0.00015152905
149	0xbc73ed04	-0.014888052
150	0xbd9fc6ec	-0.07801613
151	0xbe6b3c47	-0.22972213
152	0xbd98ca3a	-0.07460447
153	0xbd931c3e	-0.07183121
154	0x3c96d080	0.018409967
155	0xbbfca267	-0.0077097896
156	0xbb95d8ca	-0.0045729624
157	0xba99e80c	-0.0011742129
158	0x3ba73ddb	0.0051038093
159	0xbdeef70f	-0.116682164
160	0xbe476931	-0.19473721
161	0x3d42efdc	0.04759203
162	0xbdd273de	-0.10276006
163	0xbd76af3c	-0.06022571
164	0xbd84f9c6	-0.06492953
165	0x3ccbbc48	0.024870053
166	0x3d3d5468	0.046223074
167	0x3aac28ea	0.0013134752
168	0xbc64a1d3	-0.0139545975
169	0x3cd391ad	0.0258263
170	0x3d0b1f35	0.03396531
171	0x3d91cabb	0.07118746
172	0xbbfed209	-0.007776503
173	0xbd0ade17	-0.033903208
174	0xbd430762	-0.047614463
175	0xbd234cbd	-0.039868105
176	0xbd8939f3	-0.06700506
177	0xbd092192	-0.03347928
178	0x3d1daa9f	0.038492795
179	0x3b60d66e	0.0034307498
180	0x3db0a3f2	0.0862502
181	0xbd19faf7	-0.037592854
182	0xbbdd6b82	-0.0067572007
183	0x3c703507	0.01466108
184	0xbd69d6a9	-0.05708948
185	0xb9f98781	-0.0004759394
186	0xbd756902	-0.059914596
187	0xbc71c084	-0.014755372
188	0xbcd3c9fa	-0.025853146
189	0x3d1f81c4	0.038942114
190	0x3c0b9bc0	0.00852102
191	0xbe219f62	-0.15783456
192	0x3c12d2f6	0.00896143
193	0xbd850e44	-0.064968616
194	0x3c84eda4	0.016226597
195	0x3c07640c	0.008263599
196	0x3d9b9d44	0.075983554
197	0xbdfa2e5b	-0.12215873
198	0x3c14f48b	0.009091507
199	0xbd5efbef	-0.05443948
200	0xbd26bd96	-0.040708147
201	0x3d20363d	0.039114226
202	0xbc9dc001	-0.019256594
203	0xbe3afb87	-0.18260013
204	0x3ce3010d	0.027710462
205	0x3d93f876	0.072251245
206	0xbdd8491d	-0.1056082
207	0xbe14d87b	-0.14535706
208	0xbd604c51	-0.05476028
209	0xbce1173d	-0.027476901
210	0xbd0f1876	-0.034935437
211	0xbe0f44a4	-0.13991028
212	0xbe2c9453	-0.16853456
213	0xbde6ee38	-0.11275905
214	0xbda88364	-0.08228186
215	0xbe62443e	-0.22096345
216	0xbd8e2d8d	-0.06942282
217	0x3c250e68	0.0100742355
218	0x39faf7f9	0.0004786847
219	0xbe00fbea	-0.12596098
220	0x3c61d353	0.013783294
221	0x3c75d635	0.015004684
222	0xbd970ea6	-0.07375841
223	0xbd9f8f43	-0.07790997
224	0xbd8310d7	-0.06399696
225	0xbde68edd	-0.11257718
226	0xbe1bc96f	-0.1521356
227	0xbd871734	-0.065962225
228	0xbe039846	-0.12851056
229	0xbe365fe4	-0.17810017
230	0xbd9cea84	-0.07661918
231	0xbd0fe87e	-0.03513383
232	0xbccf3ebe	-0.025298472
233	0x3d6c7af0	0.05773443
234	0xbd7d95d1	-0.061910454
235	0xbd7b4424	-0.06134428
236	0xbc97d4ca	-0.018534083
237	0xbdedb2b0	-0.116063476
238	0x3d319323	0.04335321
239	0x3c44713f	0.011989891
240	0xbe14f92e	-0.1454818
241	0xbda65acf	-0.08122789
242	0xbdd339ff	-0.10313796
243	0xbe072245	-0.13196667
244	0xbd6b2bf1	-0.057414953
245	0x3d0c76fa	0.034293152
246	0x3d809166	0.062777326
247	0xbd4c805d	-0.049927104
248	0x3d1b652d	0.037938286
249	0xbd30bba4	-0.043147698
250	0x3d20ab17	0.039225664
251	0xbd9db465	-0.07700423
252	0xbcdeca40	-0.02719605
253	0x3a81dcf6	0.000990777
254	0xbde47c54	-0.11156526
255	0x3dba24ca	0.09089048

fc3.weight f4 [2, 300]
0	0xbee2df51	-0.44311002
1	0x3e6c2aa0	0.23063135
2	0x3ca23547	0.019800795
3	0xbc1007fb	-0.008790965
4	0xbd661e11	-0.056181017
5	0x3e0ab319	0.13544883
6	0xbbb2f57d	-0.0054613934
7	0xbd49506d	-0.049148966
8	0xbe5306e9	-0.20608105
9	0xbf40a55b	-0.7525231
10	0xbee2402d	-0.44189587
11	0xbac4cfaa	-0.0015015502
12	0x3bd29bd3	0.006427267
13	0xbd839a1e	-0.0642588
14	0xbc6df828	-0.014524497
15	0xbe101256	-0.14069495
16	0xbd2a884c	-0.04163389
17	0x3ecc070c	0.39849126
18	0x3e8c8bfa	0.27450544
19	0xbd92f315	-0.071752705
20	0x3e429a27	0.19004117
21	0x3e036dac	0.12834805
22	0x3cb987aa	0.022647697
23	0x3d9826ae	0.074292526
24	0xbe629424	-0.22126824
25	0xbe7aca3e	-0.24491212
26	0x3d33bfba	0.043884017
27	0x3e8932a7	0.26796457
28	0xbda713e3	-0.0815809
29	0xbce51f57	-0.027969046
30	0x3c872b22	0.01650006
31	0xbd817357	-0.063208275
32	0x3e44c399	0.1921524
33	0x3f7aa9e8	0.97915506
34	0xbd738bc8	-0.059459478
35	0x3e85bb00	0.26119232
36	0x3e5e8f46	0.21734342
37	0xbf0130f5	-0.5046533
38	0x3b9649b0	0.004586421
39	0x3df0a3d3	0.11749997
40	0x3d85cd07	0.065332465
41	0xbed5eeae	-0.4178366
42	0xbd660131	-0.05615348
43	0x3d317fe4	0.043334857
44	0xbe164e89	-0.14678396
45	0xbd167ff7	-0.03674313
46	0x3d37c930	0.0448696
47	0x3d6e01ed	0.058107305
48	0xbdd9284a	-0.10603388
49	0x3d6c6c2e	0.057720356
50	0x3c36cf40	0.011157811
51	0x3e579f78	0.21056926
52	0xbe6ebcc7	-0.233142
53	0xbc64b3a1	-0.0139588425
54	0x3dff5f9b	0.12469407
55	0xbf17225d	-0.5903681
56	0xbccd8a89	-0.025090473
57	0xbd58a314	-0.0528899
58	0x3cd447ae	0.025913086
59	0x3d40a5d4	0.047033146
60	0x3d8671db	0.06564685
61	0x3de272e1	0.11057068
62	0xbe427a81	-0.18992044
63	0xbc44c0f2	-0.012008892
64	0xbc1e0b3c	-0.009646233
65	0xbe17902f	-0.14801095
66	0x3ea112fb	0.31459793
67	0x3c8c1f11	0.017104657
68	0xbeb4af3c	-0.35289943
69	0x3cda3136	0.026634794
70	0xbcaa82c3	-0.020814305
71	0xbe0fd50b	-0.14046113
72	0x3c89f33a	0.016839612
73	0xbdc05b23	-0.09392383
74	0x3d9a3ffc	0.07531735
75	0xbdbb85ed	-0.09156404
76	0xbdb88e12	-0.09011473
77	0xbe533014	-0.20623809
78	0x3a987985	0.0011632895
79	0x3daa5c8c	0.08318433
80	0xbe1fb8b1	-0.15597798
81	0xbefc90e3	-0.4932929
82	0xbdd8c8dd	-0.10585187
83	0x3dbe8663	0.09302976
84	0x3d8c55ca	0.068523005
85	0x3e7688b1	0.24075581
86	0xbf1014f5	-0.5628198
87	0x3e3399c4	0.17539126
88	0x3d187938	0.03722498
89	0x3b694020	0.00355912
90	0x3d7ffc6a	0.06249658
91	0xbdff1ae2	-0.12456299
92	0x3cc50dcb	0.024054429
93	0xbdda5db0	-0.10662401
94	0xbd0f483a	-0.03498099
95	0xbd315761	-0.04329622
96	0xbeeaccf2	-0.45859486
97	0x3eca653e	0.39530367
98	0xbdf1a69b	-0.117993556
99	0xbe1b725f	-0.15180348
100	0xbd3a1292	-0.045427866
101	0xbef31e0f	-0.4748387
102	0xbf3f97ea	-0.7484118
103	0xbf33c20d	-0.70217973
104	0x3da398d0	0.07988131
105	0x3f216314	0.63041806
106	0xbcf1fa7e	-0.02953839
107	0x3df63858	0.120224655
108	0xb73bb447	-1.1188043e-05
109	0xbc7fc8e8	-0.015611865
110	0xbdfa92a8	-0.12235004
111	0xbeb1d1c5	-0.34730354
112	0xbdd82198	-0.105532825
113	0x3c0a87b2	0.008455204
114	0xbd0ba62e	-0.03409403
115	0x3bde6461	0.0067868684
116	0xbee034f9	-0.43790415
117	0x3c3e7d79	0.011626595
118	0xbe6b66a0	-0.22988367
119	0xbdcf0708	-0.10108763
120	0xbe6966d0	-0.22793126
121	0x3c9cda46	0.01914705
122	0xbc34015f	-0.010986655
123	0xbdc8494f	-0.097796075
124	0x3e7ade0a	0.24498764
125	0x3e147c9c	0.1450066
126	0xbd8366cd	-0.06416092
127	0x3a3df98f	0.0007246965
128	0x3d8fa156	0.07013194
129	0xbd4770f5	-0.04869171
130	0x3ecc672d	0.39922467
131	0xbef4e965	-0.47834316
132	0xbd0b151f	-0.03395569
133	0xbd8fac30	-0.07015264
134	0x3e765393	0.24055319
135	0xbe2cfadb	-0.16892569
136	0x3af440dd	0.0018635053
137	0x3d11f9b4	0.035638526
138	0xbdb9d290	-0.09073365
139	0x3d8f059a	0.0698349
140	0x3eeb21eb	0.45924315
141	0xbcb124ca	-0.021623988
142	0x3cc03f44	0.023467667
143	0xbe4942a8	-0.19654334
144	0x3d029cd2	0.031887837
145	0xbed319b1	-0.41230538
146	0x3bc9ec4c	0.006162202
147	0xbdb3fe46	-0.08788733
148	0xbf09b03c	-0.5378454
149	0x3defe279	0.11713118
150	0xbe4af485	-0.1981984
151	0x3e9f9fb8	0.31176543
152	0xbe6aa747	-0.22915374
153	0x3cd95261	0.02652854
154	0xbce1c89f	-0.027561484
155	0xbf29a1e3	-0.66262645
156	0xbf22aae3	-0.63542
157	0xbd8802c7	-0.06641155
158	0xbd7d7d5e	-0.061887138
159	0x3ce566f9	0.028003203
160	0xbeaa3dc3	-0.33250245
161	0xbca37ec7	-0.019957913
162	0xbedb8438	-0.42874312
163	0x3c0b1c26	0.008490598
164	0xbe117582	-0.14204982
165	0xbd232957	-0.039834347
166	0xbec30c60	-0.3809538
167	0xbeaf814a	-0.34278327
168	0x3d90b66c	0.07066044
169	0xb9bef004	-0.0003641845
170	0xbe9c9f5a	-0.30590326
171	0x3ecde05b	0.40210232
172	0xbd0e424e	-0.0347312
173	0xbe20eca9	-0.15715279
174	0x3d04ec2d	0.032451797
175	0xbed51e62	-0.41624743
176	0x3e203266	0.15644225
177	0xbcce9522	-0.025217596
178	0xbbd9ffcc	-0.006652808
179	0x3ce49150	0.027901322
180	0x3de046a7	0.10950976
181	0xbe19cb84	-0.15019041
182	0xbded1094	-0.11575428
183	0xbcad24a4	-0.021135636
184	0xbe316196	-0.17322382
185	0xbe0c5349	-0.13703646
186	0xbdec8d5b	-0.11550399
187	0xbca322fd	-0.019914145
188	0x3b813fb5	0.003944362
189	0x3d597079	0.053085778
190	0x3be909b8	0.0071117543
191	0xbea6b303	-0.3255845
192	0xbc95a461	-0.018266859
193	0xbe6d8560	-0.2319541
194	0xbe95b6bf	-0.29240987
195	0x3e2889c6	0.16458806
196	0x3e3465b8	0.17616928
197	0x3c07e098	0.008293293
198	0xbda17294	-0.07883182
199	0x3d743070	0.059616506
200	0xbe27d2b2	-0.16388968
201	0x3d991e14	0.0747644
202	0xbd5a63a9	-0.0533177
203	0xbc3f845f	-0.011689275
204	0xbe20124a	-0.15631977
205	0x3ea07cfd	0.31345358
206	0xbcca2606	-0.024676334
207	0xbdb88d73	-0.09011354
208	0xbe742ce5	-0.23845251
209	0xbeb544fa	-0.35404187
210	0x3c1b1053	0.009464341
211	0x3dff9be5	0.124809064
212	0xbed859b2	-0.42255932
213	0x3d73a273	0.059481096
214	0xbe3d2079	-0.18469419
215	0x3e28df0b	0.16491334
216	0xbf0c1cf3	-0.54731673
217	0x3b955803	0.004557611
218	0xbe4c5dca	-0.19957653
219	0xbcda6ca9	-0.026663141
220	0x3cd557d3	0.026042854
221	0xbed9215e	-0.4240827
222	0xbb03990e	-0.0020080241
223	0xbe1b189d	-0.15146108
224	0xbd8a87e2	-0.06764199
225	0xbee16f1d	-0.44030085
226	0xbea7fef5	-0.32811704
227	0xbebaab1b	-0.36458668
228	0x3d13b424	0.036060467
229	0x3d7fe854	0.062477425
230	0xbf0ae25e	-0.5425166
231	0xbe1f4a22	-0.15555623
232	0xbe4b6d82	-0.19865993
233	0xbef0fcf3	-0.47067985
234	0x3e5caad0	0.21549535
235	0xbda2fc75	-0.079583086
236	0x3d605c3d	0.054775465
237	0xbdd25a3a	-0.102711156
238	0x3eba4e28	0.36387753
239	0xbe05baf1	-0.13059594
240	0xbdb5a314	-0.08868995
241	0xbe0f13f9	-0.13972463
242	0xbd119dad	-0.035550762
243	0xbf1aee4f	-0.6051988
244	0xbe1dcc58	-0.15409982
245	0x3e93d7c1	0.28875545
246	0xbe7db371	-0.24775483
247	0xbd4934fc	-0.049122795
248	0xbc19fc23	-0.009398493
249	0xbd89058d	-0.06690512
250	0xbd56737d	-0.052356232
251	0xbc8cec7f	-0.017202614
252	0xbebde3e6	-0.37087935
253	0x3c758525	0.014985357
254	0xbe65fb76	-0.22459206
255	0x3e9a6c6f	0.30160853

fc3.bias f4 [2]
0	0x3d8bba6f	0.06822669
1	0xbddc2b19	-0.10750408
