checkpoint_critic.pth (torch_old, 532663 bytes, 9 tensors)

fcs1.weight f4 [400, 24]
0	0x3d5b5723	0.053549897
1	0xbd64db3e	-0.05587315
2	0x3b147e2c	0.0022658212
3	0x3cb09328	0.021554545
4	0xbc638094	-0.013885636
5	0x3d5ded64	0.05418147
6	0xbd7b3aec	-0.06133549
7	0x3bb3c096	0.0054856045
8	0xbcce2d3b	-0.025168052
9	0xbc7e8c47	-0.015536374
10	0x39e4a228	0.00043608365
11	0x3db39de0	0.08770347
12	0x3bb2872b	0.005448242
13	0x3c538895	0.012910982
14	0x3d5088ca	0.050911702
15	0x3dd2b152	0.102877274
16	0x3d407dc7	0.04699495
17	0xbd1c42f9	-0.038149808
18	0x3e25e622	0.1620107
19	0x3d0b00d4	0.033936337
20	0x3d4c91e8	0.049943835
21	0xbd8331b4	-0.064059645
22	0x3e3146da	0.17312184
23	0x3c289326	0.010288989
24	0xbeec8c76	-0.46200913
25	0x3f41b7e6	0.7567123
26	0xbcf8d7cc	-0.030376337
27	0xbcbc49c0	-0.022984385
28	0x3fe076ff	1.7536315
29	0x3f727e2c	0.94723773
30	0xbcce3734	-0.025172807
31	0x3b260ae3	0.0025336079
32	0xbea5653d	-0.323038
33	0x3f9ff1f1	1.249571
34	0xbdbfdc05	-0.09368137
35	0x3d76dd74	0.060269788
36	0x3f2acad4	0.6671574
37	0x3ef32dd0	0.4749589
38	0xbd953397	-0.072852306
39	0x3d84904f	0.06472837
40	0xbcf22b1b	-0.02956157
41	0x3fcb0fdb	1.5864214
42	0xbd4eec28	-0.050518185
43	0x3f7bf62e	0.98422515
44	0xbfae9d61	-1.3641778
45	0x3eacf359	0.3377941
46	0xbd33da06	-0.043909095
47	0x3f734279	0.95023304
48	0x3ed93691	0.42424443
49	0x3fb6249b	1.4229921
50	0x3b5f5d27	0.0034082623
51	0x3e7f86b7	0.24953733
52	0x3f9464e6	1.1593292
53	0x3ed378ca	0.41303092
54	0xbd412657	-0.047155704
55	0x3e76f2b3	0.2411602
56	0xbca80899	-0.020511912
57	0x3fc361e3	1.5264248
58	0xbd89bd61	-0.06725574
59	0xbe7e77e0	-0.24850416
60	0x3efaa41a	0.48953325
61	0x3f2fc4b8	0.68659544
62	0xbc58c2a3	-0.013229999
63	0xbe90930c	-0.28237188
64	0x3d73ec2f	0.059551414
65	0x3fa5d811	1.2956563
66	0xbc61a8ec	-0.013773184
67	0xbdc791d3	-0.09744611
68	0x400d7972	2.2105374
69	0x3e873661	0.26408675
70	0xbd28f762	-0.041251548
71	0xbde3ca3f	-0.1112256
72	0x3e161f2f	0.14660333
73	0x3ea67f03	0.32518777
74	0xbc187a7c	-0.009306546
75	0x3cfaa691	0.030597003
76	0xbe2257b9	-0.15853776
77	0x3cefbfde	0.029266294
78	0xbc286599	-0.010278129
79	0x3d4a4d08	0.04938987
80	0x3e312e65	0.17302854
81	0x3e9c5b33	0.3053833
82	0x3e1725eb	0.14760558
83	0xbd61f962	-0.05516947
84	0xbe2282fc	-0.15870279
85	0x3dce8151	0.10083259
86	0x3e34ab2e	0.17643425
87	0xbcef457f	-0.029207943
88	0x3e304b67	0.17216264
89	0x3e9c6871	0.30548432
90	0x3e19b73b	0.15011303
91	0x3da09abf	0.078420155
92	0xbe841b0b	-0.25801882
93	0x3d8bdf66	0.06829719
94	0x3e08febc	0.13378423
95	0x3e173fa3	0.14770369
96	0xbf0a00bc	-0.5390737
97	0x3e0fdf5c	0.14050049
98	0x3d6ac281	0.0573144
99	0xbcc1333a	-0.023583997
100	0xbf705999	-0.93886715
101	0x3efc9610	0.4933324
102	0x3dab99d4	0.0837895
103	0x395ea9a7	0.0002123477
104	0xbf2d3280	-0.6765518
105	0xbdd4792d	-0.10374675
106	0xbe95277c	-0.29131687
107	0x3dfdc91b	0.123918734
108	0xbdf69cbe	-0.12041615
109	0x3d36260e	0.044469886
110	0xbea17896	-0.31537312
111	0x3dbc8579	0.092051454
112	0xbfbc27da	-1.4699662
113	0xbf000216	-0.5000318
114	0xbf35ead3	-0.7106144
115	0xbe406e26	-0.18792018
116	0x3f285774	0.6575844
117	0x3e468328	0.1938597
118	0xbf2fde1f	-0.68698305
119	0xbdf57468	-0.11985093
120	0xbf30d550	-0.6907549
121	0x3d0b865a	0.034063675
122	0xbbcc3f0e	-0.0062331026
123	0x3e903497	0.28165123
124	0xbeec0e2e	-0.46104568
125	0xbf62ea70	-0.88638973
126	0xbc833d70	-0.016020507
127	0x3e9717a1	0.29510215
128	0xbf1b0f7d	-0.6057051
129	0x3e8c0feb	0.27355894
130	0xbcbf173f	-0.023326514
131	0xbe81dd2b	-0.2536405
132	0x3cbdea11	0.0231829
133	0xbeab055a	-0.3340252
134	0xbbe70a87	-0.0070508155
135	0xbe720aa9	-0.23636879
136	0xbf121f2e	-0.57078826
137	0xbda88ecd	-0.08230362
138	0xba242e1f	-0.0006262976
139	0xbf98af11	-1.1928426
140	0x3fabe6c8	1.3429804
141	0xbcb584b7	-0.02215801
142	0xbd76850a	-0.06018547
143	0xbf9d54e5	-1.2291533
144	0xbe3f1eef	-0.18664144
145	0x3dcf8965	0.10133628
146	0xbc9acaa8	-0.018895462
147	0x3c75c5c0	0.015000761
148	0x3cc113e1	0.02356905
149	0xbe02be16	-0.12767825
150	0xbc4ea554	-0.0126126595
151	0x3dc8e9bd	0.09810207
152	0xbde2ea4e	-0.11079846
153	0x3d861641	0.06547213
154	0x3b7d23d5	0.0038626094
155	0x3e1c7c92	0.15281895
156	0x3daafa1c	0.08348486
157	0x3c6ea3e9	0.014565446
158	0x3d411348	0.04713753
159	0x3e32da35	0.17466052
160	0xbe11c19f	-0.14234017
161	0x3d9bb8db	0.07603618
162	0x3d974494	0.07386127
163	0x3db38fae	0.08767639
164	0x3d6361ec	0.055513307
165	0x3eaf2435	0.3420731
166	0x3d33ae21	0.043867234
167	0x3d81e5bd	0.06342647
168	0x3e16c3a3	0.14723067
169	0x3f69d256	0.9133657
170	0xbc179937	-0.009252838
171	0x3dd3837e	0.103278145
172	0xbdcce01e	-0.100036845
173	0xbeb7becc	-0.35887754
174	0x3bd8489b	0.006600452
175	0x3d464c62	0.048412688
176	0x3dc4475f	0.095839255
177	0x3f8b16da	1.0866349
178	0x3da40db0	0.08010423
179	0xbcc4c20b	-0.024018308
180	0xbcab50e0	-0.020912588
181	0x3e8a0139	0.26954058
182	0x3d319b00	0.04336071
183	0xbdb7337b	-0.08945366
184	0xbe48c6d1	-0.19607092
185	0x3f00ef81	0.50365454
186	0xbe20fe7f	-0.15722083
187	0xbf5ebea3	-0.8700964
188	0x3d2cdb03	0.042201053
189	0x3f92ff40	1.1484146
190	0xbdb3de45	-0.08782629
191	0xbf4b6d34	-0.79463506
192	0xbe225a95	-0.15854867
193	0xbf00db1a	-0.5033432
194	0x3c3955a9	0.011311927
195	0xbc8490cc	-0.016182326
196	0xbf0d4323	-0.5518057
197	0xbfa7c5a8	-1.3107195
198	0xbcd6fef6	-0.026244622
199	0xbd80cfed	-0.06289659
200	0xbd100e3d	-0.03516983
201	0xbdd38779	-0.10328574
202	0xbc942fe4	-0.018089242
203	0xbd4edf5e	-0.05050599
204	0xbe87c038	-0.2651384
205	0xbf89419f	-1.0723151
206	0xbb6dca16	-0.0036283783
207	0xbd0a0041	-0.03369165
208	0x3e84aef8	0.2591474
209	0x3ecad6ec	0.39617097
210	0xbbb7a340	-0.0056041777
211	0xbccd2b9c	-0.025045209
212	0x3fa45128	1.2837267
213	0x400ba262	2.181786
214	0xbc96cd35	-0.018408397
215	0xbd9d3a47	-0.07677131
216	0x3ec09b9f	0.3761873
217	0x3fb4e474	1.4132218
218	0xbd4a9da3	-0.04946674
219	0x3ba37a46	0.0049889414
220	0x3f084b12	0.5323955
221	0xbfeeb6b2	-1.8649504
222	0x3d14c767	0.036322977
223	0xbcfcec61	-0.030874433
224	0xbe195359	-0.14973201
225	0x3cac6850	0.021045834
226	0x3d0a8e69	0.03382722
227	0xbd38dadf	-0.045130607
228	0x3e1c04d3	0.15236215
229	0xbf14c397	-0.58110946
230	0xbcb61b7e	-0.022229906
231	0x3d0bb53c	0.034108385
232	0xbe69ade4	-0.2282024
233	0xbfaf1d75	-1.3680865
234	0xbc4bc7ed	-0.012437803
235	0x3e06b58f	0.13155197
236	0x3dc65514	0.09684196
237	0x40279a34	2.6187868
238	0x3d0858f1	0.033287946
239	0x3e2d0ba3	0.1689897
240	0x3d1c92ae	0.038225822
241	0x3d913ed5	0.070920624
242	0xbc4a4003	-0.012344363
243	0x3c248a86	0.010042792
244	0x3eb7a1b3	0.35865554
245	0x3fd15f19	1.6357147
246	0x3c6a4575	0.014298786
247	0xbce37386	-0.027765047
248	0x3bef2866	0.007298517
249	0x3bf922f8	0.0076030456
250	0xbb303d92	-0.0026892168
251	0x3d38929a	0.045061685
252	0xbdd82d34	-0.10555497
253	0x3fa2934c	1.2701201
254	0x3b5dc95b	0.003384194
255	0xbcf89ec3	-0.030349141

fcs1.bias f4 [400]
0	0xbd489c10	-0.048976958
1	0xbce8d285	-0.028420696
2	0x3e33a4e4	0.1754337
3	0xbb04a0be	-0.0020237411
4	0x3e2acc88	0.16679585
5	0xbe11b12f	-0.14227746
6	0xbe149ca7	-0.14512883
7	0x3e4418f4	0.19150144
8	0x3e2494d8	0.16072404
9	0x3d746e7e	0.059675686
10	0x3e49b56e	0.19698116
11	0x3dc1aa84	0.094563514
12	0xbe07fa22	-0.13279012
13	0x3d8f0f1c	0.06985304
14	0xbd8113a8	-0.06302577
15	0xbe3e257b	-0.18568985
16	0xbe4d734b	-0.20063512
17	0xbcd60655	-0.026126066
18	0xbd02d584	-0.031941906
19	0x3c5bbaa1	0.013411195
20	0xbdbb4301	-0.09143639
21	0xbe3233a6	-0.17402515
22	0xbe01b3a7	-0.12666188
23	0x3e22feb3	0.15917473
24	0xbd647cb2	-0.05578298
25	0xbd6dcf3a	-0.058058955
26	0xbe02b6cc	-0.12765044
27	0xbdb0cbbd	-0.0863261
28	0xbe488fb9	-0.19586076
29	0xbdc14326	-0.09436636
30	0x3e161acf	0.14658664
31	0xbe4a9aba	-0.19785586
32	0x3e06af84	0.13152891
33	0xbcda02c6	-0.02661265
34	0xbcb1a453	-0.021684801
35	0x3e029e1d	0.12755628
36	0x3d1c742c	0.038196728
37	0x3e1960d9	0.1497835
38	0xbcaa576d	-0.020793641
39	0x3c4e25fc	0.012582298
40	0xbe453b18	-0.19260824
41	0x3e35c7cb	0.17751996
42	0xbc0c6b50	-0.008570507
43	0xbd76feab	-0.060301464
44	0xbdcfea7f	-0.101521485
45	0xbd3c3bdd	-0.045955528
46	0x3deff483	0.11716559
47	0xbd9ed905	-0.07756237
48	0x3e1bf19b	0.15228884
49	0x3d0124e3	0.03152932
50	0xbe3f8b22	-0.18705419
51	0x3c9bc68a	0.01901557
52	0x3e15407f	0.14575385
53	0x3e094c5a	0.13408032
54	0xbd469e15	-0.048490603
55	0xbdae42d0	-0.08508837
56	0x3e11131d	0.14167447
57	0xbdfeb941	-0.12437678
58	0x3d5f6770	0.054542005
59	0xbdd8ce44	-0.10586217
60	0x3db29a27	0.087208085
61	0x3ddad7e7	0.10685711
62	0x3e468b7c	0.19389147
63	0xbd8329d0	-0.064044595
64	0x3e3c6eae	0.18401596
65	0xbdd61cdf	-0.104547255
66	0x3dbfb21e	0.09360145
67	0x3e5100d5	0.20410474
68	0x3daab022	0.08334376
69	0xbe46aba3	-0.19401412
70	0xbe4549aa	-0.19266382
71	0xbcd76eff	-0.026298044
72	0xbdb1da9f	-0.08684277
73	0x3de28568	0.110606015
74	0x3df054e7	0.11734944
75	0xbe0c58e9	-0.13705792
76	0x3e1e91f5	0.15485366
77	0x3deb37c2	0.11485244
78	0x3e1bf50a	0.15230194
79	0xbde32146	-0.11090331
80	0x3d499ae9	0.04922
81	0xbdf9c132	-0.12195052
82	0x3e46ba93	0.1940711
83	0xbddc8ac0	-0.10768652
84	0x3e15f968	0.14645922
85	0x3d719942	0.05898405
86	0x3e2551dd	0.1614451
87	0x3e0dcab6	0.1384686
88	0x3d8ad34d	0.06778584
89	0xbdb55edf	-0.08855986
90	0x3cda66af	0.026660291
91	0xbd2f671b	-0.04282294
92	0x3e326f0b	0.17425172
93	0x3d64ad13	0.05582912
94	0x3bc3bd04	0.00597346
95	0x3d03b0d2	0.03215105
96	0x3e4d3680	0.20040321
97	0xbe264fbf	-0.16241358
98	0xbcf27bb6	-0.029600006
99	0xbb3bd3d1	-0.0028660188
100	0x3c25125b	0.010075177
101	0x3e31260c	0.1729967
102	0xbe317614	-0.173302
103	0xbdc13053	-0.09433045
104	0xbe2b4226	-0.16724452
105	0x3b7ff2ca	0.0039054626
106	0x3c797ab5	0.01522701
107	0xbe3820a1	-0.17981197
108	0x3ca71404	0.020395286
109	0xbdc18ccb	-0.09450682
110	0x3de23802	0.11045839
111	0xbe14887f	-0.14505194
112	0xbe27c4f3	-0.16383724
113	0xbdd320cf	-0.10308992
114	0x3dcdddd5	0.10052077
115	0x3d97554b	0.07389315
116	0x3de2c423	0.11072566
117	0xbd716f33	-0.05894394
118	0xbcb5f300	-0.022210598
119	0xbdc9caf1	-0.09853161
120	0xbd5d312a	-0.054001965
121	0xbe01fd6f	-0.12694333
122	0xbd3e10b0	-0.046402633
123	0x3e1d67c0	0.15371609
124	0xbe16e495	-0.14735635
125	0x3db23607	0.08701711
126	0xbd01cac4	-0.031687513
127	0xbb746ea7	-0.00372974
128	0x3e206d6d	0.15666743
129	0xbd233dfd	-0.03985404
130	0xbe3bdf0a	-0.18346801
131	0xbe06bc6c	-0.13157815
132	0xbe220b25	-0.15824564
133	0x3e02526c	0.12726754
134	0xbe117e47	-0.14208327
135	0xbe15f397	-0.14643703
136	0x3d921ad9	0.07134027
137	0xbd0e7e84	-0.034788623
138	0x3cb8b550	0.022547394
139	0x3e12e352	0.14344528
140	0xbca8de7c	-0.020613901
141	0xbca93d9c	-0.02065926
142	0xbd185f72	-0.0372004
143	0x3e438c24	0.19096428
144	0xbd0dca41	-0.034616712
145	0x3d461f46	0.04836967
146	0x3de8bf38	0.11364597
147	0x3db8983a	0.0901341
148	0x3d65a34d	0.05606394
149	0x3d7db74e	0.06194239
150	0xbdb7b4f8	-0.08970064
151	0xbdc1ae93	-0.094571255
152	0x3c7e6edd	0.015529362
153	0x3d91cc19	0.07119007
154	0xbdd49e1f	-0.10381722
155	0xbc26d776	-0.010183206
156	0xbcc645e3	-0.024203246
157	0x3d9082ad	0.070561744
158	0x3d624d9f	0.055249806
159	0x3b3ee1d0	0.0029126294
160	0x3c9e4a36	0.019322496
161	0xbe123577	-0.14278208
162	0xbe4a0444	-0.1972819
163	0xbdbea723	-0.093092225
164	0x3e2e6fca	0.17034832
165	0x3dbc93c0	0.092078686
166	0xbc3e1fd7	-0.011604271
167	0xbd046f6d	-0.032332826
168	0x3cd7c827	0.026340557
169	0xbe1e950d	-0.15486546
170	0x3d98dfc2	0.074645534
171	0x3dd3f9c1	0.10350371
172	0xbdde6ce5	-0.10860614
173	0x3d91f9ef	0.07127749
174	0x3ded10ee	0.11575495
175	0x3d2974d1	0.04137117
176	0x3e26b2cf	0.16279148
177	0xbda52151	-0.08062995
178	0x3d8f1b17	0.06987589
179	0xbd9dcde7	-0.077052884
180	0x3dd6ad5b	0.10482284
181	0xbdcfbd79	-0.10143561
182	0x3e147d36	0.14500889
183	0xbd818b2c	-0.06325373
184	0xbcb98c2e	-0.02264985
185	0x3e1d35d1	0.1535256
186	0xbd2c0890	-0.042000353
187	0x3e245b0f	0.16050361
188	0xbd917c7f	-0.07103824
189	0x3dd71e84	0.10503867
190	0xbe0e4832	-0.13894728
191	0x3e1b6277	0.1517428
192	0x3e2515fc	0.16121668
193	0xbe19d74b	-0.15023534
194	0x3c89a81e	0.016803797
195	0x3e09a479	0.13441648
196	0x3daca8a3	0.084306024
197	0x3b038b8a	0.0020072185
198	0xbe035bab	-0.12827937
199	0x3e1143d0	0.14186025
200	0x3e3e526d	0.1858613
201	0x3e2d1532	0.16902617
202	0xbceb97f6	-0.028758984
203	0x3de59185	0.11209396
204	0x3ce07cfd	0.027403349
205	0x3baa77a0	0.0052022487
206	0xbd6d07e2	-0.057868846
207	0x3e3f53b3	0.18684272
208	0x3e2c4f23	0.16827063
209	0x3e4e1909	0.20126738
210	0xbe29c76d	-0.16579981
211	0x3d79bb35	0.06096955
212	0xbcce3cab	-0.025175413
213	0xbd0395ad	-0.032125164
214	0x3dc83859	0.097763725
215	0x3e12f297	0.14350353
216	0x3e1c8df3	0.15288524
217	0x3dc92661	0.09821773
218	0xbda7a8e1	-0.08186508
219	0xbcf1b22f	-0.02950391
220	0x3d9e99de	0.077441916
221	0x3e07c6ee	0.1325948
222	0xbccf693b	-0.025318732
223	0xbce2ee9a	-0.027701665
224	0x3da79de8	0.08184415
225	0x3e188cca	0.14897457
226	0xbe0197ba	-0.12655535
227	0xbe3e30c8	-0.18573296
228	0x3e16a2ff	0.14710616
229	0xbe3dc5e8	-0.18532526
230	0x3df5ad76	0.11995976
231	0xbd8bf85b	-0.068344794
232	0x3e3346f8	0.17507541
233	0x3da52e44	0.08065465
234	0xbd817449	-0.06321008
235	0xbd09c9a6	-0.033639573
236	0xbcf6c07a	-0.030121077
237	0x3dc028a4	0.093827516
238	0x3d0cfe79	0.03442237
239	0xbd0ba637	-0.03409406
240	0xbdb2259c	-0.0869858
241	0x3e3b42b0	0.18287158
242	0x3dd40e1d	0.103542544
243	0xbd4ec68c	-0.050482318
244	0x3e199b30	0.15000606
245	0x3daf551f	0.085611574
246	0xbdd69193	-0.10476985
247	0x3d920344	0.07129529
248	0x3c85bc97	0.016325278
249	0x3c84a543	0.016192084
250	0xbd3e94bd	-0.046528567
251	0xbcd1e142	-0.025620107
252	0x3e072101	0.13196184
253	0xbe3b66bd	-0.1830091
254	0xbdc079c9	-0.09398229
255	0xbdebcae3	-0.11513307

fc2.weight f4 [300, 402]
0	0x3d015b08	0.031580955
1	0xbd0d8df6	-0.034559213
2	0xbd8f1a84	-0.06987479
3	0xbd1fc7a7	-0.039008763
4	0xbe1323e6	-0.14369163
5	0xbd238f41	-0.03993154
6	0xbd31b69d	-0.043387044
7	0xbd9309b4	-0.07179585
8	0x3bbc1712	0.005740055
9	0x3ace934e	0.0015760453
10	0xbd3d283a	-0.04618094
11	0xbc8f300a	-0.017478961
12	0xbcb6fe41	-0.022338035
13	0xbdb31832	-0.08744849
14	0xbcd04100	-0.02542162
15	0x3d4a6250	0.049410164
16	0xbd977076	-0.07394497
17	0xbdb79e51	-0.08965743
18	0x3d5eb26d	0.05436938
19	0x3ce86b5b	0.028371504
20	0xbc1507cf	-0.0090961
21	0xbd63343d	-0.05546974
22	0xbde6623e	-0.11249207
23	0xbda75acc	-0.08171615
24	0xbd626a84	-0.055277362
25	0x3cea4a2e	0.028599825
26	0x3c625369	0.013813832
27	0xbcc207e3	-0.023685401
28	0xbba6d3dd	-0.005091174
29	0xbe03657c	-0.12831682
30	0xbda64e92	-0.08120455
31	0xbd74e80f	-0.05979162
32	0x3c946f96	0.018119615
33	0xbe07095a	-0.13187161
34	0xbcbaa8c8	-0.02278556
35	0xbdb061f3	-0.08612432
36	0xbcd9114c	-0.026497506
37	0xbdb8544f	-0.090004556
38	0xbd188a4e	-0.037241273
39	0xbd80eb89	-0.06294925
40	0xbcc0d13e	-0.023537274
41	0xbce0388f	-0.02737072
42	0xbd2fe566	-0.04294338
43	0xbd5ea8f3	-0.05436034
44	0xbd5d7c12	-0.0540734
45	0xbcb0b524	-0.02157075
46	0xbc8e2130	-0.01734981
47	0xbdebd206	-0.11514668
48	0xbdb21528	-0.086954415
49	0xbde29055	-0.110626854
50	0xbdb7545e	-0.08951639
51	0xbd9a99ea	-0.07548888
52	0xbd879540	-0.06620264
53	0x3d415381	0.047198776
54	0xbda5f617	-0.081035785
55	0xbdc278b3	-0.09495678
56	0xbc82deed	-0.01597544
57	0xbdb9369a	-0.090436175
58	0xbda922b2	-0.08258571
59	0xbcc417de	-0.023937162
60	0x3bdf3a78	0.00681239
61	0xbe0f2f83	-0.13982968
62	0x3bd1d2b5	0.006403292
63	0xbd8c7f05	-0.068601646
64	0x3d36781c	0.04454814
65	0x3d55113a	0.05201838
66	0xbcd629da	-0.026143003
67	0xbd109a3f	-0.03530335
68	0xbdfc9033	-0.12332191
69	0xbc524c7c	-0.012835618
70	0xbda241b7	-0.0792269
71	0x3cbd309d	0.02309447
72	0x3c3b12b3	0.011418032
73	0xbb48d1cd	-0.003064263
74	0xbe4e755d	-0.20161958
75	0xbe59f91b	-0.21286432
76	0xbdef39ed	-0.1168097
77	0xbd9204ce	-0.07129823
78	0xbda2a70a	-0.079420164
79	0x3d257553	0.040395092
80	0xbc0c9d8c	-0.008582484
81	0xbd5bd080	-0.053665638
82	0x3c814abb	0.015782705
83	0x3b9274d9	0.0044694957
84	0xbd0e4dcf	-0.034742173
85	0xbd6da6f8	-0.058020562
86	0xbd782094	-0.060577944
87	0xbdcd3028	-0.10018951
88	0x39aac741	0.00032573382
89	0xbd489f11	-0.048979823
90	0x3d0967e9	0.033546362
91	0xbd0a7278	-0.033800572
92	0xbd8ca148	-0.068666995
93	0x3ccbb7c3	0.024867898
94	0x3bc40da8	0.0059830733
95	0xbd4b5940	-0.049645662
96	0xbc552e41	-0.013011516
97	0xbd731ce2	-0.059353717
98	0xbd9b14be	-0.07572316
99	0xbd8ebd22	-0.06969668
100	0x3d6289bd	0.05530714
101	0x3cc7204e	0.024307396
102	0x3c0b5855	0.008504947
103	0xbcabc234	-0.020966627
104	0x3b1cc215	0.0023919393
105	0xbd63318a	-0.055467166
106	0xbd954999	-0.07289428
107	0xbd50f74f	-0.0510171
108	0xbda15f68	-0.078795254
109	0xbdf3f02a	-0.11911042
110	0xbda304d0	-0.07959902
111	0xbc335afb	-0.010946984
112	0x3d0a865e	0.03381955
113	0xbd4fb701	-0.050711636
114	0xbd6b8841	-0.05750299
115	0xbced1a03	-0.028943067
116	0xbe118fb7	-0.14214979
117	0x3c0c3c5a	0.008559311
118	0x3c07d2aa	0.008289972
119	0xba242457	-0.00062615186
120	0xbc3824de	-0.011239259
121	0xbcaeb2c6	-0.02132548
122	0xbd23f1a4	-0.04002537
123	0xbd9b6ebb	-0.075894795
124	0xbe673ee6	-0.22582588
125	0xbd4f17fe	-0.05055999
126	0x3b8c2c04	0.004277708
127	0xbdb13313	-0.0865232
128	0xbd0be709	-0.03415588
129	0xbe07dfd4	-0.13268977
130	0x3c9b75ec	0.018977128
131	0x3ccacb36	0.024755102
132	0xbe1a38ed	-0.15060778
133	0xbd92f3c8	-0.07175404
134	0x3c045bd8	0.008078538
135	0xbc1cc692	-0.009568827
136	0x3d45a6bf	0.048254725
137	0xbdaa20aa	-0.083070114
138	0xbe88f5db	-0.26750073
139	0x3cb6dcc9	0.022322075
140	0x3c150e22	0.009097608
141	0x3ca95d0c	0.020674251
142	0xbd3f5a9c	-0.04671727
143	0xbd388c0b	-0.04505543
144	0xbd2e006b	-0.042480867
145	0x3bfd867e	0.00773698
146	0xbcb0d5d3	-0.021586334
147	0xbc5bd650	-0.013417795
148	0x3c990556	0.018679302
149	0x3cea4932	0.028599355
150	0xbdabb677	-0.08384412
151	0xbcf819c3	-0.030285722
152	0xbd0a58f6	-0.033776246
153	0xbd6a60a2	-0.057221062
154	0xbb67872e	-0.0035328376
155	0xbdc08399	-0.094001
156	0xbda3ce2c	-0.079983085
157	0xbc9da543	-0.019243842
158	0xbb2699ac	-0.0025421185
159	0xbce4c78c	-0.027927183
160	0x3c65155a	0.013982141
161	0xbc9deb8e	-0.01927736
162	0xbdb8383e	-0.08995102
163	0xbdcd54a7	-0.10025912
164	0xbd06ee9e	-0.032942407
165	0x3cd84d5e	0.026404079
166	0xbbfcfad6	-0.0077203317
167	0xbd61a0ff	-0.05508518
168	0xbd7efb28	-0.06225124
169	0xbd2d0a2e	-0.042246036
170	0x3d638cee	0.055554323
171	0xbd8a4fc5	-0.06753496
172	0xbd5b1f87	-0.053496864
173	0xbda2d38f	-0.07950508
174	0xbc9197b9	-0.017772542
175	0xbb187ab0	-0.0023266487
176	0xbc203d62	-0.00978026
177	0x3ce64130	0.028107256
178	0xbdda63cb	-0.10663565
179	0xbcb3bbe0	-0.021940172
180	0xbd76e84b	-0.060280126
181	0xbc2eb1d4	-0.010662515
182	0xbce8ca6e	-0.028416838
183	0xbc376b3e	-0.011195002
184	0xbd683d42	-0.056699045
185	0xbd6fc9c2	-0.05854202
186	0x3b3e5796	0.0029043905
187	0x3cf79965	0.030224511
188	0x3d2f713a	0.04283259
189	0xbb07b093	-0.0020704612
190	0xbca90c40	-0.020635724
191	0xbd73c33d	-0.059512366
192	0xbd2c8989	-0.04212335
193	0x3a736f04	0.0009286257
194	0xbc82f369	-0.015985208
195	0xbe3630d0	-0.17792058
196	0xbe23f36f	-0.16010831
197	0xbddf714d	-0.10910282
198	0xbd128ccf	-0.035778817
199	0xbcde3b81	-0.027127983
200	0x3a5e8a59	0.00084892433
201	0x3b189ee0	0.0023288056
202	0x3c90c4e2	0.017672006
203	0xbc87c8ce	-0.016575243
204	0xbd974cc9	-0.073876925
205	0xbd94d4d4	-0.07267156
206	0xbc884e0e	-0.016638782
207	0x3cb08e29	0.021552162
208	0xbdb3999a	-0.087695315
209	0xbcab441e	-0.020906504
210	0x3b67678d	0.0035309524
211	0x3c38780d	0.011259091
212	0x3c313a5d	0.010817138
213	0xbda93cb1	-0.08263529
214	0xbd77e6cc	-0.06052284
215	0xbcaf47d8	-0.021396562
216	0xbcd50eff	-0.026008127
217	0x3bd08322	0.0063632885
218	0xbd66716b	-0.056260508
219	0xbcc95c25	-0.02458007
220	0x3c384bd4	0.011248548
221	0x3cff89a6	0.031193566
222	0xbcff9791	-0.031200202
223	0xbc838a9f	-0.01605731
224	0xbd7aea38	-0.061258525
225	0xbd320e03	-0.043470394
226	0xbcf2caf8	-0.029637799
227	0xbe142ca0	-0.14470148
228	0xbe384fdf	-0.17999218
229	0xbe2c0956	-0.16800436
230	0x3cf6abac	0.030111156
231	0xbd3788fb	-0.04480837
232	0xbdbd1528	-0.09232551
233	0xbd42eb96	-0.047587954
234	0xbddec66e	-0.10877691
235	0x3cd6c8a6	0.026218724
236	0x3d259788	0.040427715
237	0xbd774cd0	-0.06037599
238	0xbdd80642	-0.105480686
239	0xbd128474	-0.03577085
240	0xbd7ce0fa	-0.061737992
241	0x3cac0f83	0.02100349
242	0xbafe7372	-0.0019413067
243	0xbd8dd722	-0.06925799
244	0xbd01cd84	-0.031690136
245	0xbe2bbab8	-0.16770446
246	0xbd88f109	-0.06686599
247	0xbde04c43	-0.10952046
248	0x3cf0109f	0.0293048
249	0xbda78e14	-0.08181396
250	0xbd6b8c9e	-0.05750715
251	0x3d412dd5	0.04716285
252	0xbdecbd45	-0.11559538
253	0xbafb64b4	-0.0019179792
254	0xbc2c722b	-0.010525267
255	0xbd0d8a2d	-0.034555603

fc2.bias f4 [300]
0	0xbdcb4d44	-0.099268466
1	0xbd510a1d	-0.051035035
2	0xbd4a7640	-0.04942918
3	0xbde3a2d4	-0.111150414
4	0xbdff846c	-0.12476429
5	0x3f41f89f	0.7576999
6	0xbe37c101	-0.17944719
7	0xbd90b80a	-0.07066353
8	0xbd8ca49a	-0.06867333
9	0xbd3cb2a0	-0.046068788
10	0xbdecd510	-0.11564076
11	0xbdc049d2	-0.0938908
12	0xbdddf096	-0.10836904
13	0xbd57c19e	-0.052674882
14	0xbd58ddb0	-0.052945793
15	0xbd6fb078	-0.058517903
16	0xbd91a0a5	-0.07110719
17	0xbda583c5	-0.08081774
18	0xbe965ec0	-0.29369164
19	0xbd95524e	-0.07291089
20	0xbdc20f20	-0.09475541
21	0x3cb1303d	0.021629447
22	0x3e84bbbf	0.2592449
23	0xbdd96c13	-0.10616317
24	0xbd44f922	-0.048089154
25	0xbd8ae809	-0.067825384
26	0xbd6e6219	-0.058199022
27	0xbd605b06	-0.054774307
28	0xbd88425d	-0.06653283
29	0xbd23057d	-0.039800156
30	0xbcd0e985	-0.025501976
31	0xbd468388	-0.04846528
32	0xbd468e2b	-0.048475426
33	0xbd76e145	-0.060273428
34	0xbdc6743f	-0.09690141
35	0xbd75b269	-0.0599846
36	0xbde36fb6	-0.111052915
37	0xbd45d9e1	-0.04830349
38	0xbde606a6	-0.11231737
39	0xbce8478b	-0.028354427
40	0xbe1de603	-0.15419774
41	0xbe6deabf	-0.2323408
42	0xbdea00bf	-0.114259236
43	0xbd9ea6a0	-0.07746625
44	0xbd707127	-0.05870166
45	0xbddc2908	-0.107500136
46	0xbe7dfcad	-0.2480342
47	0xbdbc3137	-0.091890745
48	0xbd3b4a0b	-0.04572491
49	0xbcf726ff	-0.030169962
50	0xbd95748d	-0.07297621
51	0xbd5e0b5b	-0.05421005
52	0xbdd5e707	-0.104444556
53	0x3eb9fb63	0.36324605
54	0xbd4606d3	-0.04834635
55	0xbe2643c6	-0.16236791
56	0xbd3d28d3	-0.04618151
57	0xbd9b7677	-0.07590955
58	0xbda596a7	-0.08085375
59	0xbd8d147c	-0.06888673
60	0xbda88e42	-0.082302585
61	0xbd7da9c0	-0.061929464
62	0xbdd65b02	-0.10466577
63	0xbdc8d44f	-0.0980612
64	0xbd5d77dc	-0.054069385
65	0xbdb5c878	-0.08876127
66	0xbd9ff9e1	-0.078113325
67	0xbd889f7d	-0.06671045
68	0xbdd6087c	-0.10450837
69	0xbdca8ebe	-0.09890507
70	0xbd9de2a8	-0.07709247
71	0xbd82e858	-0.06391972
72	0xbec5dd58	-0.38645434
73	0xbd731ecc	-0.059355542
74	0xbd9286da	-0.07154627
75	0x3da96b07	0.08272367
76	0xbd1488d1	-0.03626329
77	0xbda81dfb	-0.08208843
78	0xbdee99e8	-0.11650449
79	0xbf08a7ae	-0.5338086
80	0x3dd92d7a	0.10604377
81	0xbda88787	-0.08228975
82	0xbd92a119	-0.07159633
83	0xbd73edd9	-0.059553
84	0xbdc47ffe	-0.09594725
85	0xbdfed894	-0.12443653
86	0xbde2695c	-0.11055252
87	0xbd4b04b4	-0.049565032
88	0xbd589f79	-0.05288646
89	0xbd928ed4	-0.071561486
90	0xbe116f6c	-0.1420266
91	0xbdbf8f9f	-0.093535654
92	0xbd8d0d48	-0.06887299
93	0xbd7f38b3	-0.062309932
94	0xbd88a6a6	-0.06672411
95	0xbce367f8	-0.027759537
96	0xbd17cc3d	-0.03706001
97	0xbd83fb55	-0.06444422
98	0xbd76f2b9	-0.060290072
99	0xbe253b65	-0.16135938
100	0xbe0ee584	-0.13954741
101	0xbd9e2914	-0.07722679
102	0xbd5603f4	-0.052249864
103	0xbe010961	-0.12601234
104	0xbd443f32	-0.04791183
105	0xbe215a11	-0.15757014
106	0xbe2160ae	-0.15759537
107	0xbda433b5	-0.08017675
108	0xbee49bff	-0.44650266
109	0xbcfa6354	-0.030564941
110	0x3f384a9b	0.7198884
111	0xbd9e1038	-0.07717937
112	0xbd9f52a2	-0.07779433
113	0xbdd114b1	-0.10209025
114	0xbdc10a25	-0.09425763
115	0xbda73f5e	-0.08166383
116	0xbd988431	-0.074470885
117	0xbdb17a30	-0.086658835
118	0xbe1acf19	-0.15118064
119	0xbd95a8ba	-0.07307573
120	0xbdb71caf	-0.08941018
121	0xbcc9b341	-0.024621608
122	0xbd919097	-0.071076564
123	0xbd8462ba	-0.06464143
124	0xbd97f7c1	-0.07420302
125	0xbdcc3956	-0.099718735
126	0xbdafefda	-0.0859067
127	0xbdf9a645	-0.121899165
128	0xbe0351a7	-0.12824117
129	0xbdb00141	-0.08593989
130	0xbd827273	-0.06369486
131	0xbd392e1f	-0.04521
132	0xbdaa503f	-0.08316087
133	0xbd99d779	-0.07511801
134	0xbd98d906	-0.07463269
135	0xbcb58931	-0.022160145
136	0xbdc5fac0	-0.096669674
137	0xbdae7265	-0.08517913
138	0xbd79a397	-0.060947027
139	0xbd419d01	-0.04726887
140	0xbdaa3e1d	-0.083126284
141	0xbdf0585c	-0.11735603
142	0xbde2b3fa	-0.11069484
143	0xbe26264b	-0.16225545
144	0xbd90cabe	-0.0706992
145	0xbd816d32	-0.063196555
146	0xbdba11fa	-0.0908546
147	0xbe0f3b13	-0.13987379
148	0xbcf897a8	-0.030345753
149	0xbd62f9ff	-0.055414196
150	0xbdb3c1f7	-0.0877723
151	0xbd8f443c	-0.069954365
152	0xbd945f57	-0.07244747
153	0xbd97826a	-0.073979214
154	0xbdb762c5	-0.08954386
155	0xbdaeb4c1	-0.0853057
156	0xbd98840c	-0.07447061
157	0xbd96e5fa	-0.07368083
158	0xbd457991	-0.048211638
159	0xbe3122aa	-0.1729838
160	0xbcb29905	-0.021801481
161	0xbd96494f	-0.07338201
162	0xbd9eec39	-0.077599
163	0xbd0d0a87	-0.034433868
164	0xbdecf3fd	-0.115699746
165	0xbecb5ee1	-0.39720824
166	0xbd801374	-0.062537104
167	0xbd6d2681	-0.05789805
168	0xbd5f5aeb	-0.054530066
169	0xbdd823f3	-0.10553732
170	0xbd1f4cfc	-0.038891777
171	0xbd9490c7	-0.072541766
172	0xbe07dc95	-0.13267739
173	0xbd339f1b	-0.043852907
174	0xbcbe6fdb	-0.023246696
175	0xbda822f6	-0.08209793
176	0xbdb8de93	-0.09026828
177	0xbda88639	-0.08228726
178	0x3d63f3c3	0.05565239
179	0xbcf6d8c6	-0.030132663
180	0xbe089a51	-0.13340117
181	0x3de96661	0.1139648
182	0x3ef21a23	0.47285566
183	0xbce882fc	-0.02838277
184	0xbe24e54b	-0.16103093
185	0xbdd1f3ec	-0.102516025
186	0xbd4c59ad	-0.04989021
187	0xbdf19d2a	-0.11797555
188	0x3e0f7fa7	0.14013539
189	0x3c54c615	0.01298668
190	0xbdb4749e	-0.088113055
191	0xbd807508	-0.06272322
192	0xbd02be83	-0.031919967
193	0xbdb81dd1	-0.08990062
194	0xbe4b21ac	-0.19837064
195	0xbea769cb	-0.326979
196	0xbd734706	-0.059393905
197	0xbe395e53	-0.18102388
198	0xbd9cc0e9	-0.07653982
199	0xbd41e3b3	-0.04733629
200	0xbe8b84da	-0.27249795
201	0xbd4643ad	-0.048404384
202	0xbcedacd9	-0.029013084
203	0xbdce6306	-0.10077481
204	0x3c975069	0.01847096
205	0xbf2f898b	-0.6856925
206	0xbda9254b	-0.08259066
207	0xbe3d5a39	-0.18491448
208	0xbd98fca3	-0.07470062
209	0xbd9d5366	-0.076819226
210	0xbd31db8a	-0.04342226
211	0xbe00ac50	-0.12565732
212	0xbe117d1d	-0.14207883
213	0xbdd79242	-0.10525943
214	0xbdd03b6a	-0.10167582
215	0xbd8beb17	-0.06831949
216	0xbe47efe2	-0.19525102
217	0xbd70f7fb	-0.058830243
218	0xbdeecc9e	-0.116601214
219	0xbdcc852c	-0.09986338
220	0xbe6793d2	-0.22614983
221	0xbe442bf4	-0.19157392
222	0x3d65ff1d	0.056151498
223	0xbda7da3a	-0.0819592
224	0xbd890fa9	-0.0669244
225	0xbd9a9f1a	-0.075498775
226	0xbda4120a	-0.08011253
227	0xbe255510	-0.1614573
228	0xbdb30ac3	-0.08742287
229	0xbd661a18	-0.05617723
230	0xbe0e2fac	-0.13885373
231	0xbdceb418	-0.10092944
232	0xbe854eeb	-0.26036772
233	0xbd8e2a44	-0.06941655
234	0xbe35c085	-0.17749222
235	0xbdc04c1c	-0.09389517
236	0xbd6ac7f3	-0.057319593
237	0xbd9a001c	-0.07519552
238	0x3bf88dcc	0.007585263
239	0xbda95288	-0.08267695
240	0xbd91dcbf	-0.07122182
241	0xbdc8fbe3	-0.098136686
242	0xbd958cc7	-0.07302242
243	0xbcfbf723	-0.030757492
244	0xbc2a6ae4	-0.010401461
245	0x3d967f44	0.07348493
246	0xbe09b231	-0.13446881
247	0xbde5e720	-0.11225724
248	0xbdfbeff5	-0.123016275
249	0xbe362231	-0.1778648
250	0xbecf42ac	-0.40480554
251	0xbdcd4df6	-0.100246355
252	0xbd44f34a	-0.04808358
253	0xbe37116b	-0.17877738
254	0xbe8d0433	-0.27542266
255	0xbd8b1b11	-0.06792272

fc3.weight f4 [1, 300]
0	0x3d2c5a71	0.04207844
1	0xbc458d81	-0.012057663
2	0x3c6fca8b	0.014635692
3	0xbe0cbcef	-0.13743947
4	0x3cdd31b2	0.027001236
5	0x3ccf11a9	0.025276976
6	0xbc3c8018	-0.011505149
7	0xbc4c7e9e	-0.01248136
8	0xbc10d9c1	-0.008840979
9	0xbc9d1345	-0.019174227
10	0x3c3e79e7	0.0116257435
11	0xbca88138	-0.020569429
12	0x3931ea46	0.00016967309
13	0x3d8e3bd0	0.06945002
14	0x3cb0a547	0.021563185
15	0xbe0970a5	-0.13421877
16	0xbb263a1a	-0.002536422
17	0x3836bf93	4.35706e-05
18	0x3e0e34cc	0.13887328
19	0xbb8f12f9	-0.0043662754
20	0xbc932d7e	-0.017966028
21	0xbcdddce8	-0.027082875
22	0x3cb9a60f	0.02266219
23	0xbbd69cf4	-0.006549472
24	0xbc090968	-0.008364059
25	0x3c2825a8	0.010262884
26	0x3c1d40fa	0.009598011
27	0xba858e46	-0.0010189496
28	0x3a917129	0.0011096346
29	0xba9ce8ee	-0.0011971274
30	0xbd5c0dd5	-0.05372413
31	0x3c2e6b2f	0.010645672
32	0x3c933d40	0.017973542
33	0x39956231	0.00028492653
34	0x3d83a530	0.064279914
35	0x3c95fbcf	0.018308548
36	0x3ac29609	0.0014845739
37	0x3c27104a	0.010196755
38	0x3bd833e6	0.0065979837
39	0x3a529f78	0.0008034627
40	0xbc343711	-0.010999457
41	0x3db6ef82	0.08932401
42	0x3c6d0bcc	0.014468145
43	0xbc655462	-0.013997169
44	0xbc059d0a	-0.008155117
45	0x3c52b778	0.012861125
46	0xbe0776bd	-0.13228889
47	0xbc58f162	-0.013241144
48	0x3b17ce09	0.0023163578
49	0x3c309b66	0.010779237
50	0x3bbd61c2	0.005779476
51	0xbc1efc52	-0.009703713
52	0xbcbcceff	-0.023047922
53	0xbcb66b63	-0.022268003
54	0xbc6cd530	-0.014455125
55	0xbc8f38f6	-0.017483216
56	0xbb3b22bb	-0.0028554637
57	0xba3075a5	-0.00067313976
58	0xbc96aa8f	-0.018391876
59	0x3c5e5de0	0.013572186
60	0xbcba7975	-0.022762993
61	0xbce3150e	-0.02772
62	0xbbf724f2	-0.007542246
63	0x3bcc71e8	0.0062391646
64	0x3c9f0ef4	0.01941631
65	0xbbaed1df	-0.005335077
66	0xbc64c11a	-0.013962055
67	0x3ba3dc59	0.0050006327
68	0xbb04c975	-0.002026168
69	0x3d7d3b9d	0.06182443
70	0xbc533b52	-0.012892561
71	0x3bad0855	0.0052805343
72	0x3e876c6c	0.26449907
73	0xbce4487f	-0.0278666
74	0xbccb99eb	-0.024853667
75	0xbdd7005d	-0.10498116
76	0xbd9d66fb	-0.076856576
77	0xbbd68281	-0.006546319
78	0x3c8d4089	0.017242687
79	0x3e05f970	0.13083434
80	0xbde90189	-0.11377246
81	0x3c454f60	0.01204285
82	0x3b305a7d	0.0026909404
83	0xbc354d68	-0.011065818
84	0x3b21943b	0.0024655003
85	0x3dda8a82	0.106709495
86	0xbc6b614c	-0.014366459
87	0xbb95b0a5	-0.004568177
88	0x3c896336	0.01677094
89	0xbb007347	-0.001959996
90	0xbd7d81b7	-0.061891284
91	0xbc6f83e7	-0.01461885
92	0x3c3940fc	0.011306997
93	0xba76cfe5	-0.0009415134
94	0x3c84e823	0.016223973
95	0xbc379d1f	-0.011206894
96	0x3acc3e67	0.0015582562
97	0x3c99ae28	0.018759802
98	0xbab7f164	-0.0014033732
99	0xbb86ebc6	-0.004117462
100	0x3d14a874	0.036293462
101	0x3bb4d923	0.005519049
102	0x3c11875e	0.008882372
103	0xbcd615e1	-0.02613348
104	0x3aaa0e2a	0.0012974192
105	0xbaa0ed0d	-0.0012277678
106	0xbca76832	-0.020435426
107	0xbc1b4ece	-0.009479238
108	0x3dfc031a	0.12305279
109	0xbca47681	-0.020076038
110	0x3d44da68	0.04805985
111	0xbba2eb09	-0.004971866
112	0x3c7ed6fa	0.015554184
113	0xbda768fe	-0.081743225
114	0xbca1a448	-0.019731656
115	0xbcd02f82	-0.025413278
116	0x3d2d522c	0.042314693
117	0x3c8485db	0.016177109
118	0xba58bb20	-0.000826763
119	0x3bbf93b8	0.005846467
120	0x3c2d611e	0.010582237
121	0x3d4d9722	0.05019296
122	0x3b01c3cf	0.001980055
123	0xbdbae3b1	-0.0912546
124	0x3b2873d8	0.0025703814
125	0xbb456d0d	-0.0030124814
126	0xbc77fe65	-0.015136336
127	0xbc412865	-0.011789416
128	0x3b0ef268	0.0021811966
129	0x3c5bd2e5	0.01341698
130	0xbb1dde83	-0.0024088926
131	0xbc26e2f3	-0.010185945
132	0xbc4e5580	-0.012593627
133	0x3ccaaaaf	0.024739591
134	0x3d50370e	0.050833754
135	0x3c88e2bc	0.016709678
136	0x3cb42a3e	0.021992799
137	0xbc2e4c5b	-0.010638322
138	0xbb9e7ca2	-0.0048366347
139	0xbd4c0982	-0.049813755
140	0xbb192e2b	-0.0023373466
141	0x3dc87352	0.097876206
142	0x3bfd1f3a	0.0077246698
143	0xbbbe5148	-0.0058080293
144	0xbc78ea31	-0.015192554
145	0x3d3f42ce	0.04669457
146	0x3c1d490a	0.009599933
147	0x3d8707ff	0.06593322
148	0xbd01c35e	-0.031680457
149	0xbcf52db8	-0.029929027
150	0x3c871fe1	0.016494693
151	0x3c7b5a7e	0.015341399
152	0xbc3d6914	-0.011560697
153	0xbb2911f8	-0.0025798064
154	0xbb93c0fe	-0.0045090904
155	0xbc9a9ee9	-0.018874602
156	0xbccd044c	-0.025026463
157	0x3bc7ecee	0.0061012423
158	0xba1a899c	-0.0005895139
159	0x3bc5e0c9	0.0060387594
160	0xbc5831da	-0.013195479
161	0x3afc34a0	0.0019241758
162	0xbae36805	-0.0017349726
163	0xba8b59be	-0.0010631604
164	0xbc38380c	-0.011243831
165	0xbe963ebe	-0.29344743
166	0xbaa2f25d	-0.0012431849
167	0x3bc7ac4c	0.0060935374
168	0xbb90e458	-0.004421752
169	0xbc09695e	-0.008386938
170	0xbaa2d8f5	-0.0012424277
171	0xbc9cdfa6	-0.019149613
172	0xbc922876	-0.017841559
173	0x3cae3d4a	0.02126946
174	0xbb28103d	-0.0025644444
175	0x3ab8e855	0.0014107326
176	0xbc993567	-0.018702222
177	0xbc309a74	-0.010779012
178	0xbe40b7d8	-0.18820131
179	0x3d0b49be	0.034005873
180	0xbd4b13aa	-0.0495793
181	0x3d5a67f6	0.0533218
182	0x3cdb8919	0.026798772
183	0x3be1d045	0.0068912827
184	0xbdd095e1	-0.10184837
185	0x3b2cdc35	0.002637637
186	0x3ca055a2	0.019572083
187	0x3c83ceb7	0.01608978
188	0xbe1003da	-0.14063969
189	0x3b936baf	0.004498921
190	0x3c37df7a	0.011222715
191	0xbc457045	-0.012050693
192	0x3c840aca	0.016118426
193	0xbcdd0606	-0.026980411
194	0xbe789a7a	-0.24277678
195	0x3d7b3822	0.06133283
196	0xbb781bfd	-0.003785848
197	0xbdbc7b43	-0.09203198
198	0x3caf4b2a	0.021398146
199	0x3bcceba7	0.006253678
200	0xbd8de23f	-0.06927919
201	0xbc34cdf0	-0.011035427
202	0xbaeffa98	-0.0018308936
203	0xbcb9b499	-0.022669123
204	0x3d3049ed	0.04303925
205	0xbe911fd2	-0.2834459
206	0x3b384077	0.0028114596
207	0xbda0d139	-0.07852406
208	0x3ccc5173	0.024941182
209	0x3ae25f11	0.0017270764
210	0xbc50a80f	-0.012735381
211	0x3d00fa7e	0.031488888
212	0xbca1c09b	-0.019745162
213	0x3cb6ae63	0.022299951
214	0x3b89685f	0.00419335
215	0xbc864bea	-0.01639362
216	0xbd9ff0ce	-0.07809602
217	0xbc4bf553	-0.012448627
218	0x3c6bebdd	0.014399496
219	0xbc8272f3	-0.015923953
220	0xbd844b0d	-0.06459627
221	0xbd87844b	-0.0661703
222	0x3d842760	0.06452823
223	0xbc417b0b	-0.011809121
224	0xbc1cff1c	-0.009582307
225	0x3b860781	0.00409025
226	0x3da963f7	0.0827102
227	0x3dad939a	0.084754184
228	0xbb1f7883	-0.0024333305
229	0x3c598315	0.013275881
230	0xbd47e37b	-0.048800927
231	0xbc60c945	-0.013719861
232	0xbe102f8c	-0.14080638
233	0xbc8a07d5	-0.016849438
234	0x3d43d94a	0.047814645
235	0x3b86b99b	0.0041114814
236	0xbc4974f8	-0.012295954
237	0x39bbb587	0.00035802668
238	0x3da52d24	0.080652505
239	0x3ce442ba	0.027863849
240	0xbb7df876	-0.003875283
241	0xba1b498a	-0.0005923739
242	0x3c83eb47	0.0161034
243	0xbc158ab0	-0.009127304
244	0xbb373554	-0.002795537
245	0x3db0f838	0.08641094
246	0xbc695733	-0.014241981
247	0xbc8d7d9f	-0.017271815
248	0x3e08de2b	0.13366
249	0x3e13762a	0.14400545
250	0x3d76d719	0.060263727
251	0xbe2656b7	-0.16244017
252	0x3adc70f9	0.0016818336
253	0xbe24a8f2	-0.16080073
254	0x3c660f3c	0.014041718
255	0x3af3bef3	0.0018596336

bn1.weight f4 [400]
0	0x3d07f36f	0.03319114
1	0x3f0982c3	0.5371515
2	0x3f0573f1	0.5213004
3	0x3da89d95	0.082331814
4	0x3eb7c529	0.3589261
5	0x3f06d67c	0.5267103
6	0x3c2c3b81	0.010512234
7	0x3bba853a	0.0056921514
8	0x3f8c2fb1	1.0952054
9	0x3f8c9508	1.0982981
10	0x3ebcfe3d	0.36912718
11	0x3ebb94a4	0.3663684
12	0x3eae153e	0.34000582
13	0x3f1a8d8f	0.6037225
14	0x3cd27f1c	0.025695376
15	0x3e8137b6	0.25237817
16	0x3ed50c62	0.4161101
17	0x3eda0f50	0.42589808
18	0x3ed0cec6	0.40782756
19	0x3e74f5e2	0.23921922
20	0x3c896602	0.016772274
21	0x3f1ffe63	0.6249754
22	0x3e8254e6	0.25455397
23	0x3f2627dd	0.64904577
24	0x3f2028ba	0.62562144
25	0x3ef4c5da	0.478072
26	0x3eb85e98	0.3600967
27	0x3e8bd09e	0.273076
28	0x3f57b5bd	0.84261686
29	0x3e5a1713	0.21297865
30	0x3e847d1d	0.25876704
31	0x3e5a1414	0.21296722
32	0x3d0438f4	0.032280877
33	0x3f07b953	0.5301716
34	0x3e796022	0.24353078
35	0x3edfe4d8	0.4372928
36	0xbc0c65a7	-0.008569158
37	0x3fac5ac7	1.3465203
38	0x3efd69ba	0.49494725
39	0x3e4308c4	0.19046313
40	0x3e987f53	0.2978464
41	0x3ebd6919	0.36994246
42	0x3e895d17	0.26828834
43	0x3f0e356d	0.5555027
44	0x3e79da42	0.24399665
45	0x3d1825f6	0.037145577
46	0x3eb43a7a	0.35200864
47	0x3eace241	0.33766368
48	0x3e175813	0.14779691
49	0x3ebf425b	0.37355313
50	0x3ebce636	0.36894387
51	0x3e9e8dce	0.30967563
52	0x3ebda30a	0.3703845
53	0x3e857f78	0.26073813
54	0x3e5eb8fd	0.21750255
55	0x3e8c5c4d	0.2741417
56	0x3ef84034	0.48486483
57	0x3eca51b4	0.3951546
58	0x3ed5be28	0.4174664
59	0x3ebcb86f	0.36859462
60	0x3f1cdb9f	0.61272615
61	0x3f12b7d6	0.5731176
62	0x3eea0f04	0.4571458
63	0x3ebdd9d1	0.37080243
64	0x3a581d38	0.00082441
65	0x3cf5fd0c	0.030027889
66	0x3f1f0b9e	0.621271
67	0x3f036182	0.5132066
68	0x3f12ba7b	0.57315797
69	0x3d85de28	0.065365136
70	0x3ea494b3	0.32144699
71	0x3e9eeecb	0.3104156
72	0x3ea252fe	0.31703943
73	0x3a17ede1	0.00057956396
74	0x3ef70313	0.48244533
75	0x3f21979d	0.6312197
76	0x3eb6fa07	0.3573763
77	0x3e944a1b	0.28962788
78	0x3f178038	0.5918002
79	0x3c6ec8e9	0.014574268
80	0x3eace92d	0.3377165
81	0x3c0ae33e	0.00847703
82	0x3f032a36	0.51236284
83	0x3bc91bc5	0.0061373436
84	0x3ed78510	0.42093706
85	0x3d910ba7	0.07082301
86	0x3ee8fb88	0.45504403
87	0x3ece0b09	0.40242794
88	0x3e8d02ae	0.27541107
89	0x3c01ddff	0.007926463
90	0x3ea92bfa	0.33041364
91	0x3e2dde63	0.16979365
92	0x3ea9a637	0.33134624
93	0x3edc27a9	0.42999008
94	0x3e8b9444	0.27261555
95	0x3f1fe0a1	0.6245213
96	0x3a8a2497	0.0010539469
97	0x3ea12617	0.31474373
98	0x3cbdad90	0.02315405
99	0x3f10c761	0.5655423
100	0x3cf130a0	0.029442132
101	0x3d1db0c6	0.038498662
102	0x3ee51df8	0.44749427
103	0x3ee10875	0.43951765
104	0x3c603420	0.013684303
105	0x3bafb35c	0.0053619575
106	0x3ed3c3d5	0.41360345
107	0x3f2ef0d8	0.6833625
108	0x3f26cfc5	0.6516078
109	0x3e9d1d5e	0.30686468
110	0x3f80ae36	1.0053165
111	0x3bc99f7e	0.006153046
112	0x3f2e8a58	0.68179846
113	0x3eb4a0a9	0.35278824
114	0x3e1eb07e	0.15497014
115	0x3e98c67d	0.29838935
116	0x3efdc042	0.49560744
117	0x3f418ffd	0.75610334
118	0x3e353c71	0.17698838
119	0x3e1591d1	0.14606406
120	0x3f15ccbf	0.5851554
121	0x3ec7e5da	0.3904255
122	0x3c236462	0.009972664
123	0x3e1a5cdc	0.15074486
124	0x3f0c33aa	0.54766333
125	0x3f268d4e	0.65059364
126	0x3ea9bda7	0.33152506
127	0x3ee38a4b	0.44441447
128	0x3e94b9f3	0.29048118
129	0x3edc2905	0.43000045
130	0x3c17626f	0.009239777
131	0x3c0ba64e	0.008523537
132	0x3f01acfd	0.50654584
133	0x3ce613dd	0.028085643
134	0x3eba8274	0.36427653
135	0x3e909a56	0.2824275
136	0x3ec082b3	0.37599716
137	0x3e93d83b	0.28875908
138	0x3f11c41a	0.5693985
139	0x3d23360a	0.039846458
140	0x3c5f6d9c	0.013636973
141	0x3e84e67f	0.25957105
142	0x3e6cf68d	0.23140927
143	0x3e87ea67	0.26546022
144	0x3ee70702	0.45122534
145	0x3ef3d2c8	0.4762175
146	0x3d08a94e	0.033364587
147	0x3ef84e81	0.48497394
148	0x3ed2206f	0.4104037
149	0x3db19f01	0.08672906
150	0x3d73a7df	0.059486266
151	0x3f990e52	1.1957495
152	0x3f075baf	0.52874273
153	0x3df4d15d	0.119539954
154	0x3d30ad57	0.04313406
155	0x3ce92bd9	0.028463291
156	0x3eda365f	0.42619607
157	0x3f826b01	1.0188905
158	0x3d6a9e87	0.05728009
159	0x3e5deda3	0.21672682
160	0x3ea1d959	0.31611136
161	0x3ee017cf	0.43768165
162	0x3ec945a9	0.3931096
163	0x3e645e2d	0.2230155
164	0x3f1adc00	0.60491943
165	0x3d1eb715	0.03874882
166	0x3eb31cf2	0.3498302
167	0x3f3169fe	0.69302356
168	0x3e1f21f5	0.15540297
169	0x3f0c2052	0.54736817
170	0x3d2b702f	0.041855033
171	0x3f2b9404	0.6702273
172	0x3ecb2239	0.39674547
173	0x3eb1a9d1	0.34699872
174	0x3ea8c3a0	0.3296175
175	0x3e8675fc	0.2626189
176	0x3edf56b3	0.43620834
177	0x3ea7542e	0.32681412
178	0x3f14f6c8	0.5818906
179	0x3ea2d1bb	0.31800637
180	0x3eefe231	0.46852258
181	0x3e4da6a7	0.20083104
182	0x3e3f9622	0.18709615
183	0x3e515c87	0.20445453
184	0x3e61e8bc	0.22061437
185	0x3ea8fe4c	0.33006513
186	0x3ea30207	0.31837484
187	0x3ee226dd	0.44170275
188	0x3eafe4fd	0.34354392
189	0x3c960500	0.018312931
190	0x3ebb4e06	0.36582965
191	0x3e8d32a5	0.275777
192	0x3f0828c9	0.53187233
193	0x3eae2bbc	0.34017742
194	0x3ed4901c	0.41516197
195	0x3eea960c	0.45817602
196	0x3e21fa86	0.15818223
197	0x3f3ab4a2	0.72931874
198	0x3edee6af	0.43535373
199	0x3eddf8df	0.43353936
200	0x3ea61d22	0.32444102
201	0x3ec0b699	0.3763931
202	0x3e67d108	0.22638333
203	0x3e84f1b1	0.25965646
204	0x3eb33fe4	0.35009682
205	0x3e966e40	0.2938099
206	0x3ef65dd7	0.4811847
207	0x3f70a73e	0.9400519
208	0x3f40a3b8	0.75249815
209	0x3ef94c5e	0.48691076
210	0x3f2c173c	0.6722295
211	0x3ea939aa	0.33051807
212	0x3b3a4dff	0.0028427837
213	0x3efd36a1	0.4945574
214	0x3e9ef13d	0.31043425
215	0x3ed06bf4	0.40707362
216	0x3ea1d46d	0.3160738
217	0x3f059e9b	0.5219514
218	0x3ede2f10	0.4339528
219	0x3e54e13e	0.20789048
220	0x3eba35b5	0.363691
221	0x3d68ac04	0.056804672
222	0x3e72500d	0.2366335
223	0x3ecbcab6	0.39803094
224	0x3e56e308	0.20985043
225	0x3ea2823e	0.31739992
226	0x3f33ab7f	0.7018356
227	0x3e12d62d	0.14339514
228	0x3f73448c	0.9502647
229	0x3eaba301	0.335228
230	0x3edb66ce	0.4285187
231	0x3ed33b7a	0.41256315
232	0x3ee14582	0.43998343
233	0x3bc0a05d	0.005878492
234	0x3e98333d	0.29726592
235	0x3c99b345	0.01876224
236	0x3f2786c2	0.6544
237	0x3c8717e4	0.016490884
238	0x3ecc8a8e	0.3994946
239	0x3eafa6d0	0.34306955
240	0x3cae2f96	0.021262925
241	0x3eb17c12	0.3466497
242	0x3eb8eab7	0.36116573
243	0x3eb550b8	0.35413146
244	0x3e903fd0	0.28173685
245	0x3ec35f11	0.38158467
246	0x3eb25133	0.34827575
247	0x3e9ffa8f	0.3124585
248	0x3e77ed3c	0.24211591
249	0x3e9dbb49	0.3080695
250	0x3f083843	0.5321085
251	0x3deaf4a0	0.1147244
252	0x3f05c800	0.522583
253	0x3ebbb45f	0.3666105
254	0x3efbc980	0.4917717
255	0x3f43d3d7	0.76495117

bn1.bias f4 [400]
0	0xbdb27afa	-0.08714862
1	0xbee6feba	-0.45116216
2	0xbf2e72bc	-0.6814382
3	0xbe7202df	-0.23633908
4	0xbea3d4ff	-0.3199844
5	0xbf1674e3	-0.58772105
6	0xbdf32f20	-0.11874223
7	0xbdc4bf36	-0.09606783
8	0xbee63ddf	-0.4496908
9	0xbfaeb791	-1.364977
10	0x3c835300	0.016030788
11	0xbf0a93ca	-0.5413176
12	0xbf092f22	-0.53587544
13	0xbf177f2b	-0.5917842
14	0xbd8d12c4	-0.06888345
15	0xbeb9160c	-0.36149633
16	0xbf02cafb	-0.51090974
17	0xbefcf639	-0.49406603
18	0x3e026675	0.12734397
19	0xbe58c946	-0.2117053
20	0xbd9eb0fd	-0.077486016
21	0xbf13526b	-0.57547635
22	0xbf01d3a5	-0.5071357
23	0xbe12fa4f	-0.14353298
24	0xbf4c9bab	-0.7992503
25	0xbe7faf57	-0.2496923
26	0xbeaab6aa	-0.33342487
27	0xbe39fa55	-0.181619
28	0xbf9fbd05	-1.2479559
29	0xbdc61306	-0.09671597
30	0xbecf5d47	-0.40500852
31	0xbe427e68	-0.18993533
32	0xbdd0c7cd	-0.10194359
33	0xbe511d9b	-0.2042145
34	0xbe767657	-0.2406858
35	0xbea751e6	-0.3267967
36	0xbd0fb9e0	-0.035089374
37	0xbe94b0fc	-0.29041278
38	0x3da505cd	0.08057747
39	0x3b75c68f	0.0037502383
40	0xbe6723a3	-0.22572188
41	0xbf095f02	-0.53660595
42	0xbe71c854	-0.23611575
43	0xbf1ec825	-0.62024146
44	0xbebd2988	-0.36945748
45	0xbdfbc04a	-0.122925356
46	0xbf0952ee	-0.53642166
47	0xbeb42cb8	-0.35190368
48	0xbccb2484	-0.024797685
49	0xbebb06a2	-0.36528498
50	0xbe9fc8d7	-0.31207916
51	0xbe92b745	-0.2865545
52	0xbecd4e1f	-0.40098664
53	0xbefdb39e	-0.495511
54	0xbdbb0553	-0.09131875
55	0xbf1df1a4	-0.6169684
56	0xbf0eb6a4	-0.5574744
57	0xbead0174	-0.3379017
58	0xbdf6dceb	-0.120538555
59	0xbef57f53	-0.47948703
60	0xbf22be93	-0.63572043
61	0xbee998f3	-0.45624503
62	0xbec4ad54	-0.3841349
63	0xbea049ef	-0.31306407
64	0xbd39080b	-0.045173686
65	0xbe2e58da	-0.17026082
66	0xbe94f479	-0.29092768
67	0xbf06abd9	-0.5260597
68	0xbe88abcf	-0.2669358
69	0xbea09c51	-0.3136926
70	0xbee0a359	-0.43874624
71	0x3c553df1	0.013015256
72	0xbeaf911c	-0.34290397
73	0xbbfc4ef4	-0.0076998416
74	0x3d93befd	0.072141625
75	0xbe4b08e3	-0.19827609
76	0xbed32c68	-0.41244817
77	0xbeeca282	-0.46217734
78	0xbef65064	-0.48108208
79	0xbd9af464	-0.07566145
80	0xbe91fd4a	-0.28513557
81	0xbd6d2b4e	-0.057902627
82	0xbef50ca1	-0.47861198
83	0xbdbf2438	-0.0933308
84	0xbefc9a83	-0.49336633
85	0xbe34baab	-0.17649333
86	0xbf3c1b7b	-0.7347943
87	0xbec3646b	-0.3816255
88	0xbe8f59e2	-0.27998263
89	0xbd06edac	-0.032941505
90	0xbe61a5b3	-0.22035865
91	0xbede8d46	-0.43467158
92	0x3eb06246	0.34449977
93	0xbf1f9721	-0.6233998
94	0xbefb8cac	-0.49130762
95	0xbefcbf9a	-0.4936493
96	0xbd9208e2	-0.071306005
97	0xbe2d4a0c	-0.16922778
98	0xbe66d024	-0.22540337
99	0xbe9c616e	-0.30543083
100	0xbe03452f	-0.1281936
101	0xbe2e1690	-0.17000794
102	0xbf3c180a	-0.7347418
103	0xbf127804	-0.5721438
104	0xbdbdd9f4	-0.09270087
105	0xbcfc36cf	-0.030787854
106	0xbf16467f	-0.5870132
107	0xbec7241a	-0.3889473
108	0xbeaa4596	-0.33256215
109	0xbecc4a6d	-0.39900532
110	0xbeae78f6	-0.3407666
111	0xbd9aa76c	-0.075514644
112	0xbf3c6105	-0.7358554
113	0xbee7f01b	-0.45300373
114	0xbe06094d	-0.13089485
115	0xbec473a0	-0.38369465
116	0xbf5405f7	-0.828216
117	0xbf540be8	-0.8283067
118	0xbf19dfa1	-0.60106856
119	0xbdffe246	-0.1249433
120	0xbf183d12	-0.59468186
121	0xbd13a16f	-0.036042627
122	0xbd3235cc	-0.043508336
123	0xbd1eff31	-0.03881759
124	0xbec00b22	-0.37508494
125	0xbead4869	-0.33844307
126	0xbec8f58e	-0.39249843
127	0xbef225a3	-0.4729434
128	0xbb4bca49	-0.0031095913
129	0xbeb17d3e	-0.34665865
130	0xbd85a550	-0.065256715
131	0xbd39fad6	-0.04540523
132	0xbf16afe3	-0.5886213
133	0xbdfe4765	-0.12415961
134	0xbe91c934	-0.28473818
135	0xbeb765f7	-0.3581998
136	0xbf0f7941	-0.56044394
137	0xbe924b81	-0.2857323
138	0xbecf62f5	-0.40505186
139	0xbe2b6d87	-0.16741
140	0xbd787e02	-0.060667045
141	0xbef75e04	-0.48313916
142	0xbe307c0c	-0.1723482
143	0xbe55266e	-0.20815441
144	0xbf451c1e	-0.7699603
145	0xbdfd4b1c	-0.123678416
146	0xbe1c5031	-0.15264966
147	0xbf19a32e	-0.6001462
148	0xbf2333e8	-0.6375108
149	0xbeb212e7	-0.34780046
150	0xbe5fadc3	-0.21843629
151	0xbbdfe9f2	-0.0068333084
152	0xbefc3022	-0.49255472
153	0xbf05f62d	-0.5232876
154	0xbe64e2ed	-0.2235219
155	0xbe4a6450	-0.19764829
156	0xbf28dee4	-0.65965104
157	0xbbd8e4ac	-0.0066190567
158	0xbe511322	-0.20417455
159	0xbeb41cd7	-0.35178253
160	0xbea7eb04	-0.3279649
161	0xbe7f355b	-0.24922697
162	0xbef43c84	-0.4770242
163	0xbe4233bc	-0.18965048
164	0xbf6071a7	-0.8767342
165	0xbe521b0e	-0.20518133
166	0xbebb1be0	-0.36544704
167	0xbef63a6d	-0.4809145
168	0xbf04db83	-0.5189745
169	0xbf1e8b8b	-0.61931676
170	0xbe039df0	-0.12853217
171	0xbf3adc57	-0.7299246
172	0xbeb78917	-0.3584678
173	0xbf400219	-0.750032
174	0xbe74277d	-0.23843189
175	0xbf2cf870	-0.67566586
176	0xbf208881	-0.6270829
177	0xbeb96cc6	-0.362158
178	0xbdb47b83	-0.088126205
179	0xbeeb2016	-0.45922917
180	0xbeb9e1a3	-0.3630496
181	0xbeb55fab	-0.3542455
182	0xbdcc3971	-0.099718936
183	0xbe987dc2	-0.29783446
184	0xbe8622ea	-0.26198512
185	0xbf3405ee	-0.7032155
186	0xbf032d54	-0.5124104
187	0xbf2b80cd	-0.6699341
188	0xbed7a078	-0.42114615
189	0xbe11bd94	-0.14232475
190	0xbf1b1760	-0.6058254
191	0xbecbdf64	-0.3981887
192	0xbf88fbe6	-1.0701873
193	0xbf066d81	-0.5251084
194	0xbeb1c12a	-0.34717685
195	0xbd171a44	-0.036890283
196	0xbca59171	-0.020210953
197	0xbf2a755e	-0.6658534
198	0xbf3d6c72	-0.739936
199	0xbefd050c	-0.49417913
200	0xbe50321a	-0.20331612
201	0xbed14519	-0.4087303
202	0xbe5476c3	-0.20748429
203	0xbe7344cd	-0.23756714
204	0xbf07f7bc	-0.5311239
205	0xbe4f3eab	-0.2023875
206	0xbf05dfb1	-0.5229445
207	0xbd8163d2	-0.06317867
208	0xbf231e01	-0.6371766
209	0xbf03da83	-0.515053
210	0xbf78afbd	-0.97143155
211	0xbec57e9b	-0.38573155
212	0xbd2a389a	-0.041557886
213	0xbf52da72	-0.8236457
214	0xbf28cb6e	-0.6593541
215	0xbefb57aa	-0.4909032
216	0xbec657f6	-0.38738984
217	0xbf46d54f	-0.77669233
218	0xbf3e15e7	-0.7425217
219	0xbf3c0d0f	-0.73457426
220	0xbeb91c9c	-0.3615464
221	0xbe714754	-0.23562366
222	0xbec34f8c	-0.38146627
223	0xbe35e614	-0.17763549
224	0xbe8ef54d	-0.27921525
225	0xbdde6c0e	-0.108604535
226	0xbf17f83f	-0.5936317
227	0xbe191ef4	-0.14953214
228	0xbe59922d	-0.21247168
229	0xbe7b4ff6	-0.24542221
230	0xbe99bafc	-0.3002547
231	0xbf0fb791	-0.56139475
232	0xbed14c80	-0.40878677
233	0xbcd0b945	-0.025478968
234	0xbeb36bdc	-0.35043228
235	0xbd9d55bf	-0.076823704
236	0xbea0286c	-0.3128084
237	0xbd9f44c6	-0.07776789
238	0xbea61ec7	-0.32445356
239	0xbeeeffe3	-0.466796
240	0xbe5a813a	-0.21338359
241	0xbf103cd5	-0.5634282
242	0xbf059be5	-0.52191
243	0xbe39f5fb	-0.1816024
244	0xbf14b63c	-0.5809057
245	0xbdea7df7	-0.11449807
246	0xbef61f31	-0.48070672
247	0xbee7f0f8	-0.45301032
248	0xbece9986	-0.40351504
249	0xbe8ad8e3	-0.27118596
250	0xbeddc006	-0.43310565
251	0xbe97592f	-0.2956023
252	0xbf12bb4e	-0.57317054
253	0xbef099f2	-0.4699245
254	0xbf1da62c	-0.61581683
255	0xbf0c24f7	-0.54743904
