two agent related files/checkpoint_actor_0.pth (torch_old, 524607 bytes, 6 tensors)

fc1.weight f4 [400, 24]
-0.056770064 -0.12275257 0.0028926164 0.21039702 0.015848847 0.050033808 -0.0028970444 0.22327511
-0.06446248 -0.1272056 -0.004544799 0.10582554 0.03930887 -0.16012155 0.006190661 0.11210866
-0.0105525 -0.08080727 0.0030928475 -0.0064680777 0.1305158 -0.38458878 -0.0055471575 0.044193335
-0.037224054 0.017720416 -0.02218885 0.01322956 -0.06780176 -0.07513295 0.011750333 0.082469225
0.013970537 0.028294655 0.009432152 0.06729144 -0.027709495 -0.25107712 -0.044757403 -0.0020525202
0.050331317 -0.004800629 -0.04343767 -0.005631406 0.034724243 -0.29166827 0.029854046 -0.020189218
-0.006069166 -0.068021856 -0.032975994 -0.04671849 -0.13835165 -0.049263537 0.039019894 -0.008809823
0.02576643 -0.0906184 -0.0026363733 -0.02891061 0.025975386 -0.011303168 -0.001995918 -0.019040463
0.012852917 -0.067207396 0.00854776 -0.091733746 0.11253255 0.069023624 -0.0080753695 -0.057715528
-0.035974223 0.060759164 0.024511388 0.1492378 -0.07915009 0.05454085 -0.014585856 0.099410325
-0.051846337 0.10311821 -0.010647215 -0.0010299446 -0.01980567 -0.028562056 0.013047859 0.019543756
-0.0127539085 0.09353576 0.03245571 -0.086249985 0.099363685 -0.010562888 -0.04036156 -0.08637706
-0.042537764 0.057591576 0.016109636 0.097655416 0.06832607 -0.3255883 -0.0014199495 0.10902733
-0.00018054174 0.082035646 -0.033424005 0.14013806 0.06083994 -0.06785405 0.023479057 0.06607598
0.015842844 0.122000545 -0.008457742 0.0453415 -0.0021970887 0.037434112 -0.020403888 0.0470682
0.03110763 0.04757133 -0.017763242 0.013802585 -0.12518626 0.096928574 -0.0007296906 0.0069806897
0.0064053447 0.007901948 -0.013824819 -0.060193982 -0.0040106596 0.09015974 0.019082012 0.014751425
-0.015300927 0.005466237 0.009198698 -0.039121848 0.063107826 0.100494124 -0.0053233984 -0.097447276
-0.09780871 0.19467251 0.011799804 0.009461843 -0.054982357 0.015933163 -0.0009647073 0.0111254025
-0.042882036 0.15776376 0.01153928 0.06775028 0.015460444 -0.052720517 -0.01152514 0.1210979
-0.0049704113 0.21666451 0.0044788746 0.19494158 0.0621792 0.07193639 -0.0035700572 0.14879481
-0.013023269 0.12569186 0.041430347 0.1494128 -0.0038767518 0.0020572257 -0.027645105 0.18055178
-0.021311538 0.14330314 -0.009791371 0.06804097 -0.006490902 -0.21168439 0.017115725 0.07914501
-0.016795833 0.05391141 -0.018169945 0.012143356 0.042633183 -0.45385912 0.016972434 0.024975484
-0.039756082 0.033633787 0.0036607636 0.0203894 -0.06336084 -0.041950177 -0.004212674 0.010915135
-0.03641577 0.0339089 0.037853073 -0.014805427 0.007606798 -0.035274215 -0.033073954 0.01287122
-0.016415104 -0.023554994 0.025326407 -0.028013024 0.17007974 0.051174484 -0.025488397 0.015877541
-0.040055066 -0.085718 -0.009718025 -0.09166942 0.010866004 0.06138074 0.0083948 -0.16914114
-0.019238306 -0.095048204 0.0011370762 -0.11531809 0.012415749 -0.10603022 -0.028988853 -0.067290515
0.01873066 -0.009706929 -0.0025816122 0.00629498 -0.044230074 -0.1452657 0.019467741 0.0004508877
0.009574742 0.012444495 0.023089554 -0.014569813 0.041386593 -0.015332167 -0.044191375 -2.1220134e-05
0.059097786 0.0118590705 -0.008783257 -0.11155584 0.036520638 -0.11318047 0.0067279744 -0.047397055
00000000: ba87 68bd b365 fbbd 0d92 3d3b 5172 573e
00000010: 71d5 813c 40f0 4c3d 57dc 3dbb 3ba2 643e
00000020: e804 84bd 2f42 02be 8aec 94bb 10bb d83d
00000030: 5602 213d e7f6 23be 07db ca3b 3a99 e53d
00000040: 65e4 2cbc 487e a5bd 5fb1 4a3b 2bf2 d3bb
00000050: efa5 053e d2e8 c4be eec4 b5bb 1204 353d
00000060: 4078 18bd 682a 913c 64c5 b5bc ccc0 583c
00000070: a6db 8abd 4edf 99bd 7884 403c a0e5 a83d
00000080: aee4 643c 31ca e73c 5089 1a3c 18d0 893d
00000090: 06ff e2bc 2e8d 80be 8a53 37bd 9383 06bb
000000a0: 3628 4e3d 984e 9dbb b3eb 31bd a887 b8bb
000000b0: 023b 0e3d 8b55 95be 7990 f43c dc63 a5bc
000000c0: dbdf c6bb 0b4f 8bbd d611 07bd e35b 3fbd
000000d0: 0eac 0dbe 90c8 49bd 53d3 1f3d 1357 10bc
000000e0: 1f14 d33c 2496 b9bd 01c7 2cbb f2d5 ecbc
000000f0: 55ca d43c ec30 39bc f3cd 02bb bffa 9bbc
00000100: 0b95 523c 08a4 89bd e70b 0c3c e7de bbbd
00000110: 7777 e63d 425c 8d3d 8e4e 04bc 1e67 6cbd
00000120: b559 13bd 9ade 783d 1bcc c83c cbd1 183e
00000130: 7119 a2bd 3a66 5f3d 84f9 6ebc a497 cb3d
00000140: d35c 54bd a42f d33d a871 2ebc 35ff 86ba
00000150: 803f a2bc f9fa e9bc b0c6 553c 3a1a a03c
00000160: c5f5 50bc ad8f bf3d 47f0 043d d5a3 b0bd
00000170: 307f cb3d f70f 2dbc 2a52 25bd 75e6 b0bd
00000180: 143c 2ebd 25e5 6b3d 5bf8 833c 90ff c73d
00000190: 8aee 8b3d 82b3 a6be 991d baba b949 df3d
000001a0: ce4f 3db9 4e02 a83d 9ce7 08bd 5a80 0f3e
000001b0: 4d33 793d 10f7 8abd 2757 c03c d852 873d
000001c0: dac8 813c 6cdb f93d 5792 0abc 02b8 393d
000001d0: 08fd 0fbb 8354 193d 0e26 a7bc 96ca 403d
000001e0: 6ed5 fe3c 28da 423d 3884 91bc 3d24 623c
000001f0: d430 00be 7d82 c63d b548 3fba 45be e43b
00000200: ede3 d13b 2c77 013c 7e81 62bc f78d 76bd
00000210: da6b 83bb aba5 b83d e151 9c3c f6af 713c
00000220: bdb0 7abc 1f1e b33b 23b6 163c 3b3e 20bd
00000230: ad3e 813d ddcf cd3d e76f aebb 7092 c7bd
00000240: ef4f c8bd 3b58 473e f753 413c d905 1b3c
00000250: 2e35 61bd 4486 823c 69e4 7cba 5247 363c
00000260: 13a5 2fbd d38c 213e 400f 3d3c a9c0 8a3d
00000270: cd4d 7d3c 78f1 57bd f1d3 3cbc 2d02 f83d
00000280: d5de a2bb 4ddd 5d3e 86c3 923b c49e 473e
00000290: 9eaf 7e3d 6353 933d 9ff7 69bb ab5d 183e
000002a0: 8d5f 55bc 5eb5 003e deb2 293d abff 183e
000002b0: 1a11 7ebb 85d2 063b fd77 e2bc 91e2 383e
000002c0: 8995 aebc 0fbe 123e fd6b 20bc 1059 8b3d
000002d0: a2b1 d4bb cbc3 58be 4736 8c3c c716 a23d
000002e0: 6a97 89bc 36d2 5c3d 23d9 94bc edf4 463c
000002f0: 22a0 2e3d 3960 e8be c609 8b3c 6399 cc3c
00000300: 46d7 22bd 95c3 093d 6ce9 6f3b ac07 a73c
00000310: 54c3 81bd f3d3 2bbd 790a 8abb 65d5 323c
00000320: b428 15bd 0fe4 0a3d d30b 1b3d 7692 72bc
00000330: 7242 f93b b27b 10bd 8e78 07bd cfe1 523c
00000340: f878 86bc 67f6 c0bc 5379 cf3c 927b e5bc
00000350: 6229 2e3e 569c 513d 0bcd d0bc 9e11 823c
00000360: c810 24bd eb8c afbd 5a38 1fbc 2dbd bbbd
00000370: 5307 323c 5f6a 7b3d 588a 093c 5633 2dbe
00000380: a799 9dbc a2a8 c2bd f209 953a e42b ecbd
00000390: 6d6b 4b3c 5f26 d9bd 087a edbc 9ccf 89bd
000003a0: 0b71 993c d009 1fbc 4430 29bb 1f46 ce3b
000003b0: 982a 35bd 88c0 14be d07a 9f3c 1f65 ec39
000003c0: 61df 1c3c ffe3 4b3c 4e26 bd3c 3ab6 6ebc
000003d0: fd84 293d c533 7bbc 0402 35bd e401 b2b7
000003e0: 8510 723d 8c4c 423c a6e7 0fbc 6377 e4bd
000003f0: aa96 153d 2acb e7bd 5776 dc3b 6a23 42bd

fc1.bias f4 [400]
0.05023323 -0.037899666 0.22273116 -0.033140928 0.123376176 -0.14520827 -0.1586815 0.16740766
0.16122189 0.039952222 0.12685554 0.1138913 -0.09408144 0.11396085 -0.12544155 -0.23193696
-0.2321362 -0.05198039 -0.039734874 0.0024785257 -0.14094374 -0.13035415 -0.14248708 0.13164507
-0.015155513 -0.09936353 -0.17170082 -0.07676045 -0.25704107 -0.14608456 0.1535606 -0.20832911
0.13056257 -0.059008885 -0.07907507 0.119839765 0.06710185 0.15375371 -0.041081127 -0.06333423
-0.2379741 0.2093981 -0.008941137 -0.11244776 -0.09792153 -0.11327615 0.025162999 -0.14599964
0.13315976 0.024478264 -0.21571985 0.027857175 0.115652606 0.051286917 -0.05502478 -0.13692635
0.09975588 -0.011608175 0.13245384 -0.23693082 0.08353 0.05129426 0.25938338 -0.13878
0.17613888 -0.1146148 0.093402304 0.18897037 0.12749632 -0.21758628 -0.27842766 -0.06357521
-0.07174962 0.10592906 0.09820018 -0.13491854 0.12725273 0.11005786 0.12860656 -0.18247755
-0.050351877 -0.13244726 0.2277596 -0.10628225 0.070758276 0.036617983 0.11898107 0.14041115
-0.04378776 -0.11365132 0.05382569 -0.071496606 0.18029754 0.068122804 -0.081807904 0.0023057926
0.18749766 -0.19542374 -0.0013720142 -0.01699021 -0.031043386 0.15675303 -0.21221176 -0.07989651
-0.18819614 -0.038419805 -0.01886938 -0.22287826 0.023100246 -0.10146699 0.09632539 -0.15021993
-0.09390347 -0.12920058 0.07333008 0.067028634 0.104693644 -0.102166906 -0.06886259 -0.16044351
-0.102406256 -0.22272936 -0.060291413 0.10260141 -0.24420829 0.045164634 -0.02793687 -0.04136097
0.22755852 0.009272494 -0.20110029 -0.15230002 -0.22115771 0.03326391 -0.05871624 -0.22371322
0.07565044 -0.038934093 0.036709875 0.12407047 -0.06749274 0.0018748525 0.010050064 0.23466246
-0.031172091 0.10996361 0.15919444 0.017250106 0.016099459 0.02217321 -0.10161496 -0.1444397
0.035520665 0.037284803 -0.17095116 -0.017243568 -0.0757253 0.085948184 0.023408286 0.07164094
0.007798186 -0.22515719 -0.2744221 -0.15030394 0.13462396 0.057952926 -0.048051983 -0.0808277
-0.109377 -0.17747737 0.0837172 0.11441235 -0.17077091 0.08760225 0.14635968 0.06430939
0.12829928 -0.13404931 0.1395964 -0.04049114 0.13158013 -0.14092593 0.053771034 -0.117651865
-0.031654425 0.14292182 -0.13063301 0.08562155 -0.10414159 0.015754823 -0.15040351 0.13075913
0.13966152 -0.24304508 0.053309042 0.14921772 -0.008644147 -0.03771755 -0.13376018 0.0803545
0.1574465 0.13848253 -0.047835972 0.07045122 0.06540954 -0.023233447 -0.11436664 0.16622336
0.17419857 0.18828137 -0.17714041 0.10096008 -0.03363166 -0.06669272 0.108357444 0.11256707
0.10187213 0.09642492 -0.10164254 -0.09136332 0.0432631 0.13241458 0.0073291385 -0.09470825
0.09214791 0.08409778 -0.20844287 -0.18281402 0.17977044 -0.19820753 0.13036913 -0.10265677
0.105780035 0.046773907 -0.107142 -0.08877651 -0.042092085 0.02014366 -0.015158901 0.0052632624
-0.047551923 0.16020031 0.1510703 -0.13148853 0.13128994 0.07787733 -0.11329697 0.070660315
0.047880463 -0.019058295 -0.17247567 -0.026012076 0.05637115 -0.19452436 -0.16224656 -0.12108097
00000000: 5cc1 4d3d ae3c 1bbd a313 643e c8be 07bd
00000010: a6ac fc3d 7ab1 14be 677d 22be ea6c 2b3e
00000020: 5a17 253e f1a4 233d 6be6 013e d83f e93d
00000030: c5ad c0bd 4e64 e93d c073 00be e280 6dbe
00000040: 1db5 6dbe 64e9 54bd 09c1 22bd c36e 223b
00000050: 8e53 10be 8f7b 05be 22e8 11be f7cd 063e
00000060: d44e 78bc 1b7f cbbd 57d2 2fbe 9534 9dbd
00000070: e39a 83be 3197 15be fd3e 1d3e 3a54 55be
00000080: 32b2 053e 4db3 71bd 1cf2 a1bd 8d6e f53d
00000090: b26c 893d 9d71 1d3e af44 28bd 60b5 81bd
000000a0: 7caf 73be 756c 563e d97d 12bc 034b e6bd
000000b0: 158b c8bd 53fd e7bd a222 ce3c ee80 15be
000000c0: 085b 083e a486 c83c aae5 5cbe bb34 e43c
000000d0: 46db ec3d 3b12 523d aa61 61bd 6c36 0cbe
000000e0: d04c cc3d 3730 3ebc fba1 073e fe9d 72be
000000f0: c711 ab3d ee19 523d e6cd 843e 581c 0ebe
00000100: c05d 343e 2abb eabd b549 bf3d 7381 413e
00000110: 658e 023e f0ce 5ebe 128e 8ebe b833 82bd
00000120: 77f1 92bd 56f1 d83d 2d1d c93d 1628 0abe
00000130: 8a4e 023e 0466 e13d 70b1 033e 65db 3abe
00000140: c53d 4ebd 41a0 07be d039 693e 82aa d9bd
00000150: b7e9 903d bdfc 153d 59ac f33d f1c7 0f3e
00000160: cb5a 33bd 06c2 e8bd 5478 5c3d d06c 92bd
00000170: eb9f 383e f883 8b3d e78a a7bd c81c 173b
00000180: 63ff 3f3e 291d 48be 28d5 b3ba 0e2f 8bbc
00000190: b34e febc de83 203e 0a4e 59be c8a0 a3bd
000001a0: 7db6 40be 165e 1dbd f593 9abc 333a 64be
000001b0: ba3c bd3c edcd cfbd 3f46 c53d 41d3 19be
000001c0: 7650 c0bd 284d 04be 152e 963d 4f46 893d
000001d0: 9f69 d63d e23c d1bd d407 8dbd 4e4b 24be
000001e0: 5fba d1bd 2a13 64be 21f4 76bd b020 d23d
000001f0: bd11 7abe 8dfe 383d dddb e4bc 1f6a 29bd
00000200: 1a05 693e a9eb 173c 3ced 4dbe 89f4 1bbe
00000210: 2b77 62be bd3f 083d 7180 70bd 1415 65be
00000220: 9eee 9a3d 5b79 1fbd 185d 163d a918 fe3d
00000230: a239 8abd 9cbd f53a 06a9 243c 5b4b 703e
00000240: 9d5c ffbc 9a34 e13d de03 233e 1850 8d3c
00000250: 03e3 833c 97a4 b53c 811b d0bd 00e8 13be
00000260: 1e7e 113d f3b7 183d d20d 2fbe 6242 8dbc
00000270: de15 9bbd 9a05 b03d bcc2 bf3c 7cb8 923d
00000280: ed87 ff3b 9b8f 66be 0e81 8cbe 47e9 19be
00000290: ddda 093e 0c60 6d3d 28d2 44bd fe88 a5bd
000002a0: 0c01 e0bd a1bc 35be ec73 ab3d 0651 ea3d
000002b0: 92de 2ebe cf68 b33d 50df 153e a4b4 833d
000002c0: e360 033e 3944 09be 5cf2 0e3e 0ada 25bd
000002d0: f1bc 063e e34e 10be 043f 5c3d 76f3 f0bd
000002e0: 12a8 01bd 195a 123e a9c4 05be 5a5a af3d
000002f0: 3048 d5bd 4210 813c 6103 1abe b9e5 053e
00000300: 6e03 0f3e cfe0 78be 955a 5a3d 88cc 183e
00000310: 2ea0 0dbc b87d 1abd 6ef8 08be e690 a43d
00000320: a839 213e 5dce 0d3e a7ef 43bd bb48 903d
00000330: 70f5 853d 1254 bebc 0f39 eabd 7536 2a3e
00000340: 1c61 323e d5cc 403e 4c64 35be 29c4 ce3d
00000350: 5ac1 09bd 3196 88bd 82ea dd3d 9089 e63d
00000360: 56a2 d03d 6e7a c53d f729 d0bd b11c bbbd
00000370: a634 313d b097 073e 4529 f03b 66f6 c1bd
00000380: 0bb8 bc3d 753b ac3d 0c72 55be 9933 3bbe
00000390: be15 383e eaf6 4abe 7c7f 053e b63d d2bd
000003a0: 34a3 d83d ff95 3f3d 446d dbbd 75d0 b5bd
000003b0: c068 2cbd 5104 a53c 0a5d 78bc 7277 ac3b
000003c0: cec5 42bd 8d0b 243e 2cb2 1a3e eea4 06be
000003d0: df70 063e 267e 9f3d 3e08 e8bd 5bb6 903d
000003e0: 4e1e 443d 2420 9cbc 769d 30be 4717 d5bc
000003f0: 6fe5 663d 6531 47be f623 26be 4df9 f7bd

fc2.weight f4 [300, 400]
-0.10677927 0.049244095 -0.033664394 -0.11737644 0.07729559 -0.048330847 -0.2933314 -0.019425005
-0.06849129 0.08135692 -0.029188644 -0.07217076 0.062486116 -0.031759642 0.007753705 -0.10459503
0.08156685 -0.07564608 -0.042510092 -0.047978524 -0.041679997 -0.0029011292 0.09800494 -0.056862965
0.048417415 -0.017630165 -0.017764788 -0.0915952 0.09819527 -0.09054804 0.026370967 -0.03595509
0.023136774 -0.016046997 0.05819143 0.07016756 -0.058943223 -0.07617423 0.0071274755 -0.0066833915
-0.12558702 -0.10756387 0.0017210008 0.036039274 -0.07263488 0.056904674 -0.11059567 -0.07340062
0.0026248908 -0.042429645 -0.006870885 0.050393406 -0.015153241 -0.0048329397 -0.0702262 -0.00067959045
0.048614874 -0.04260574 0.053155307 0.05346748 -0.047669955 0.009597983 -0.022322739 -0.0023594846
-0.004656165 0.0043112985 -0.05568603 0.030265113 0.0078653935 -0.06049117 0.060466297 -0.0587039
0.026638314 0.07347734 -0.006067638 0.057922613 -0.015563768 0.09219895 0.019785205 0.08475926
0.1114843 -0.0558621 0.009062073 -0.01080733 0.08044284 -0.08893097 0.0904299 0.098939374
0.0015417015 0.0081802895 0.041602787 0.053503398 -0.061384838 0.024420617 0.045184743 -0.024663538
0.1513751 0.026245551 -0.14748538 0.070082895 -0.10553856 0.081275046 -0.040723417 -0.124853835
-0.019411374 -0.007890232 -0.05887888 0.009391501 -0.024335409 0.15897463 0.090695664 -0.11876755
0.0055832877 0.056971483 0.08038918 -0.024874961 -0.07784569 0.003969427 -0.023007484 0.027036062
-0.050228547 0.0499259 -0.0038374423 0.08515116 0.021892568 -0.057697132 0.020885471 -0.030655911
-0.043361537 -0.008860336 -0.042995043 -0.05739913 0.00018058773 -0.0150509225 -0.02086604 -0.03877394
0.05907192 0.017242616 0.007889526 -0.0412498 0.020930933 0.10093562 -0.07550803 -0.03520774
0.03206871 -0.08389713 0.04628065 -0.008217439 -0.056450274 0.12633619 -0.008230711 -0.111930855
-0.014238633 0.07892769 -0.020736646 0.083093114 0.09354481 -0.060969707 -0.074783854 -0.045534637
0.06286656 0.06731797 0.03911413 0.009033259 0.022473082 0.019170577 0.0177914 -0.011549911
-0.033739716 0.09584924 -0.0068444777 0.0062295827 -0.0034633852 -0.012046132 -0.02135226 0.053914804
0.052500844 0.029363047 -0.0913554 0.027820276 0.021989038 0.071602926 0.033043187 0.06409211
0.035673715 -0.0032247587 -0.03971778 -0.020628447 -0.034098364 -0.052925706 0.04188866 0.06430775
0.06844867 -0.014552399 0.0031968777 -0.033257015 -0.070228085 0.06301203 -0.06552198 0.03607049
-0.006182306 0.057032708 0.05313669 0.020045232 -0.028718349 -0.035691645 0.09968144 0.18855815
0.027120829 0.08507497 0.0017214166 0.051091682 0.079007566 -0.07557483 0.075694725 0.009158612
0.1270829 0.072969705 -0.14304812 0.066697724 0.09486368 -0.03152468 -0.08018463 -0.043769445
0.031533074 -0.18528657 -0.015809562 -0.06565111 -0.038869254 -0.07038298 0.08065326 0.071546406
-0.074812904 0.0030943744 -0.0056401324 0.007816197 0.025219897 0.019881448 0.035138357 0.093074575
0.06638165 0.044908557 0.057518292 -0.16473326 0.106780194 0.012393514 -0.034378245 0.0616673
-0.0184398 0.080259606 -0.03694849 0.0635689 -0.07256028 0.06843977 0.036037624 0.008310761
00000000: 17af dabd 2db4 493d ade3 09bd 0f63 f0bd
00000010: 264d 9e3d 91f6 45bd 892f 96be 3021 9fbc
00000020: 2945 8cbd 759e a63d 061d efbc 43ce 93bd
00000030: 71f1 7f3d 6616 02bd cb12 fe3b eb35 d6bd
00000040: 850c a73d 55ec 9abd 101f 2ebd 2185 44bd
00000050: a5b8 2abd df20 3ebb d0b6 c83d 24e9 68bd
00000060: 5751 463d 236d 90bc 7687 91bc 4496 bbbd
00000070: 9a1a c93d 4071 b9bd ed07 d83c a545 13bd
00000080: 5589 bd3c fe74 83bc 235a 6e3d 02b4 8f3d
00000090: 736e 71bd 3c01 9cbd 998d e93b 5a00 dbbb
000000a0: e299 00be 724a dcbd 3493 e13a eb9d 133d
000000b0: 99c1 94bd e014 693d fc7f e2bd 1053 96bd
000000c0: 5c06 2c3b b5ca 2dbd 2925 e1bb 5169 4e3d
000000d0: 4d45 78bc a35d 9ebb c1d2 8fbd 8b26 32ba
000000e0: 6420 473d 5b83 2ebd 61b9 593d b700 5b3d
000000f0: 9241 43bd dc40 1d3c 2dde b6bc 95a1 1abb
00000100: be92 98bb cb45 8d3b 0917 64bd 8bee f73c
00000110: dadd 003c 97c5 77bd 82ab 773d 8073 70bd
00000120: 9838 da3c 4a7b 963d 09d3 c6bb 4340 6d3d
00000130: 2dff 7ebc ced2 bc3d 9514 a23c 4396 ad3d
00000140: e151 e43d a8cf 64bd 1779 143c 3a11 31bc
00000150: 37bf a43d 7121 b6bd 5033 b93d baa0 ca3d
00000160: eb12 ca3a 9f06 063c af67 2a3d 6126 5b3d
00000170: ab6e 7bbd bf0d c83c a313 393d 300b cabc
00000180: 1302 1b3e e900 d73c 6806 17be 9f87 8f3d
00000190: 9a24 d8bd 8873 a63d 99cd 26bd 5eb3 ffbd
000001a0: 9a04 9fbc 0846 01bc fb2a 71bd cfde 193c
000001b0: 0d5b c7bc 3fca 223e a6be b93d 673c f3bd
000001c0: 03f4 b63b ee5a 693d 15a3 a43d 93c6 cbbc
000001d0: 906d 9fbd f811 823b 317a bcbc bb7a dd3c
000001e0: 73bc 4dbd 1a7f 4c3d 997d 7bbb bb63 ae3d
000001f0: 0b58 b33c d453 6cbd 0218 ab3c 1b22 fbbc
00000200: de9b 31bd f12a 11bc 921b 30bd 5a1b 6bbd
00000210: 265c 3d39 2598 76bc 42ef aabc 6cd1 1ebd
00000220: 66f5 713d 6340 8d3c 1243 013c 8df5 28bd
00000230: 5977 ab3c 56b7 ce3d f4a3 9abd fe35 10bd
00000240: 7b5a 033d 42d2 abbd c790 3d3d 70a2 06bc
00000250: 6738 67bd 465e 013e 1bda 06bc 013c e5bd
00000260: 2849 69bc d7a4 a13d e6df a9bc b92c aa3d
00000270: 6c94 bf3d 5fbb 79bd 4728 99bd 8782 3abd
00000280: 2fc0 803d 01de 893d 2336 203d 3c00 143c
00000290: 7819 b83c 9d0b 9d3c 45bf 913c d73b 3dbc
000002a0: a832 0abd 9b4c c43d a447 e0bb 8721 cc3b
000002b0: f6f9 62bb 245d 45bc efea aebc c5d5 5c3d
000002c0: 200b 573d c68a f03c 8a18 bbbd 59e7 e33c
000002d0: 5b22 b43c 8ea4 923d 4b58 073d b942 833d
000002e0: 9a1e 123d 7956 53bb 1caf 22bd fdfc a8bc
000002f0: baaa 0bbd a0c8 58bd 7293 2b3d c8b3 833d
00000300: d12e 8c3d 2f6d 6ebc b582 513b 8238 08bd
00000310: bed3 8fbd 740c 813d 6330 86bd a6be 133d
00000320: f194 cabb 219b 693d dca5 593d e635 a43c
00000330: be42 ebbc 6731 12bd c825 cc3d 6315 413e
00000340: 802c de3c c93b ae3d 28a1 e13a 8345 513d
00000350: b8ce a13d fac6 9abd d605 9b3d 010e 163c
00000360: 0522 023e 2471 953d 357b 12be d198 883d
00000370: e447 c23d 0620 01bd d737 a4bd 9747 33bd
00000380: d328 013d c3bb 3dbe 0e83 81bc 1774 86bd
00000390: 5e35 1fbd f424 90bd 892d a53d ec86 923d
000003a0: 8237 99bd fdca 4a3b dcd0 b8bb 820f 003c
000003b0: f599 ce3c 6bde a23c 3ded 0f3d e29d be3d
000003c0: 1af3 873d 09f2 373d 4d98 6b3d d6af 28be
000003d0: 93af da3d 2a0e 4b3c 34d0 0cbd da96 7c3d
000003e0: 100f 97bc 265f a43d 4d57 17bd 6930 823d
000003f0: 7c9a 94bd 262a 8c3d 309c 133d dc29 083c

fc2.bias f4 [300]
0.0013799729 -0.059470598 -0.011075353 -0.022547496 0.011486284 0.06383455 -0.01229135 -0.046623904
-0.039653145 -0.021557033 0.035849713 -0.0316549 -0.012744519 -0.050148908 -0.061723344 0.00064235326
-0.050050594 0.037966605 0.05506481 0.019592432 -0.03403426 -0.043276977 0.05650167 0.02124684
0.055919874 0.049710494 -0.088756025 -0.007916284 -0.0009854747 -0.08703377 0.007175747 -0.031496275
0.0013035642 -0.01970752 0.005919083 -0.012870065 -0.046361603 0.024443813 0.018847398 0.017364498
-0.022768512 -0.023544611 -0.06024694 0.008862861 0.007317965 0.027156077 0.0023575495 -0.052493062
-0.08239136 0.0663237 -0.03082969 0.061068412 0.039276678 -0.014541292 0.0451754 0.073164396
-0.03540319 -0.05152354 -0.008158439 0.03747536 -0.00864123 0.013566807 0.02399787 -0.045355573
-0.015186703 0.03845448 -0.032471508 -0.010668469 -0.0024890974 -0.1160045 -0.019594526 -0.034534954
0.00661757 0.06583139 -0.032961104 -0.050578702 -0.028670033 -0.050269864 0.040002678 0.015139796
-0.008667393 -0.004637005 -0.01844751 -0.0006986691 -0.000713571 -0.02154136 -0.027143665 -0.003072901
-0.08614583 0.019564344 -0.0920596 -0.043405455 0.048824567 0.019237705 0.01675491 0.046371244
-0.02523276 0.0003066365 -0.015701186 -0.025493762 -0.026160916 0.048427667 0.022046566 -0.007655578
-0.01902363 -0.05915285 -0.04236291 -0.031388942 -0.02165004 -0.09083177 -0.011367604 -0.048897
-0.03741541 -0.06018596 0.061182607 -0.0401344 -0.057878006 0.014586126 -0.016442744 0.005290985
-0.022298664 -0.014334451 -0.021632344 0.03817308 0.0430119 -0.0014376059 -0.010621177 0.04203918
0.024877705 -0.0293438 -0.05894162 0.035310946 0.03279814 0.019107938 0.00018072152 0.026170695
-0.055650994 -0.036752593 0.004758176 -0.037698306 0.035147633 0.003293041 -0.013250154 -0.023446443
0.021266177 -0.018954396 -0.042832334 0.004353423 0.03437117 -0.04534185 -0.016698519 0.026029598
0.07140674 -0.025449093 0.015212346 -0.02515715 0.055401504 -0.040143393 0.008574756 -0.005112515
-0.08783536 -0.041977677 0.07753301 -0.007961523 -0.016053855 0.031794295 0.04545157 0.04132684
0.04354096 -0.053230748 0.019262413 -0.0160824 0.07668706 -0.06884959 0.00017824546 0.0021869298
-0.0012415417 -0.073706225 0.006627223 -0.073386736 0.008020195 -0.05813322 0.031501986 0.016222382
-0.023129487 -0.0068063717 0.021739148 0.007486501 0.018536327 -0.050132483 0.059564494 -0.019280408
0.048454188 0.06479667 0.019483922 0.027310112 -0.013129979 -0.010004381 -0.061797537 0.016450454
0.009158795 0.007817116 -0.082490504 -0.04212518 -0.08159881 0.02265574 -0.048200306 -0.043949552
-0.079904355 -0.004923886 0.011620101 -0.007102667 0.004950417 0.0191555 -0.0074882866 0.051151887
0.04743673 -0.02603559 0.020863317 -0.049589865 0.041537378 0.06194414 -0.0030375065 -0.06630301
0.018212369 -0.01211297 -0.007264238 -0.03717724 -0.024732547 -0.015944358 -0.04985307 -0.016836682
-0.007826043 0.0417133 0.013184464 -0.050324894 -0.031323902 -0.022920268 -0.029581284 0.03048943
-0.008412981 -0.031878192 -0.049195968 0.0031744973 -0.028463224 0.012462773 0.02898452 -0.027003488
-0.012683272 0.04892589 -0.022437247 -0.011139663 0.0072072973 -0.066018544 0.0017515498 0.008392881
00000000: 35e0 b43a 7197 73bd 6675 35bc 87b5 b8bc
00000010: f830 3c3c b0bb 823d a961 49bc b5f8 3ebd
00000020: 566b 22bd 6098 b0bc 26d7 123d 92a8 01bd
00000030: 63ce 50bc f168 4dbd 9ed1 7cbd 9963 283a
00000040: da01 4dbd df82 1b3d a38b 613d 4f80 a03c
00000050: 8267 0bbd 3343 31bd 4c6e 673d da0d ae3c
00000060: 3d0c 653d 3b9d 4b3d b8c5 b5bd 4db3 01bc
00000070: 0b2b 81ba c33e b2bd 8722 eb3b 3d02 01bd
00000080: 5bdc aa3a aa71 a1bc def4 c13b f7dc 52bc
00000090: aae5 3dbd 643e c83c dc65 9a3c fe3f 8e3c
000000a0: 0885 babc a1e0 c0bc 7fc5 76bd 8935 113c
000000b0: 8acb ef3b 6c76 de3c 1e81 1a3b f702 57bd
000000c0: cdbc a8bd b8d4 873d 8c8e fcbc df22 7a3d
000000d0: 95e0 203d 993e 6ebc d709 393d 37d7 953d
000000e0: ef02 11bd 590a 53bd f9aa 05bc c37f 193d
000000f0: f293 0dbc 5047 5e3c 2e97 c43c c4c6 39bd
00000100: a6d1 78bc 7282 1d3d d800 05bd cdca 2ebc
00000110: 2020 23bb c493 edbd b384 a0bc 8674 0dbd
00000120: 33d8 d83b 9cd2 863d 3902 07bd 9d2b 4fbd
00000130: 6bdd eabc c6e7 4dbd d9d9 233d e80c 783c
00000140: ae01 0ebc 04f2 97bb 3c1f 97bc e426 37ba
00000150: f00e 3bba 8277 b0bc 645c debc b962 49bb
00000160: 3a6d b0bd 6745 a03c be89 bcbd ebc9 31bd
00000170: 45fc 473d 6498 9d3c 9841 893c c6ef 3d3d
00000180: efb4 cebc 0ec4 a039 c69f 80bc 4bd8 d0bc
00000190: 6b4f d6bc 175c 463d 009b b43c a5db fabb
000001a0: 72d7 9bbc 424a 72bd bb84 2dbd b191 00bd
000001b0: 6d5b b1bc 0206 babd 303f 3abc 3848 48bd
000001c0: e740 19bd 8e85 76bd 9d9a 7a3d f863 24bd
000001d0: 7d11 6dbd a6fa 6e3c efb2 86bc 0060 ad3b
000001e0: b0ab b6bc 0cdb 6abc 5036 b1bc 605b 1c3d
000001f0: 3f2d 303d 0d6e bcba 7204 2ebc 4631 2c3d
00000200: 54cc cb3c 6962 f0bc c56c 71bd 36a2 103d
00000210: 5857 063d 4088 9c3c 1080 3d39 ed63 d63c
00000220: 4cf2 63bd e389 16bd 79ea 9b3b 8a69 1abd
00000230: f7f6 0f3d 0fd0 573b 2d17 59bc c112 c0bc
00000240: 6836 ae3c 4046 9bbc f570 2fbd 29a7 8e3b
00000250: c9c8 0c3d 60b8 39bd 55cb 88bc 063c d53c
00000260: b23d 923d 9e7a d0bc 343d 793c 5e16 cebc
00000270: b0ec 623d 666d 24bd 227d 0c3c e286 a7bb
00000280: 06e3 b3bd c9f0 2bbd a0c9 9e3d 0c71 02bc
00000290: 6083 83bc bc3a 023d 6d2b 3a3d 5546 293d
000002a0: 0158 323d 7c08 5abd 35cc 9d3c 3dbf 83bc
000002b0: 1b0e 9d3d 0401 8dbd 67e7 3a39 9852 0f3b
000002c0: 3abb a2ba 4af3 96bd 2d29 d93b c94b 96bd
000002d0: 2367 033c 191d 6ebd 3a08 013d cde4 843c
000002e0: 0d7a bdbc fc07 dfbb 4c16 b23c 5251 f53b
000002f0: 7fd9 973c b857 4dbd e6f9 733d f2f1 9dbc
00000300: e677 463d 1eb4 843d bf9c 9f3c 75b9 df3c
00000310: 201f 57bc 6ae9 23bc 6a1f 7dbd 1ac3 863c
00000320: c50e 163c 5c13 003c c8f0 a8bd 748b 2cbd
00000330: 471d a7bd 8898 b93c af6d 45bd 7204 34bd
00000340: e5a4 a3bd 8d58 a1bb 3c62 3e3c 7dbd e8bb
00000350: 1c37 a23b ffeb 9c3c 4d60 f5bb a484 513d
00000360: 044d 423d 9748 d5bc 8ce9 aa3c be1e 4bbd
00000370: 1923 2a3d 23b9 7d3d e710 47bb dfc9 87bd
00000380: 1b32 953c 7b75 46bc d808 eebb 2947 18bd
00000390: e99b cabc be9d 82bc bc32 4cbd 15ed 89bc
000003a0: ce38 00bc 91db 2a3d a603 583c 7a21 4ebd
000003b0: 7e4d 00bd 49c3 bbbc 7354 f2bc f8c4 f93c
000003c0: 9ad6 09bc b592 02bd b681 49bd 3a0b 503b
000003d0: b52b e9bc a930 4c3c f270 ed3c 6b36 ddbc
000003e0: 80cd 4fbc 8466 483d 51ce b7bc 2283 36bc
000003f0: 312b ec3b bb34 87bd 4294 e53a 4b82 093c

fc3.weight f4 [2, 300]
-0.018417582 0.11733015 0.08919219 -0.035349056 -0.06073091 -0.3264649 0.051980875 -0.014798064
-0.28386566 -0.33253154 -0.030265087 -0.05145501 0.022890106 -0.16206609 0.020253533 -0.22288086
-0.45340204 -0.063097626 -0.109154634 -0.034540735 0.10326706 0.11372757 -0.098062456 0.044238225
-0.10163246 -0.06852045 0.15508153 -0.10398643 0.14700355 0.18029086 -0.025281083 -0.07489875
0.04228566 -0.10588544 -0.08165796 0.0077304295 0.035687655 -0.45532295 0.020982578 0.014044899
-0.26728517 3.1488013e-05 0.09286965 -0.00043041684 -0.0012449446 0.0016707792 -0.05214431 -0.16906832
-0.18302624 0.030409949 0.08929763 -0.005976861 0.09661433 0.0017313432 -0.027585533 0.018644178
-0.003356849 0.015436863 -0.0125390235 -0.20759992 0.08832841 -0.02908773 0.07413107 -0.09953633
0.040248286 -0.021709125 -0.14359918 -0.004045506 -0.10347542 -0.08397799 -0.06835148 -0.007889346
-0.12867439 -0.17224726 -0.019246183 -0.0067526507 0.08808994 0.0012628917 -0.23364423 -0.0669275
0.06757952 -0.0029406333 0.0014299952 0.09747576 -0.008728565 -0.0066476883 0.058337394 -0.01288366
-0.0029711318 -0.0050369515 0.20634723 0.03738618 -0.15943599 0.077038094 0.016814226 0.029486693
-0.5356803 0.10616085 -0.0476338 -0.034036156 -0.01450384 -0.11667076 -0.21941441 0.026544703
-0.065188564 0.12897678 0.12577055 -0.1993804 -0.029724205 0.1389641 0.12311485 -0.010438279
-0.055699345 0.45459887 0.4324753 -0.001040927 0.0029536467 0.11498087 0.054609813 -0.17249271
0.0107165715 -0.0024551307 -0.06487655 0.06937196 0.010676675 0.0069051366 -0.71058005 0.016546078
0.32773635 0.005913107 0.089961864 -0.019607319 -0.047586676 -0.32154834 0.11250649 0.058106016
-0.031234793 0.20471804 0.01989404 -0.09737714 0.06058596 0.079200245 0.018791877 -0.0599799
-0.07677186 -0.0063271266 -0.02309868 -0.06562212 -0.28396693 -0.69601995 -0.14353845 -0.048267465
-0.0524634 -0.0095449025 0.0921273 -0.15147895 -0.074775405 0.023618424 -0.04377243 -0.56449246
0.04053046 0.14866084 -0.29039255 -0.07738846 0.025710285 0.030014385 -0.06669881 -0.6299957
-0.015467469 0.039909124 -0.06362008 0.2076109 -0.24943247 0.0554906 0.0046078144 -0.38434395
0.04585516 -0.04285711 -0.16845797 0.22859251 0.031584024 0.069600314 -0.09113424 0.06374634
0.0036328512 0.039983865 -0.0112969205 -0.4780903 -0.047050152 0.046887595 0.020504823 -0.122947566
-0.036928702 0.047251973 -0.086756006 0.029509064 -0.056654736 -0.02042903 0.18840055 0.0045092986
-0.12797965 0.021400852 -0.20714247 0.0009106958 0.2118339 0.00918614 0.012410168 0.11740492
0.13345784 -0.010481624 -0.2706081 -0.015684571 0.07032942 -0.17709549 0.15550266 -0.003982041
-0.07852782 0.21021636 0.0104626445 -0.010831381 -0.007493944 -0.39896443 0.05285066 -0.23325974
0.084623516 -0.012163365 -0.026913319 -0.14035349 -0.032792203 -0.002282719 0.12304495 0.007243936
0.40113032 0.04752539 0.029396286 -0.024927178 0.007099443 0.09908179 -0.12243441 0.0041249674
0.20048389 0.009663455 -0.069574274 -0.20180327 -0.0012116457 0.028395195 0.057971623 -0.10752645
-0.3695131 -0.41524804 0.11326183 -0.2124318 -0.18521884 0.15675163 -0.0022765598 0.0037685626
00000000: 78e0 96bc ca4a f03d 65aa b63d 2cca 10bd
00000010: fac0 78bd 6826 a7be e6e9 543d 9473 72bc
00000020: d756 91be 9341 aabe 7dee f7bc 7dc2 52bd
00000030: 0884 bb3c a7f4 25be bdea a53c e13a 64be
00000040: 5024 e8be 5439 81bd 778c dfbd 967a 0dbd
00000050: ae7d d33d 00ea e83d f8d4 c8bd 2433 353d
00000060: ae24 d0bd 7354 8cbd b1cd 1e3e d6f6 d4bd
00000070: 1988 163e 2b9e 383e 461a cfbc 8464 99bd
00000080: ba33 2d3d 77da d8bd 4a3c a7bd 8b4f fd3b
00000090: 382d 123d 1720 e9be a8e3 ab3c 931c 663c
000000a0: 9ad9 88be ff11 0438 7132 be3d 92a9 e1b9
000000b0: 692d a3ba 0cfe da3a 4695 55bd 3f20 2dbe
000000c0: 3b6b 3bbe 491e f93c ade1 b63d 8bd9 c3bb
000000d0: bcdd c53d 3dee e23a 0efb e1bc adbb 983c
000000e0: 95fe 5bbb e5ea 7c3c 7a70 4dbc 1395 54be
000000f0: 87e5 b43d 6449 eebc 08d2 973d b4d9 cbbd
00000100: 63db 243d 56d7 b1bc aa0b 13be 2a90 84bb
00000110: ecea d3bd a7fc abbd dcfb 8bbd 5142 01bc
00000120: 38c3 03be 9661 30be 2caa 9dbc 5745 ddbb
00000130: 8068 b43d 9d87 a53a 6f40 6fbe 4911 89bd
00000140: 2267 8a3d a4b7 40bb ad6e bb3a 5fa1 c73d
00000150: 4102 0fbc dad4 d9bb 31f3 6e3d fd15 53bc
00000160: 52b7 42bb 030d a5bb b04c 533e 4022 193d
00000170: 3043 23be 26c6 9d3d fdbd 893c 148e f13c
00000180: 5822 09bf dc6a d93d a91b 43bd 7f69 0bbd
00000190: 84a1 6dbc 14f1 eebd 2cae 60be 4774 d93c
000001a0: 9581 85bd 7d12 043e ffc9 003e 602a 4cbe
000001b0: 2d80 f3bc 9b4c 0e3e a323 fc3d 5105 2bbc
000001c0: ff24 64bd 2fc1 e83e 676d dd3e b76f 88ba
000001d0: f891 413b 177b eb3d 8aae 5f3d eea1 30be
000001e0: 8f94 2f3c 42e6 20bb ffdd 84bd e312 8e3d
000001f0: 38ed 2e3c 7c44 e23b 93e8 35bf a48b 873c
00000200: 0fcd a73e bdc2 c13b ed3d b83d 879f a0bc
00000210: 3fea 42bd fca1 a4be cd69 e63d 9300 6e3d
00000220: 1ce0 ffbc 9ba1 513e d3f8 a23c aa6d c7bd
00000230: fc28 783d bd33 a23d 6cf1 993c 7cad 75bd
00000240: 913a 9dbd c953 cfbb 7139 bdbc e464 86bd
00000250: 1d64 91be 5d2e 32bf befb 12be 1bb4 45bd
00000260: dde3 56bd 3962 1cbc 3dad bc3d 4c1d 1bbe
00000270: d923 99bd 6d7b c13c b84a 33bd 9482 10bf
00000280: 4503 263d 8c3a 183e 55ae 94be d77d 9ebd
00000290: 609e d23c bae0 f53c 6399 88bd 6647 21bf
000002a0: 446b 7dbc c077 233d 3f4b 82bd f497 543e
000002b0: 3a6b 7fbe 1d4a 633d 26fd 963b bbc8 c4be
000002c0: 9fd2 3b3d f08a 2fbd 3f80 2cbe 2814 6a3e
000002d0: 405e 013d 9c8a 8e3d 97a4 babd 718d 823d
000002e0: 2115 6e3b 1fc6 233d b816 39bc 40c8 f4be
000002f0: a9b7 40bd 350d 403d bbf9 a73c efcb fbbd
00000300: 8d42 17bd 498b 413d 22ad b1bd febc f13c
00000310: cc0e 68bd c85a a7bc 13ec 403e bdc2 933b
00000320: 190d 03be d750 af3c 281d 54be c3bb 6e3a
00000330: fcea 583e 7781 163c 0454 4b3c fe71 f03d
00000340: 2ca9 083e 1ebb 2bbc 258d 8abe ee7c 80bc
00000350: df08 903d 8558 35be 173c 1f3e c87b 82bb
00000360: 32d3 a0bd f542 573e 836b 2b3c 1b76 31bc
00000370: c28f f5bb 1145 ccbe ef79 583d a4db 6ebe
00000380: 184f ad3d da48 47bc 5279 dcbc d3b8 0fbe
00000390: 1e51 06bd ab99 15bb fefe fb3d 8a5e ed3b
000003a0: f460 cd3e fca9 423d 7bd0 f03c 1534 ccbc
000003b0: 72a2 e83b 65eb ca3d e4be fabd bc2a 873b
000003c0: a64b 4d3e 7853 1e3c f57c 8ebd 84a5 4ebe
000003d0: 15d0 9eba 0a9d e83c a773 6d3d d436 dcbd
000003e0: d230 bdbe 649b d4be d1f5 e73d b987 59be
000003f0: 02aa 3dbe 8083 203e 5632 15bb fdf9 763b

fc3.bias f4 [2]
0.04205863 -0.029428678
00000000: ac45 2c3d 6914 f1bc
