two agent related files/checkpoint_critic_new.pth (torch_old, 532669 bytes, 9 tensors)

fcs1.weight f4 [400, 24]
00000000: 31d9 b43b f78c 4abd 148a 7c3c f3f4 ba3c
00000010: c5d7 0a3e 1cb9 ce3c 8060 45bd fe48 dd3b
00000020: 1e3f 85bd 524b 7cbc d343 47bd 0668 3e3d
00000030: 0736 f93d ca27 41bc 947c ef3a e98e 7c3d
00000040: 2949 e13b 5a0b debc 943f 583c 5c34 3d3d
00000050: 6e51 b63d 25a5 8cbd b625 c73c 91b0 b83c
00000060: e416 bbbd 935c 183f c9bd b3bc 337d 5f3d
00000070: 7ea2 5bbd 0c65 61c0 1e1d 89bc d400 a43d
00000080: ddcb 8e3e d25d 1a3f 32fd a4bc c764 17bd
00000090: 89f1 7dbe d9d7 f5bf e58a 343a a121 05bd
000000a0: d63e 96bc 7bfd e33e 4119 2dbb a277 d73e
000000b0: d7da 3a3e cd15 3b3b 0b00 823b 6410 c63e
000000c0: 5d6d 373f ab38 26bc 4e62 b63d b7b0 043e
000000d0: 29e7 023e 9400 96bd 94a7 1d3d a139 f83d
000000e0: 81b8 653e f66f 6dbe 6997 8d3d 112f 923e
000000f0: 2b6c a73d f6c4 a23d e93d fc3d ddd7 803e
00000100: f887 03bd 0ffe ffbd 65db 44be c3af 9a3f
00000110: 637c 1c3f 8450 7bbe 12ff 60be 3bec 983f
00000120: 3404 463c 2d07 233e 9a08 53bc 1605 84bd
00000130: c381 c8bc 5514 0fc0 49f3 62bc 1f11 3bbd
00000140: 12a5 eabc 36fd d43d 9764 babc b59e 353e
00000150: 5e50 64be a3c8 ef3e a016 c73b 9c34 503e
00000160: 4fa3 653d c886 b63e e2b4 ae3c f088 17bd
00000170: d741 8b3e f195 06c0 80c5 a33b be41 043d
00000180: eff7 463d a42a cd3e c3f5 99bb cb25 893e
00000190: 1f23 8abe c8f3 89bd 9168 b23c a854 953e
000001a0: 56eb 3cbe 6ba8 543e e167 abbe 14ce 1ebd
000001b0: ef91 08bf 02d6 f53e b3b8 b7be 14ab 90bd
000001c0: 794e 39bf 0388 a53d e287 a2be a4e2 333e
000001d0: b21c e7be cb72 563f af6e 96be 3f96 793e
000001e0: 39db c53e c72e 023c d4a5 a83d 75dd ed3d
000001f0: ecb5 ca3d 86c5 34be 619a 943d 7ab4 043e
00000200: 96c8 7f3e 8486 953d dc2d e2be ebbb 9c3d
00000210: 793e 8f3e 2679 f9be aad8 d9be 4d1c c03d
00000220: 6476 153e 4f09 2dbd 3c6e ae3e 320b 99bc
00000230: 5033 aa3e 2d44 70bf 39ef 8f3e 1a38 61bd
00000240: c8ae c0be 6b56 3e3f 3364 0dbd b098 27be
00000250: a586 153e 07e6 c6bf 3050 e7bc 6400 a5bd
00000260: 87a9 e9be 6c77 643f 572e cfbd a403 c0be
00000270: 0c26 103d 43f9 78bf 5f1c 6dbd e4d4 b4be
00000280: 900b 2abf 2872 5f3f 4417 37bd 9663 5a3d
00000290: 32cc d2bb 8f58 97bf 35f9 98bd 0720 ee3c
000002a0: f28c 0fbd fda5 d53e d0fc 23bd 1098 b43e
000002b0: 13d3 203e 4e9d eb3e bc1b c6bc 7e80 983e
000002c0: 2074 8a3c 1a68 9c3e 6f27 33bc e0fa fe3c
000002d0: a9a0 843e b161 0e40 a54a 43bd 9d87 0cbd
000002e0: 11b7 15bf 87d0 8f3d 6e51 90bd b025 003e
000002f0: 185a 84bc ab89 4440 8971 8cba a56b 4d3e
00000300: 9ff6 8b3f 78fc 253f cf35 cfbc aea8 97bd
00000310: 630f 0bbf 5b54 db3e b6b7 80bd 1a55 f7bd
00000320: d490 7d3f d7a4 c63e 07ca 95bd f862 01bf
00000330: 5927 28bf c971 893d d757 70bd 4d2a fabe
00000340: 4f32 753f 7354 373e 4938 7bbd cf8c 01bf
00000350: 7b0b c8be 014f 63be 37d5 97bd 99ca 0ebf
00000360: 96a9 153f b699 863f 52d0 83bc 3922 b9bd
00000370: 2904 92bd bae7 28bf a1bd 8e3d cb4a 01be
00000380: 4122 c73e 09f8 883f 0813 e7bd 7469 f9bd
00000390: 80b3 26bf 889d 55bf 5cf0 2cbe dc41 2ebd
000003a0: 9071 333f 7e4b 7c3f 5328 f73d 4716 d3be
000003b0: 68f8 0cbf 4d09 e9be c566 2a3e 15eb bfbe
000003c0: b846 223f ea60 8dbd e3b3 19be fbd1 fdbe
000003d0: b99e 153e 78ae d53e ecd6 fcbd ab96 08bf
000003e0: ac0c a53e 8468 30be 8e64 81be 6158 14bf
000003f0: 01f3 63bd f83b 503e 0e91 7cbe 75a6 27bf
0.0055190553 -0.04945084 0.01541378 0.022821879 0.13558872 0.025234751 -0.048187733 0.006753086
-0.06506179 -0.015398817 -0.048648667 0.046485923 0.12168508 -0.011789272 0.001827138 0.061659727
0.0068751764 -0.027105022 0.013198752 0.046192512 0.0890225 -0.06867436 0.024309974 0.02254513
-0.091352254 0.5951626 -0.021941083 0.05456276 -0.05362176 -3.5217924 -0.016737517 0.080079705
0.2788991 0.6029941 -0.020140264 -0.036961343 -0.2479917 -1.9206496 0.0006887152 -0.032502774
-0.01834051 0.44529328 -0.0026412758 0.4208346 0.18247543 0.002854693 0.0039672903 0.3868438
0.7165125 -0.010145347 0.08905469 0.12958036 0.12783493 -0.07324329 0.038489893 0.12120367
0.22433664 -0.23187241 0.06913645 0.28551534 0.08174928 0.079477236 0.12316496 0.2516469
-0.03211209 -0.1249963 -0.19224317 1.2084888 0.611273 -0.24542433 -0.21972302 1.1947092
0.012085963 0.15920706 -0.012880469 -0.064462826 -0.024475938 -2.235616 -0.013851949 -0.045670625
-0.028643165 0.10399859 -0.022753043 0.17736323 -0.22296283 0.4683276 0.006075695 0.20332569
0.056063946 0.35649705 0.021326486 -0.03699583 0.2719867 -2.1029017 0.004997909 0.03228926
0.04857629 0.40071595 -0.0046984865 0.26786646 -0.2697992 -0.06735951 0.021778377 0.2916615
-0.18449149 0.20767371 -0.3347769 -0.03877075 -0.53347677 0.48014838 -0.35883102 -0.070638806
-0.72385365 0.08082583 -0.31744295 0.17566925 -0.4513908 0.8376891 -0.2938132 0.2437372
0.38643816 0.007945723 0.08234754 0.11614505 0.0989798 -0.17653474 0.07256008 0.12959471
0.24978861 0.073010474 -0.44175613 0.0765303 0.2797735 -0.4872524 -0.42548114 0.09380398
0.14595944 -0.042245205 0.34068477 -0.018682096 0.33242273 -0.9385403 0.281122 -0.054985143
-0.37633348 0.74350613 -0.034519386 -0.1636684 0.14602144 -1.5538949 -0.028236479 -0.08056715
-0.45637152 0.89244723 -0.101162605 -0.37502778 0.035192534 -0.97255343 -0.057888385 -0.35318673
-0.6642389 0.87283564 -0.044699922 0.05331763 -0.0064330334 -1.1823901 -0.074694075 0.029068006
-0.035046525 0.41728202 -0.040036023 0.35272264 0.15705518 0.4601845 -0.024183147 0.29785532
0.016901076 0.30548173 -0.010934695 0.031125486 0.25903824 2.2247126 -0.04767861 -0.03430902
-0.5848246 0.07022195 -0.070467815 0.12514377 -0.016156241 3.0709026 -0.0010714988 0.20060594
1.0934638 0.6483836 -0.025294213 -0.0740522 -0.54320353 0.42837796 -0.0628504 -0.12076779
0.99049115 0.38797638 -0.07313924 -0.5054164 -0.6568504 0.06711156 -0.05867752 -0.48860398
0.9577989 0.17903309 -0.061332975 -0.5060548 -0.3907126 -0.22198106 -0.074137144 -0.5577789
0.5846189 1.0515659 -0.016090546 -0.090397306 -0.071297 -0.65978587 0.069697626 -0.12626188
0.3889332 1.0700694 -0.11282927 -0.12178317 -0.65117645 -0.834435 -0.16888565 -0.042543277
0.7009516 0.9855269 0.12068238 -0.41227934 -0.5506654 -0.45514908 0.16640766 -0.3748404
0.6338916 -0.069032505 -0.15010028 -0.49574265 0.14611329 0.41734672 -0.123456806 -0.533549
0.3223623 -0.1722737 -0.2527203 -0.57947356 -0.05565167 0.20335376 -0.24664709 -0.6548837

fcs1.bias f4 [400]
00000000: 109c 48bd 5b27 e9bc 9ca4 333e c51c faba
00000010: 5fcc 2a3e 0cb2 11be 6c9c 14be 361a 443e
00000020: 858d 243e 8a26 743d ccb3 493e 39a6 c13d
00000030: bcf9 07be 630b 8f3d a813 81bd 6624 3ebe
00000040: f482 4dbe bc0f d7bc 525d 02bd a1b1 5b3c
00000050: 0143 bbbd 2851 32be 10b4 01be a5fb 223e
00000060: b278 64bd 8c18 6ebd 3db6 02be 90ce b0bd
00000070: 5782 48be d240 c1bd 351c 163e 149b 4abe
00000080: 52ad 063e 68f7 d9bc 64b7 b1bc 2399 023e
00000090: 2c74 1c3d b24f 193e c70f abbc ca35 4e3c
000000a0: b03b 45be 06c8 353e fb78 0cbc c303 77bd
000000b0: 43e9 cfbd 0c3b 3cbd 5df5 ef3d 34c2 9ebd
000000c0: 74f1 1b3e d006 013d 0e8b 3fbe 62c9 9b3c
000000d0: 3849 153e 584c 093e 08a1 46bd 3642 aebd
000000e0: 1b13 113e f0b2 febd ca76 5f3d cdb2 d8bd
000000f0: 599b b23d 97e1 da3d 8989 463e 7323 83bd
00000100: ae6e 3c3e d71c d6bd 42d4 bf3d fb0e 513e
00000110: 1fc0 aa3d a2ab 46be cb47 45be 1f70 d7bc
00000120: 5cde b1bd 6885 e23d 5355 f03d 0a7a 0cbe
00000130: ba91 1e3e 0c3a eb3d 94ee 1b3e 4621 e3bd
00000140: aba3 493d 79fb f8bd 6bba 463e f18b dcbd
00000150: faf9 153e 6e96 713d 8551 253e 52d1 0d3e
00000160: 15cf 8a3d 1b5e b5bd 9d66 da3c 1367 2fbd
00000170: 367c 323e ccae 643d 7628 c43b e9c5 033d
00000180: 8036 4d3e 6c50 26be e17f f2bc 8772 38bb
00000190: a614 253c 0c26 313e c382 31be a633 c1bd
000001a0: 2642 2bbe efdc 7f3b 35ce 783c 1012 38be
000001b0: b86d a73c db91 c1bd 2158 e23d bb87 14be
000001c0: 80bf 27be a126 d3bd 68dd cd3d c84d 973d
000001d0: 64bf e23d cd6f 71bd 96e0 b5bc 81cb c9bd
000001e0: 704c 5dbd dd08 02be bb10 3ebd 5f68 1d3e
000001f0: a3ff 16be 20e9 b23d b5c7 01bd 7e16 74bb
00000200: 1071 203e b433 23bd 0adf 3bbe 6cbc 06be
00000210: dd0d 22be 7352 023e 007e 11be e3f3 15be
00000220: 841a 923d 007f 0ebd 9874 b83c 86e3 123e
00000230: 4dd5 a8bc 2d53 a9bc b03a 18bd 0b91 433e
00000240: 97c6 0dbd 1c2d 463d 38bf e83d cc94 b83d
00000250: d8a0 653d cdc0 7d3d f8b4 b7bd 1252 c1bd
00000260: b62c 7f3c 84c0 913d d89a d4bd 64f6 26bc
00000270: 394a c6bc aa66 903d 0047 623d bbc8 3e3b
00000280: cd4e 9e3c 2137 12be d1f8 49be c6a6 bebd
00000290: 236f 2e3e e793 bc3d 5220 3ebc c670 04bd
000002a0: 58c4 d73c 7997 1ebe dfde 983d 22ee d33d
000002b0: c26d debd 1bfc 913d a5e2 ec3d e306 293d
000002c0: 2ab1 263e ba16 a5bd 1c1e 8f3d 1ecf 9dbd
000002d0: d5a1 d63d 8cb7 cfbd 927c 143e 178a 81bd
000002e0: 34ba b9bc cf32 1d3e 1f67 2cbd 7e5e 243e
000002f0: 5078 91bd 841e d73d 8d48 0ebe 7662 1b3e
00000300: fe38 253e 84d6 19be de9d 893c 3da4 093e
00000310: 36ad ac3d 120a 063b c653 03be e741 113e
00000320: bf50 3e3e dc12 2d3e 46a7 ebbc 8590 e53d
00000330: 2cc5 e03c c93a aa3b 51ff 6cbd 6955 3f3e
00000340: 6c61 2c3e ed1a 4e3e 34da 29be 0eb0 793d
00000350: 573d cebc 6abf 03bd 1d46 c83d 58f3 123e
00000360: 1f8f 1c3e be2c c93d 1cac a7bd ddb4 f1bc
00000370: 259f 9e3d b4c6 073e 9866 cfbc 09de e2bc
00000380: ae8d a73d cc8b 183e 1b97 01be d430 3ebe
00000390: 98a5 163e 9cc5 3dbe d6ac f53d b1fc 8bbd
000003a0: d745 333e 442e a53d cc71 81bd acc9 09bd
000003b0: 1889 f6bc 9828 c03d 571d 0d3d 64a5 0bbd
000003c0: 0225 b2bd e141 3b3e 830c d43d 89b0 4ebd
000003d0: 7c9a 193e da5f af3d 2193 d6bd 14f4 913d
000003e0: 69ab 853c 3096 843c cfa0 3ebd eee4 d1bc
000003f0: f326 073e 865b 3bbe 0746 c0bd c0dd ebbd
-0.048976958 -0.028461149 0.17543262 -0.001908206 0.16679524 -0.14228076 -0.14512795 0.19150624
0.1606961 0.059607066 0.19697493 0.094555326 -0.1327886 0.06984594 -0.06302577 -0.18568572
-0.20069486 -0.02625262 -0.03182728 0.013409049 -0.09143639 -0.17413771 -0.12666345 0.15916307
-0.055779167 -0.05812888 -0.12764831 -0.08633149 -0.1958097 -0.094361916 0.14659198 -0.1978572
0.13152054 -0.02660723 -0.021693893 0.1275373 0.038196728 0.14971808 -0.020881547 0.0125860665
-0.1926105 0.17752084 -0.008573766 -0.06030632 -0.10151913 -0.04595475 0.11716721 -0.07751885
0.15228826 0.031500638 -0.18705389 0.019016925 0.14578712 0.13408029 -0.048493415 -0.085087225
0.14167444 -0.12436473 0.054556645 -0.105809785 0.087210365 0.10687559 0.19388403 -0.06403246
0.18401596 -0.104547195 0.09366657 0.20415871 0.083374254 -0.1940141 -0.19265668 -0.02629858
-0.0868499 0.110606015 0.11735024 -0.13718429 0.15485278 0.11485681 0.15227729 -0.11090331
0.04922835 -0.121573396 0.1940705 -0.10768879 0.1464614 0.05898135 0.16144378 0.1384938
0.06777779 -0.0885584 0.026660258 -0.04282291 0.17430195 0.05583076 0.0059862686 0.032171164
0.20040321 -0.16241616 -0.029601993 -0.0028144435 0.010075724 0.1729967 -0.17335038 -0.09433679
-0.16724452 0.0039041599 0.015185882 -0.1797564 0.02043806 -0.09451648 0.110519655 -0.14504902
-0.16381645 -0.10310102 0.100519955 0.073878825 0.11071661 -0.058944512 -0.022201817 -0.098532684
-0.054027975 -0.12698694 -0.046402674 0.15371846 -0.14745955 0.08735871 -0.031684596 -0.0037244852
0.1566813 -0.03984423 -0.18346801 -0.13157815 -0.15825601 0.12726764 -0.14208221 -0.14643817
0.07133964 -0.034789085 0.022516534 0.14344606 -0.020609522 -0.020669544 -0.037165344 0.19098298
-0.03461322 0.048382863 0.11364597 0.09012756 0.056061596 0.061951447 -0.08970064 -0.09439482
0.015574625 0.071167976 -0.103810966 -0.01019058 -0.024205314 0.070508316 0.055243492 0.0029111344
0.019324685 -0.14278843 -0.19723822 -0.09309153 0.17034583 0.09207898 -0.011604385 -0.03233411
0.026338741 -0.1548747 0.07464384 0.103481546 -0.108607784 0.071281634 0.115666665 0.041266333
0.1627852 -0.080609754 0.06988165 -0.0770552 0.10480086 -0.10142431 0.14500645 -0.06325167
-0.022671796 0.15351413 -0.04209053 0.16051671 -0.07103026 0.10503867 -0.13894863 0.15174279
0.16135022 -0.15023237 0.01679891 0.13441558 0.08431475 0.002045278 -0.12824926 0.14185296
0.1858549 0.16901726 -0.028766286 0.112092055 0.027437769 0.005194996 -0.057860676 0.18684925
0.16834038 0.20127459 -0.16587144 0.060958914 -0.025175733 -0.03216497 0.09778998 0.14350641
0.15288971 0.09822987 -0.08187124 -0.029505188 0.07745198 0.13259393 -0.025317475 -0.027693765
0.0818132 0.14897078 -0.12655298 -0.18573314 0.14711607 -0.18532413 0.119958565 -0.068353064
0.1750711 0.08065465 -0.06320533 -0.033639595 -0.030094668 0.09382743 0.03445181 -0.034093276
-0.08698465 0.1828685 0.10353949 -0.050461326 0.15000337 0.08563204 -0.10477281 0.07126632
0.016317086 0.016184896 -0.046540078 -0.025621857 0.13198452 -0.18296632 -0.09388357 -0.11516905

fc2.weight f4 [300, 402]
00000000: c4c3 053d 72a1 223d d319 fdbc 2bf3 d1bc
00000010: f9df 74bc a92d 81bd 7da2 16bd 1bd2 ffbc
00000020: 889d 313c 77e9 31bc f735 cfbd 7241 0ebd
00000030: 7d95 52bc c260 36bc 3914 1cbd 8077 ee3c
00000040: 39f5 25bd a8b7 50bd 48fd 28bb 1baa f23c
00000050: 4be1 f9bc 9342 63bd d435 fcbc db88 7cbd
00000060: 3977 40bc de68 cabb d58f 0f3d e97e 043d
00000070: 5b27 223d c5a5 7dbd 3773 45bd a8ce 64bd
00000080: 6b87 a73c 37a0 a6bc 208b e83c 4964 153c
00000090: 2551 debc c5af 12bd 867d 5c3c 784a 613c
000000a0: 6481 e93c bdfb bdbc 086d b83c 08ee 92bc
000000b0: 902d 2fbd 9751 f13b f4a9 103d 3221 9cbd
000000c0: 7cca 2abd 271a 7bbd 81d8 a4bd 121c 39bd
000000d0: eb68 b5bc 94a6 c639 9e08 05bd c1e0 7bbd
000000e0: 2930 ccbc 03e1 f8bc 3730 90bc 9457 673b
000000f0: 0320 8abb e5f5 55bd d99b a5bc a4fc e3bc
00000100: 714a fa3c da80 033d 827a 34bd 0aeb 95bd
00000110: 572c e2bd 4da6 a5bb d0aa 15bd 9bb5 d0bc
00000120: 66f1 e93c 8d00 2cbc 3839 78bd 214b 39bc
00000130: 0dca b4bd bfdc 89bd 1848 21bd f7dc 113d
00000140: d22e f53c 3899 c9bd 45a8 f63c 3465 f53b
00000150: 97cf 333c 8cf7 42bb 96f4 39bd 70ca b1bd
00000160: c436 0a3d be1d 58bd f56d 213d ba9c afbd
00000170: 339c 46bc 68cc 583b 807b 3ebc 10d6 c7ba
00000180: cb46 fcbb 0728 0bbc 7067 2fbd 5b46 083a
00000190: d65a 623d 97f3 133d a85c 32bc 015d 2bbc
000001a0: 28aa ad3b 9250 8bbd 9d24 ecbc ec94 67bd
000001b0: 81f4 1d3c 0b38 b8bd b6cf 46bd 509d 23bd
000001c0: 2a9a aabd 0301 3bbc 47ca 08bd 2121 56bd
000001d0: e2ff 42bd b69c 353d bc01 bc3c 6cc9 0e3b
000001e0: d52f 5ebc e2ea 0fbd 81b2 33bd feb6 1d3c
000001f0: 31c8 fdbd 5fa8 8fbd 6024 44bc 2769 9abd
00000200: 9999 1e3d c85e 1ebd 9e7e 893c f264 ca3c
00000210: fb6d 92bd e2c1 8dbd 21a6 6bba c1a3 6d3c
00000220: a13c 4e3d f951 df3c a370 75bd a595 67ba
00000230: 1cc9 dcbb cb6e 313d 78cd a8bc 0dab 1c3d
00000240: 93c4 03bd 4573 aa3c 00b4 18bc de9b 7f3c
00000250: 0b43 8dbb 3e22 363d b44c 71bd 1ef4 1f3a
00000260: 410b bfba 8af8 39bd d4b0 7ebc c667 76bd
00000270: b35e 54bd ba62 51bd 9f1e ec3b 2093 bb3c
00000280: bd3e df3c 08eb 913c f28b b4bd 2634 cabc
00000290: 8545 e6bc 5517 513d 9d76 2d3c a16b 51bc
000002a0: 4f5a 04bd d605 8dbd fe2f 053d 5ca8 9abd
000002b0: 680b 663c 55c5 6cbd 8c7f b83c 4ab2 36bb
000002c0: c6e3 05bd 47d2 143d 4e02 0bbd d049 fcbc
000002d0: e9f8 9fbc 8d51 7f3c dfcd 453c 6adb dc3c
000002e0: 5b34 b03b 26aa 2bbd aac4 2c3d 39ba 413b
000002f0: 9eaf 163d 400d dcbb 54c8 e03a 7911 8abd
00000300: 7f08 40bd 7d84 2d3d 440b b03c 4ec1 5abd
00000310: fac4 68bd 7191 d6bd d6fc 9abc 9e99 15bd
00000320: 77a3 363d 4225 133d 6882 6b3c b8ec a3ba
00000330: 0bc4 aabc 35eb bdbd 423d 11bd 51bf ed3c
00000340: 7df1 c2bd f896 17bc ac14 093c be69 3e3d
00000350: 4b5d 4f3a fbe7 51bd 0e41 cdbd 35af 8abb
00000360: fa02 083d cb12 00bc b954 5cbd 6aa2 dbbb
00000370: 25b7 a1bc 1de7 bb3c 0262 38bb 9687 debb
00000380: 7d86 a63c fd24 03be f8eb 4ebd 6583 403d
00000390: e89d eabc ff06 3fbd af70 ef3c 8893 b73a
000003a0: 66e8 69bd 510e 53bd a201 20bd f4ba 7f3c
000003b0: b42b ac3c ad2c 7dbd 76bf 44bc d85f 81bc
000003c0: 74e5 01bd 7264 6c3c 9e52 92b9 1481 72bd
000003d0: 9ef1 82bc e6ad 7ebd 848f 05bc 8cca bfbd
000003e0: dec3 323d 8a63 69bc 47ce 56bd b88c 1c3d
000003f0: 7119 9ebd b691 13bc 488b 67bd cd29 54bd
0.0326574 0.039704747 -0.030896103 -0.025628647 -0.014945977 -0.06307537 -0.036776055 -0.031228116
0.010840781 -0.010858885 -0.10117715 -0.034730382 -0.012853024 -0.011131467 -0.038105223 0.029109716
-0.040517066 -0.0509564 -0.0025785733 0.029622128 -0.030502936 -0.055483412 -0.030787386 -0.061653953
-0.011747175 -0.006177052 0.03504928 0.032347593 0.039588314 -0.06192567 -0.04820558 -0.055861145
0.020450315 -0.020340068 0.028386652 0.009118148 -0.027138302 -0.03581216 0.0134576615 0.013750665
0.028504081 -0.023191327 0.022512928 -0.017935768 -0.04276806 0.0073644626 0.03531833 -0.07623519
-0.04169701 -0.061304238 -0.08049107 -0.045192786 -0.022144755 0.00037889613 -0.03247892 -0.06149364
-0.024925308 -0.030380731 -0.017601116 0.0035300003 -0.004215242 -0.052236456 -0.020215916 -0.02783043
0.030553075 0.032105304 -0.044062145 -0.07320221 -0.110436134 -0.005055225 -0.036539853 -0.025477221
0.02855749 -0.010498178 -0.060601443 -0.011309416 -0.08827601 -0.06731557 -0.039375395 0.03561112
0.029929552 -0.09843677 0.030109534 0.007488871 0.010974786 -0.00297496 -0.04539927 -0.0868119
0.033743635 -0.05276274 0.039411504 -0.08574815 -0.012122202 0.003308082 -0.011626124 -0.0015246291
-0.007698869 -0.00849343 -0.042823255 0.0005198472 0.05526241 0.036120977 -0.010886349 -0.010459186
0.005299825 -0.06802477 -0.028826052 -0.056538507 0.009640814 -0.08995064 -0.048537932 -0.039944947
-0.08330186 -0.011413815 -0.03339603 -0.052277688 -0.04760731 0.044338904 0.022950046 0.0021787537
-0.013561209 -0.03513611 -0.043871406 0.009626148 -0.12391699 -0.07014536 -0.011971563 -0.075395875
0.0387207 -0.03866461 0.016784009 0.024706338 -0.07149883 -0.06921746 -0.0008989294 0.014504374
0.05035079 0.027260767 -0.059921872 -0.00088342495 -0.0067378413 0.04331855 -0.020605788 0.038249064
-0.03216989 0.020806918 -0.009320259 0.0156011265 -0.0043109707 0.04446625 -0.05891104 0.0006101745
-0.0014575497 -0.04540304 -0.015545089 -0.06015756 -0.051848125 -0.051119544 0.0072057988 0.022897303
0.027251596 0.017812267 -0.08815755 -0.02468307 -0.028109321 0.05104764 0.010587362 -0.012782008
-0.032312687 -0.06885879 0.032516472 -0.07551643 0.014040805 -0.057805378 0.022521757 -0.0027877265
-0.032687925 0.03633335 -0.033937745 -0.030796915 -0.01952787 0.015583408 0.012073009 0.026960094
0.005377335 -0.041910313 0.04217974 0.002956046 0.036788575 -0.0067154467 0.0017149546 -0.06741614
-0.046883103 0.04236268 0.021489747 -0.053407006 -0.056828476 -0.104769595 -0.01891939 -0.036523454
0.044589486 0.035924204 0.014374353 -0.0012506461 -0.020845434 -0.09273378 -0.03545881 0.02902189
-0.095187165 -0.009252302 0.008366745 0.046487562 0.0007910325 -0.051246624 -0.10022174 -0.004232312
0.033205964 -0.007816981 -0.053791735 -0.006702711 -0.01974065 0.022937352 -0.002813459 -0.0067910654
0.0203278 -0.12807079 -0.050518006 0.047000308 -0.028639749 -0.04663753 0.029228536 0.001400576
-0.057106398 -0.051527325 -0.039064057 0.015608538 0.021016933 -0.061810184 -0.0120085385 -0.015792772
-0.031712964 0.014428245 -0.00027908845 -0.05920513 -0.015984353 -0.06217756 -0.008151893 -0.093648046
0.043643825 -0.014244923 -0.052442815 0.038220137 -0.07719696 -0.009006908 -0.056529313 -0.051797677

fc2.bias f4 [300]
00000000: b27b 4abd 6c4c a7bc e6dc a0bd 7c86 65bd
00000010: cf16 f8bd 01aa 00be e2ec f1bd 3f6d 82bd
00000020: 8233 63bd b5ec 84bd 1dce bdbd db8a ebbd
00000030: 9654 cebd 05bb b5bd a6c8 b2bc 4f28 b6bd
00000040: 5eb0 b0bd a8e6 6bbd e490 2a3f 5c27 5ebd
00000050: c0db d7bd 7376 9ebe c921 2e3d 6d7c 15be
00000060: bca5 a2bd 53df 9dbd a8af 3ebd 86ec 7abd
00000070: cd98 ecbc b6c4 1fbd ad28 b93e 1cec 24bd
00000080: 52bd 8b3c f251 99bd cc70 033f 3d3e 81bd
00000090: 568b 30bc 6b6d 6bbd 3f5a c6bd 989c 71bd
000000a0: 8ca5 1fbe 9116 60bd e82e a9bd 542d 8a3d
000000b0: eec6 99bd 8e34 b7bd 7340 0bbe dea9 91bd
000000c0: e533 c2bc 8140 15bd 42bf 28be 8ece b5bd
000000d0: 86b0 79bd a224 9cbd c65e 29bd 7874 f4bd
000000e0: 81fb 8ebd 650a 74bd ad66 b8bd 3493 bdbd
000000f0: 8553 3ebd 4ea9 44bd 1243 cbbd 1e6b 60bd
00000100: 28f4 7fbd 0dcd b9bd e0c2 52bd 1ba1 58bd
00000110: dd85 b7bd 8b94 89be 6c67 95bd 61ba 86bd
00000120: 3a04 11be 87f4 a6bd 6677 50bd 97c3 1cbd
00000130: e696 a5bd 95b3 87bd e105 b3b9 df6c a5bd
00000140: c83f febd 72f4 a7bd 086b 89bd 402a cebd
00000150: 0740 023d a401 19be 844a babd 5913 83bd
00000160: a86e c0bd 15cf 90bd 5763 dcbc 5859 53bd
00000170: 3a65 82bd 3236 15be 3057 33bd 6a6b 0abd
00000180: 9092 8bbd 18b0 dabc 2a7f 77bd 3ee0 fbbc
00000190: 9a5d 78bd 7af5 acbd 3fd7 18bd 2355 a0bd
000001a0: 1b6b 8fbd e6ba 99bd 3fa9 33bd d65d 8cbd
000001b0: 9b3e 16be 8cb6 fdbc b562 c93d a350 8cbd
000001c0: 56d1 32bd 8e0b 80bd 097a 363d eb8e 8ebd
000001d0: 422b 26bd 53b9 9ebd da16 a5bd 1ebe 82bd
000001e0: 9792 86bd d651 19be d317 13bd 8a47 eebc
000001f0: 3236 bebd 5169 bebe b7fe 7cbd 59fb a23d
00000200: e386 8fbd 5616 46bd 1d1f 273c ae3e 4ebd
00000210: 061d 8bbd c048 ecbd 7663 80bd 2f51 8abd
00000220: cc7c 2fbd c939 a2bd e880 8bbd 9163 06be
00000230: 98f6 85bd c204 f4bc fbb4 c5bd 1d83 803b
00000240: 4276 33bd e99a b6bc 4c21 a8bd 8b38 b7bd
00000250: b61e c23e 4c92 eabd ad0a 3dbd 986b c9bc
00000260: 1b45 74bd 85ce b3bc 8a51 96bd 1f39 37bd
00000270: be75 9dbc 1b64 1fbd 472d b7bc 4884 5dbd
00000280: daaf 2e3e 6161 acbd cde0 81bd 47b5 6abd
00000290: cc9c e2bd 7245 8c3e bb5a 3cbd 37a4 41bd
000002a0: ca59 343e 6ce0 993d 4075 75bd 7082 43be
000002b0: d8ce b3bd 7b6a 9abd d4fb 57bd 137d 3cbd
000002c0: dafc 24bd 7fa5 a2bd 5f33 a7bd 9e1a 7abd
000002d0: 9d77 78bd cea3 11bd fb4d a3bc f98f e13c
000002e0: b166 e2bd 35e8 88bd f0ce 33bd d16d 99bc
000002f0: ee12 77bb 93c3 1ebd 0352 c0bd 26a4 b8bd
00000300: f8df 83bd 4d93 abbd debe d9bd c252 6ebd
00000310: 5b9a 84bd 060d 68bd 83d0 4bbd 8062 963d
00000320: 2307 02bd 39cc 193c 0484 efbd 794b dcbd
00000330: 8768 43bd 8510 19bd b963 b2bd 1abb 15bd
00000340: fa03 09bd d881 01bc 9bd3 acbc 157c cebd
00000350: 9adf bfbd 56c2 a13d a9da 4bbe b78c d2bd
00000360: 3289 363d cde7 89bd 96af bdbd 1d5c 89bd
00000370: 7320 223e 0dbc f0bc d6c9 c4bd 33d1 64be
00000380: 0b13 4b3e 4289 54be 6aa6 a2bd 4d9d cdbd
00000390: 6757 6abd 1f66 acbd 34a1 8cbe 8783 eebd
000003a0: afdf c1bd 7acd 42bd 1fcf b5ba 687f 99bd
000003b0: 55c3 c8bc 8078 203e 5e9b abbd 0c68 0c3e
000003c0: 4976 94bd 992e 49bd d586 0cbd 7ef6 80bd
000003d0: b1cc 99bc b3e9 92bd cc20 d7bd cc3a b7bd
000003e0: 34e7 0f3f 5853 41bc 0f50 eebd 5f92 9abd
000003f0: f936 7ebd d992 9cbd 1aab 04be 4b60 a23c
-0.04943437 -0.020422183 -0.07854633 -0.056036457 -0.121137254 -0.12564851 -0.1181276 -0.06368493
-0.055469044 -0.06490461 -0.092678286 -0.11501094 -0.10074727 -0.08873562 -0.021824192 -0.08894407
-0.08627389 -0.057593018 0.66627336 -0.054236755 -0.10539961 -0.30949745 0.04251269 -0.14598246
-0.079417676 -0.07708611 -0.046554238 -0.061260723 -0.028881455 -0.039005958 0.36163846 -0.040264234
0.017058048 -0.07486333 0.5134399 -0.06310699 -0.010775408 -0.057477396 -0.09685182 -0.05898723
-0.15590495 -0.05470902 -0.082609 0.06746927 -0.07508646 -0.08945571 -0.13598804 -0.07112478
-0.023706386 -0.03643847 -0.16479209 -0.08877288 -0.06095936 -0.07624175 -0.04135015 -0.11936277
-0.06981564 -0.059580225 -0.09003959 -0.092565924 -0.04646637 -0.048013024 -0.09924902 -0.054789655
-0.062488705 -0.090723135 -0.05145538 -0.052888017 -0.08961079 -0.26871142 -0.07295117 -0.06578518
-0.14161769 -0.08152109 -0.050895117 -0.038272467 -0.08085422 -0.066260494 -0.0003414592 -0.08077406
-0.12414509 -0.08200921 -0.06709868 -0.10066652 0.031799342 -0.14942032 -0.09096244 -0.06400175
-0.09396106 -0.07070748 -0.026902838 -0.051598877 -0.06366964 -0.14571455 -0.04378432 -0.033793844
-0.06815064 -0.026695296 -0.060424007 -0.030746575 -0.06063614 -0.084452584 -0.03731465 -0.078287385
-0.070028506 -0.07506351 -0.043862578 -0.06853835 -0.1467232 -0.030970834 0.0983328 -0.06851318
-0.04365667 -0.06252204 0.044549976 -0.06960853 -0.040568598 -0.077501915 -0.08060999 -0.06383918
-0.065709285 -0.14972624 -0.035911392 -0.029086847 -0.09287681 -0.37189725 -0.061766353 0.07958097
-0.070081495 -0.048361145 0.010200289 -0.050352745 -0.06792645 -0.115373135 -0.06268971 -0.06753766
-0.042843625 -0.07921178 -0.06811696 -0.13123919 -0.06541175 -0.029787425 -0.0965366 0.00392188
-0.04381395 -0.022290664 -0.08209476 -0.089463316 0.37914056 -0.11453685 -0.04615276 -0.024587438
-0.059636217 -0.021949062 -0.07339771 -0.04473221 -0.019221183 -0.038913827 -0.022360457 -0.05408123
0.1705927 -0.08417011 -0.063417055 -0.057301786 -0.11065063 0.27396733 -0.045984965 -0.047275748
0.17612377 0.07513508 -0.05992627 -0.19092727 -0.08779687 -0.07539841 -0.052730396 -0.046017718
-0.0402802 -0.07941722 -0.08164095 -0.06106054 -0.060660947 -0.035556607 -0.019934645 0.027534472
-0.11054743 -0.06684915 -0.043898523 -0.018729122 -0.0037700492 -0.038760733 -0.093906425 -0.09015684
-0.06439203 -0.08377705 -0.10632108 -0.058184393 -0.064747535 -0.056653045 -0.0497594 0.07343006
-0.031745087 0.009387069 -0.11695102 -0.10756583 -0.047707107 -0.03736927 -0.08710427 -0.036555387
-0.033451058 -0.007904492 -0.021096995 -0.100822605 -0.093688205 0.07898395 -0.19907631 -0.102807455
0.044564433 -0.067336656 -0.09262006 -0.06707022 0.15832691 -0.029386545 -0.0960881 -0.22345428
0.19831483 -0.20755485 -0.07941897 -0.10039768 -0.05721226 -0.084179156 -0.27466738 -0.116461806
-0.094664924 -0.04755924 -0.0013870931 -0.07495004 -0.024507204 0.15670967 -0.08379243 0.13711566
-0.072491236 -0.049116705 -0.034308273 -0.06297015 -0.018774362 -0.07173481 -0.105043024 -0.089467615
0.5621216 -0.011799656 -0.11636364 -0.07547449 -0.062064145 -0.076451965 -0.12955895 0.019821307

fc3.weight f4 [1, 300]
00000000: f5e8 d03b 3c43 29be 6cb0 c53d 3577 153b
00000010: 9e79 dcbb 5f95 823c 45ec 8ebc cfb5 6e3c
00000020: 2884 3abc 3326 a7bc f00d 81bb ec4b d5bb
00000030: bc81 6f3e 2482 65bc ad6d 7a3c 541b 903c
00000040: f430 563c 0b23 94ba fe63 813d cf88 01bc
00000050: 6ebd 5ebb 2ef2 59bd f6d8 d03d a50d 1d3c
00000060: 7fb1 f6bb e4fb 003c bd3a 1bbc 3523 8dbd
00000070: 87f4 e43c 9068 01bc 1ca3 1c3d 23f8 8f3c
00000080: d3b7 92bd 0cd0 fcbb b101 393d c61d 7b3c
00000090: f19d 8cbb 3182 703c d64b bc3b 9c84 cf3c
000000a0: c653 0a3d c1d5 ab3b 6aba a3bc 9b6c e8bd
000000b0: 828d 493c 23d0 55bc 6353 60bd 47ca 28be
000000c0: caa3 c53a ff29 d0bb df7c 6d3d b421 483c
000000d0: cb9d cabb 3af6 f3bc 99d1 2cbc 04e1 963c
000000e0: e0a0 0c3b d4bf a1bc 1c54 e539 dcff 22bd
000000f0: 326e b1bc ec91 b9bc 5174 2e3c 270a dbba
00000100: ea4f e83b 099e 42bc 9865 aebb 4ef9 83bc
00000110: 7c36 99bc 478f f13d 02f9 eb3c 7f05 3cbc
00000120: 6e7c f1bd 170a fb3b d3b8 bfba 1eaf bc3c
00000130: 9969 50bb e5c8 b63c 135a 803d 77b6 90bb
00000140: 8341 013e b47f 9ebc 9317 b839 86a8 e1bb
00000150: 7a73 7abd 9aeb a03b 7702 e6bc c1b9 8c3c
00000160: e27d a53c 3509 793a a65d 2d3b 9e8a b5bb
00000170: 60de e93c d109 843e 43ab 383c 840c 1b3c
00000180: fb56 243c f0b3 a83c d4b5 e53c d458 6d3c
00000190: 6272 fb3b c950 17bb 1f4d fcbb 8bfa 8dbc
000001a0: 5488 eabc c45f 953c aae8 acbc f8e0 56bc
000001b0: 22d3 303e 823f c33c 2c3a 4b3d b994 273c
000001c0: dcc8 3aba c91a ebbb 92dd d83d dcc1 24bc
000001d0: 4591 31bc e146 b13b 120d 2a3b 07f1 273b
000001e0: 7554 3bbc 8421 453b 015f 36bc 4630 34bd
000001f0: a620 05bb 4d63 a6bd c396 ebbb 040f 843d
00000200: 4138 9fba 4cac 483c 133c 24be 8578 d13d
00000210: 2b5a fa3b d35b aabc 7718 8e3c c7f2 4f3d
00000220: a98c 6dbc b5bc 25bb cd33 7a3b f2a3 813c
00000230: 0a99 053c 4ecf bc3c 54ed 7ebc 98e9 863d
00000240: f4af 64bb 7aec dabc 9981 95bc c6c9 35bc
00000250: fde9 1b3d 4d1a 9d3c f923 183c bcb4 03bb
00000260: 0ff3 a93c 7f8a cebb 1d64 1d3c cc6c 1dbc
00000270: d9c1 073d b1de 093c 072b 2f3b c99c ba3c
00000280: 4b36 35be 9ca9 373a 455f 05bc ca90 a13b
00000290: 32d9 27bc ed8d 303d 6a7b dfbb bfde 3bbb
000002a0: ebdf 39be 120a 023e 2deb da3b 1bf9 fd3d
000002b0: 498b 24bc 096f 153e 9b3d d83c eb21 73bc
000002c0: b6bc 0abc cc81 673c d87f 8c3a 123a 82bc
000002d0: 99d8 ab3b 3fb3 e03b fdc8 fc3c 9f03 de3d
000002e0: f3c4 8fbb fba9 a1bc eb9d 59bc 2a4f cab9
000002f0: d181 13bd 75e1 11bc 753d 41bb 5dca 993d
00000300: 755f 69bc 3d5d 983b 760b acbc 24b0 9a3b
00000310: 5c3f eabb 96d7 9f3a 2268 00bc 20e2 0cbe
00000320: 85a7 9139 bdf8 50be 90b3 15be 4913 ba3b
00000330: 26e7 eabd c8ea abbb f7ab bb3c f737 383b
00000340: 7003 ae3a 07d0 4bbd 9190 043c eeb0 21bc
00000350: 2e7b 733c 4986 93bd 3b84 323e 9e59 bbbc
00000360: 2ba1 b93d 9bee 203c f7a2 8dbc 1652 babb
00000370: be77 37bd bdd9 aa3c f53b cdbc da75 5abd
00000380: 9194 c9bd 90ad 9f3b da1e 373b 70ef d13b
00000390: 45a1 cb39 bb47 c7bb 0b9e 6ebe 864a 90bc
000003a0: 6d6d 9cba 99b9 ed3b dfd4 a33c 4b3b 7bbc
000003b0: c443 68bc a2b9 f8bd a9c9 67bc b57e f73c
000003c0: 6c85 02bc 290b 313c 09c6 2abc e7a7 d0bb
000003d0: 4301 04bc 9679 33bd d25c ba3b 6d22 a8bb
000003e0: bbff 3d3d 3569 9f3d faac 8c3c 664b fe3b
000003f0: 4553 2d3c b344 2cbc 6b91 83bb e7f5 0b3e
0.006375427 -0.16529554 0.096527904 0.0022806649 -0.006728365 0.015940366 -0.017446646 0.014569714
-0.011384048 -0.020403957 -0.003938429 -0.0065092947 0.23389333 -0.014008079 0.015284938 0.017591156
0.013073195 -0.0011301948 0.063179 -0.007906153 -0.003398742 -0.053209476 0.10197632 0.009585773
-0.0075284834 0.007872555 -0.0094744535 -0.06891481 0.027948631 -0.007898465 0.03824149 0.017574375
-0.07163968 -0.007715231 0.04516763 0.015326923 -0.004291289 0.014679478 0.005746345 0.025331788
0.0337713 0.0052439873 -0.01998635 -0.1134884 0.0123018045 -0.013050112 -0.054767024 -0.16483413
0.001507872 -0.0063526626 0.057980414 0.012215067 -0.006183361 -0.029780496 -0.010548019 0.018417843
0.0021458194 -0.019744791 0.0004374095 -0.039794788 -0.02165899 -0.022652589 0.010647849 -0.00167114
0.0070896046 -0.011878499 -0.0053221695 -0.016110089 -0.018702738 0.11794906 0.02880526 -0.01147592
-0.11791311 0.007661115 -0.0014627225 0.023032721 -0.0031801222 0.02231259 0.0626718 -0.0044162828
0.12622647 -0.019348003 0.0003511278 -0.0068865446 -0.061145283 0.0049108984 -0.028077347 0.017178418
0.020201627 0.0009499968 0.0026453524 -0.005540206 0.02854842 0.2578874 0.011271301 0.009463433
0.010030503 0.020593613 0.028040804 0.01448651 0.0076735476 -0.0023088923 -0.0076996232 -0.017331382
-0.02862946 0.018234141 -0.021107037 -0.01311516 0.17268041 0.023833994 0.049616024 0.010228329
-0.00071252673 -0.007174824 0.10589136 -0.010055985 -0.010837858 0.0054100608 0.0025947732 0.0025625841
-0.01143371 0.0030079791 -0.011131049 -0.04399135 -0.002031365 -0.08124409 -0.007189603 0.064481765
-0.0012147502 0.01224811 -0.16038541 0.102280654 0.0076401434 -0.020795738 0.01734565 0.05076864
-0.014498868 -0.002528948 0.0038177848 0.015825246 0.008154163 0.02304807 -0.015559513 0.06587523
-0.0034894915 -0.026724089 -0.018250274 -0.01109547 0.038064945 0.01917758 0.00928592 -0.002009674
0.020745782 -0.006303131 0.009606388 -0.009608459 0.033143852 0.00841491 0.0026728527 0.02277984
-0.17696492 0.000700617 -0.00814039 0.0049305903 -0.0102446545 0.0431041 -0.006820132 -0.0028666703
-0.18151824 0.12699154 0.006680867 0.12401029 -0.010042974 0.14593138 0.026396563 -0.01483963
-0.008467844 0.014130067 0.0010719253 -0.01589683 0.0052443263 0.0068573053 0.030857557 0.108405344
-0.004387492 -0.019734373 -0.0132822795 -0.00038587424 -0.036012474 -0.008903851 -0.0029486094 0.07509301
-0.01424395 0.0046497867 -0.021001559 0.0047207046 -0.0071486663 0.0012194987 -0.007837327 -0.13758135
0.00027781367 -0.20407386 -0.14619279 0.0056785685 -0.11469869 -0.005246494 0.022909148 0.002810953
0.0013276171 -0.049758937 0.008091108 -0.0098688435 0.014860911 -0.07203347 0.17433254 -0.022869881
0.090639435 0.009822513 -0.017289622 -0.005686055 -0.04479193 0.020855779 -0.025053004 -0.05333505
-0.0984279 0.004872985 0.0027941973 0.006406717 0.00038839332 -0.006081549 -0.23302476 -0.01761366
-0.0011934467 0.007254791 0.019998966 -0.015333961 -0.014176313 -0.12144782 -0.014147201 0.030211786
-0.007966381 0.010805883 -0.010423192 -0.006367672 -0.008056941 -0.043817125 0.0056873346 -0.005131057
0.04638646 0.077837385 0.017172325 0.007760453 0.010578935 -0.010514426 -0.004015138 0.13668023

bn1.weight f4 [400]
00000000: 5d69 c33b 11ef 063f 011f b83e 5706 cd3e
00000010: 51f2 853e 58f8 3f3e a7c9 c03e 1075 d73e
00000020: 8af8 c03e 9b79 543e 5393 323e f76c fb3e
00000030: ed16 413e 2420 cc3e 916b 523c 09ac 413e
00000040: b5bf 9b3e 4a26 0a3f e089 ca3e 561e 063d
00000050: 0103 15b8 eaeb 1b3f 332a 103f fcf9 513f
00000060: bc5c a03e 056e 6a3e 3d4a 833e 2c6b 933e
00000070: a3c7 ee3e f326 cf3e 102d 943e dee8 013f
00000080: 3ce2 933e c400 393e 342e 8c3e 87a2 9a3e
00000090: bc32 e23a dcd6 0b3f 47db 883e 5d62 983e
000000a0: c591 7c3e 9252 0b3c 8a9d e43e eab3 863e
000000b0: 6b49 893e 6260 733e 0777 463e 6464 003f
000000c0: acd2 d03e c3af c03e c7a0 fe3d 276b 5c3d
000000d0: 22d0 fa3e 1c67 873e fc88 a53e 9c36 183e
000000e0: 08e3 8a3e 5053 a83e 1f90 573e 0db6 4f3f
000000f0: 0d51 b73e 3c71 233f 555f a93e 81b8 da3e
00000100: 8c8e 673c 2b47 aa3d 8c1c 033f 1ce9 c53e
00000110: 9c32 5b3f 4197 423d d19c cf3e 8133 103f
00000120: 12bd 9f3e 5f24 0a3d 2f3d a23e 6370 b13e
00000130: ac4b e23e d9ef 993e 3b89 d63e dfad 7a3b
00000140: 3d37 8b3e dff8 c73e a663 123f a79a 4d3e
00000150: 4483 cd3e def6 4f3e f7c1 ba3e 1e7b a93e
00000160: bf5a f53c e17c 5e3e 1dcc c93d 9d3e ed3d
00000170: e775 c43d e0e9 323f ef3b 643d 8f21 e53e
00000180: 9377 c53c 9cd1 bc3e c824 933e 72d7 9c3e
00000190: 0b97 923e 2851 dc3b 4783 083f 4f1f 9b3e
000001a0: 858b 143c 5e08 df3e c363 053f f392 603f
000001b0: 0b47 c73e 9f17 c13e 6eab b33e 0596 963e
000001c0: e443 b33e 268b 863e c4b1 953e b292 213e
000001d0: 7543 b13e a7e8 a43e 66a7 6e3e e6ca c23d
000001e0: 5ca5 8e3e 6042 023f cb75 433c 757c 103f
000001f0: 55f6 583e 21b5 2d3f 8bd8 b93e 68a0 9e3e
00000200: 4bb1 0f3f 946e 083f f137 1f3c 7e3f 753b
00000210: b20f a53e 05ee 9c3e 765f a53e 2f55 933e
00000220: de4b 883d bc9d fc3c a440 343f 413b 883e
00000230: fd26 343e 3eaf 1d3f f113 0f3f cdde ce3e
00000240: be86 a53e 86d5 d13e ef61 133e 340c c83e
00000250: d6d8 1d3e 2faa a93e 2635 043d 2e22 2c3f
00000260: 153b c73e a542 cf3e 17cb bf3e eb87 a93e
00000270: 5627 d13e d5be 833e 37db 8c3e c78f 8c3e
00000280: 773d 9d3d f118 dc3e a73a 303f c36c a63e
00000290: 4885 d43e 2e6d b03e cff9 963e 1978 a83e
000002a0: 4f47 a53e 4db3 9f3e b1a3 193e ef4c 453f
000002b0: 2090 273e 5b79 b33e a992 c73e ca02 3c3f
000002c0: 9054 d03e f545 e73e bd0f c33e f537 943e
000002d0: e4d9 c23e 2cff 073f e86d 753e 1ed1 893e
000002e0: fe3c af3e 46c4 093f bcee 8a3e c38b be3e
000002f0: 743e 663e 5a72 143d f6ce 5e3e cbe7 cd3c
00000300: 585a 923e 8436 b93e 11bd af3e 58f2 a43e
00000310: d58f bc3e ce7a b23e dea1 a93e 8e7d c23e
00000320: 47da 8f3e 707a 9e3e 3493 893e a465 5f3e
00000330: 16c7 2f3f 078e 843e b539 383e a9c1 243f
00000340: 7673 663f 3076 643e 7b93 f13e 0942 ae3e
00000350: 1331 943e 97d6 ac3e dc25 0e3e 0e0f ce3e
00000360: 7c72 dd3e 4ffc 9d3f c02a bd3e a425 b13e
00000370: bbef 8b3e fde8 a53e 11e9 023d f10b 133f
00000380: 1787 143f 3a66 da3d e4e6 d73e e91e 8e3e
00000390: 1748 123f ade7 943e b3cc b93e 889b 013f
000003a0: fcec 143f 6ba8 533c 6a50 833e 1f70 0c3d
000003b0: 1324 a73e dd4a 543d 5d73 603f 4212 813e
000003c0: d708 ab3e 801c d73e 50a3 9b3e 2757 c13e
000003d0: 0a01 a23e e9fb 113f 8da6 873e 0dd4 883e
000003e0: fee9 b73e f0f6 bc3e 0812 9f3e c9e2 a53e
000003f0: 7b15 793e 0fdf 883e 520b 123f 8d7d c53e
0.005963488 0.52708536 0.35961154 0.400439 0.26161435 0.1874708 0.3765385 0.420815
0.3768962 0.20749514 0.17439012 0.4910657 0.18856402 0.3986827 0.012843029 0.18913282
0.30419698 0.53964674 0.39558315 0.032743774 -3.5527166e-05 0.6090685 0.5631439 0.8202207
0.3132075 0.22893532 0.25642577 0.28792703 0.46636686 0.40459403 0.2894063 0.5074595
0.2888354 0.18066698 0.27379 0.30202124 0.0017257552 0.54624724 0.26729795 0.29762545
0.24664982 0.008503573 0.44651443 0.2630914 0.26813826 0.23767236 0.19381343 0.50153184
0.4078573 0.37634096 0.124330096 0.053813126 0.48986918 0.26445854 0.32331073 0.14864582
0.27126336 0.32876062 0.21051072 0.8113716 0.35804024 0.63844657 0.33080545 0.4271889
0.014133107 0.083143555 0.51215434 0.3865441 0.856241 0.04750753 0.4054933 0.5632859
0.31198937 0.033726092 0.31687304 0.34656057 0.44198358 0.30065802 0.41901574 0.0038250608
0.2719058 0.3905706 0.571833 0.20078526 0.4013921 0.20309016 0.36476108 0.33101743
0.029950498 0.21727325 0.09853385 0.11584208 0.095928006 0.69888115 0.05572122 0.44752166
0.024104869 0.3687867 0.28739 0.30633122 0.28630862 0.0067235418 0.53325313 0.30297324
0.009066467 0.4356107 0.5210535 0.87724227 0.3892139 0.37713334 0.35091728 0.2941133
0.35012734 0.26278037 0.29237187 0.15778616 0.34621778 0.3220875 0.23306045 0.09511356
0.27860534 0.5088253 0.0119299395 0.56439906 0.21187718 0.67854506 0.36298022 0.30981755
0.561299 0.5329373 0.009717927 0.0037421877 0.32238537 0.30650344 0.32299393 0.28775927
0.066550955 0.030836932 0.70411134 0.26607707 0.17592998 0.61595523 0.55889803 0.40404359
0.32329363 0.40983218 0.14392827 0.3907181 0.15414748 0.33137652 0.03227725 0.67239654
0.38912264 0.40480533 0.37459633 0.3311151 0.40850323 0.2573153 0.27510998 0.27453443
0.07677739 0.4298778 0.68839496 0.32504854 0.41507936 0.34458297 0.29487464 0.32904127
0.32280967 0.31191483 0.1500385 0.77070516 0.16363573 0.35053524 0.3897908 0.73441756
0.40689516 0.4517056 0.38097945 0.28948942 0.38056862 0.53123736 0.23967707 0.26917356
0.3422622 0.53815114 0.27135265 0.37216005 0.22484761 0.036241867 0.21758637 0.025134942
0.28584552 0.36174405 0.34323934 0.32216144 0.36828485 0.34859318 0.33131307 0.37986416
0.2809622 0.30952787 0.2687012 0.21816117 0.68663156 0.25889608 0.17990763 0.64358
0.9001993 0.2231071 0.4718283 0.34034756 0.2894369 0.3375747 0.1388163 0.4024586
0.43251407 1.2342623 0.36946678 0.3459903 0.27331337 0.32404318 0.03196055 0.57440096
0.5801863 0.106640294 0.42168343 0.27757958 0.5714125 0.29083005 0.36288986 0.50627947
0.5817411 0.012918572 0.2564729 0.034286615 0.3264471 0.051829208 0.8767603 0.25209242
0.33405182 0.4201393 0.30398035 0.37761804 0.31641418 0.5702501 0.26494256 0.26724282
0.3592071 0.36907148 0.31068444 0.32399586 0.243246 0.2673268 0.57048523 0.3857235

bn1.bias f4 [400]
00000000: 6e00 4bbd eeab 27bf dd2d 38bf 328f 30bf
00000010: fa4e 8bbe 08f9 40be 3ef9 b1be 4305 3bbf
00000020: c941 d7be da69 42be 1870 ffbd c48c c1bc
00000030: af16 07bf 7e10 6bbe 14ca c6bd 2466 20be
00000040: e6d8 f6be ab72 2abe 32b4 3ebe d764 e7bd
00000050: d8db 5ebb 2684 0b3e c26d 75bf d14d 2ebf
00000060: 1c54 f2be 17f3 55be 7ddd 65be 38a9 37be
00000070: 6fa4 fbbe 8f13 36bf 9e00 e0be f7c4 9abe
00000080: a1d3 a7be 86ec ccbe 212a 09bf adcc 82be
00000090: 948f 29bc 1083 07bf f9f7 0dbf 7ab8 d9be
000000a0: e920 96be 4d9b 2fbd bffc 39bf cf70 49bf
000000b0: 9d98 cebd 83b0 ffbe d96d 41be b9e4 40be
000000c0: 1caa febe c544 12bf 0aa7 d2bd fe83 99be
000000d0: 4096 95be 702e 80be b5e5 21bf e824 bebd
000000e0: 9b27 91be 9af4 e3be 9fc0 88be b1dd 75be
000000f0: 62cf c0be cc7f 6abf 6114 9ebe 7c75 aabe
00000100: b7cb 51bd 364d b0be 6931 d6be 4a24 f5bd
00000110: bbe2 93be 7f0e 43be 5874 49bf a6d2 32bf
00000120: 01ee 8abe 10b1 06be 31d0 43bf 073e ddbe
00000130: 7bc2 12bf df89 a8be 3480 20bf 7531 82bd
00000140: fe6e 4abe fbb3 e2be 8be2 3abf a471 ddbe
00000150: 22d2 08bf c8bd e0bd 0fe2 27bf 7058 9ebe
00000160: 55df 07be bf1b cbbe 5d3a d9be 4f00 17bd
00000170: 37d6 dfbc 9ed0 91be bb26 67be 6ff5 5cbf
00000180: 6664 07be c319 60bf 28e8 12bf 9604 e8be
00000190: 8fee a5be 19d2 a7bd 0fa3 cabe e1ab c6be
000001a0: abfd 6cbd 9068 d9be f266 2cbf 8f84 04bf
000001b0: 7979 8abe 7fca 97be 31a0 bdbe 2955 c9be
000001c0: 6a50 06bf 971e 97bd 7806 c2be ea31 1fbe
000001d0: 84d9 1bbf 55fb 36bf 8fe0 c9be f152 c4be
000001e0: 7206 1dbf caf6 25bf 58d8 72bd e309 02bf
000001f0: 120f 12be 71a4 3dbf 5403 e1be 9aa8 b0be
00000200: 2ffe 2dbe 4157 d4be 98f6 f4bd e497 4fbd
00000210: 0236 efbe a2a5 d8be 72ea f6be 3473 49bf
00000220: e09c a4be 78a6 13be a9f3 27bf b976 d5be
00000230: 56e6 f9be 043d 41bf eea5 b2be 01bb 5fbe
00000240: 82cc 91be a3ee 0dbf b8b9 1abe 9e80 1ebf
00000250: c6bb 30bd 4fd7 d8be f094 37be a629 01bf
00000260: 6780 0ebf 4135 01bf 0dda afbe e396 f2be
00000270: fe8f 36bf d26c 9bbe 5251 32be ee2a 5ebe
00000280: 2ce0 a1be 8f26 01bf 3d9a 6dbe eb54 a8be
00000290: 6893 31bf b3b1 07bf b55e 02bf 6201 15bf
000002a0: 62f4 3abf e3e0 7cbe aff4 bebd 0bf4 1bbe
000002b0: 53c3 a2bd ea55 e8be 0513 02bf 0390 043d
000002c0: 8d2f debe b84e 34bf 4392 8dbe 00f5 dbbe
000002d0: 6ad4 2abf dd8f 54bf 7ce8 54be ef52 75be
000002e0: 3507 ecbe 2634 68bf b199 14bf d37c 14bf
000002f0: d0be afbe 15d5 27be 3ba2 29be 0370 07be
00000300: e0a7 dbbe 7273 c3be 6fa3 e7be e0e5 d9be
00000310: 55ec 31be 0bf3 7ebd e804 20bf 6db8 97be
00000320: f5bd aabe 6390 ffbe f052 cbbe 994b 66be
00000330: 343a ffbe 35bd 78be ad0f d6bd 5fec 05bf
00000340: e118 8abe 0168 d6be 9255 4dbd c320 26bf
00000350: 8d1f dcbe 5ffe 0abf 0926 b9bc 1243 1cbf
00000360: 757a 35bf 5eee 283d 1e7a 35bf 01e4 28bf
00000370: bd36 81be eba1 f9be 32c2 67be b79a 0cbf
00000380: a871 2ebf 2f2e 1dbb 1450 c9be f6e6 1abf
00000390: c291 7cbf 5c2c b0be fa6e adbe cfd3 1bbf
000003a0: b4ca 39bf e4b9 8bbd 167c efbe 7003 2bbe
000003b0: 77ba 17be a729 79be c816 0ebf 7df6 b6be
000003c0: f34d 01bf 499e 9bbe 9dcb a1be 24d8 00bf
000003d0: fd24 d1be 564f 4dbf 703b 10bf f619 23be
000003e0: dfb7 f8be a1e0 b6be 4750 b5be 2c00 02bf
000003f0: 4a86 29be 8805 09bf bd93 1bbe 3f89 cfbe
-0.049560957 -0.6549672 -0.7194498 -0.689685 -0.27208692 -0.18844998 -0.3476047 -0.73054904
-0.42042378 -0.18985692 -0.12472552 -0.023626693 -0.5276899 -0.2295551 -0.09706512 -0.15663964
-0.48212355 -0.16645305 -0.18623427 -0.112985305 -0.0034005549 0.1362463 -0.958706 -0.6808749
-0.47329795 -0.20893513 -0.22447772 -0.17935646 -0.4914889 -0.71123594 -0.4375047 -0.30228397
-0.32778648 -0.40024203 -0.5357991 -0.2554678 -0.010349173 -0.5293436 -0.554565 -0.42523557
-0.29321983 -0.042872716 -0.72651285 -0.7868776 -0.100877024 -0.49939355 -0.1888956 -0.18837251
-0.49739158 -0.57136184 -0.102857664 -0.29983515 -0.29216194 -0.2503543 -0.6324113 -0.09284383
-0.2835053 -0.44522554 -0.26709458 -0.2401035 -0.3765822 -0.9160125 -0.30874923 -0.33292758
-0.05121967 -0.34433907 -0.41834572 -0.11969812 -0.2888392 -0.19048499 -0.7869315 -0.69852674
-0.27134708 -0.13153481 -0.7648955 -0.43211386 -0.57328004 -0.32917687 -0.6269562 -0.063570894
-0.19768903 -0.4427794 -0.7300193 -0.43250763 -0.5344564 -0.10973698 -0.65579313 -0.30926847
-0.13268788 -0.39669606 -0.4242734 -0.03686553 -0.027323825 -0.28479475 -0.22573368 -0.86312
-0.13221893 -0.8753931 -0.5738549 -0.45316 -0.32408568 -0.0819437 -0.3957753 -0.38803008
-0.057859104 -0.42462587 -0.6734458 -0.5176477 -0.270458 -0.2964668 -0.3703628 -0.39322785
-0.5246645 -0.073788814 -0.3789556 -0.15546384 -0.6087878 -0.7147725 -0.39429137 -0.3834453
-0.6133796 -0.64829695 -0.059288353 -0.50796336 -0.14263561 -0.7407904 -0.43947852 -0.34503633
-0.16991495 -0.4147282 -0.119610965 -0.050681964 -0.46720892 -0.42313868 -0.48225743 -0.7869141
-0.32150936 -0.14418972 -0.6560617 -0.4169214 -0.48808545 -0.7548373 -0.3489222 -0.2184868
-0.2847634 -0.55442256 -0.15109909 -0.61915004 -0.043147825 -0.42351767 -0.17927909 -0.50454175
-0.55664676 -0.50471884 -0.34346047 -0.47380742 -0.71313465 -0.3035646 -0.17413834 -0.21696064
-0.31616342 -0.5044946 -0.23203368 -0.32877287 -0.6936555 -0.5300552 -0.5092576 -0.58205235
-0.7302915 -0.24695162 -0.093240134 -0.15229814 -0.079474114 -0.45378047 -0.5081027 0.032363903
-0.43395653 -0.70432615 -0.2765065 -0.42960358 -0.6673037 -0.8303202 -0.20791811 -0.23957418
-0.4609925 -0.9070457 -0.58047014 -0.58002967 -0.34325266 -0.16389878 -0.16565792 -0.13226323
-0.42901516 -0.38174015 -0.45241877 -0.42558193 -0.1737531 -0.062243503 -0.62507486 -0.29632893
-0.3334805 -0.49914846 -0.39711714 -0.22489776 -0.49849093 -0.24290927 -0.10452209 -0.523138
-0.26972106 -0.41876224 -0.050130434 -0.6489374 -0.4299282 -0.5429439 -0.022601144 -0.6103984
-0.7088998 0.04124295 -0.7088946 -0.65972906 -0.25237074 -0.48756346 -0.22632673 -0.54923576
-0.68142176 -0.0023983826 -0.39318907 -0.6050867 -0.9865991 -0.34408844 -0.3387373 -0.6087007
-0.72574925 -0.06822565 -0.46774358 -0.1670053 -0.14817224 -0.24332295 -0.5550351 -0.3573493
-0.50509566 -0.303942 -0.31600657 -0.50329804 -0.40848532 -0.8019918 -0.56340694 -0.15927872
-0.48577783 -0.35718253 -0.3541281 -0.5078151 -0.16555133 -0.53524065 -0.15193076 -0.40534398

bn1.running_mean f4 [400]
00000000: 195a 9c3e a563 72c1 76ae c7c0 d841 13c1
00000010: ab03 b840 5b98 0bc1 bd78 ccbf da8b 6941
00000020: 1f81 bcc1 083e a5c1 4cf2 ebc0 34ac 2241
00000030: 2bc1 f83f b706 9fc0 99ff 94be dce2 63c0
00000040: e3eb c2c0 ae92 1941 693c f640 3637 1240
00000050: 7d05 bfbe f6a4 0abf af2d 8fc0 1abf 0e40
00000060: 891f 7f41 c7de ba41 2cab 87c1 a043 d340
00000070: a793 c440 4610 923d 6a8c 1940 1281 b2c0
00000080: c788 39c1 ca51 87c1 d572 94c1 bed7 70c1
00000090: 022e 3d3d 20e3 8f40 6d38 3fc1 7dc2 8441
000000a0: 5750 f440 40a5 0dbf 902a 12c1 d088 0c41
000000b0: 5919 1b40 f102 84c0 64d8 a240 a65a 97c0
000000c0: cc6c b940 d45b 4bc1 bb76 a140 2295 ad40
000000d0: 5d1a 4141 e694 a3c0 aa76 8540 b19c 7441
000000e0: 7c9e db40 bf2c 5841 3cc9 8340 a21e 883e
000000f0: 78d3 8241 4a83 6cc1 a98d 5041 61f0 ea3f
00000100: 0296 a0be 907d a240 c2c0 2d41 0914 2641
00000110: a7ee 0540 85aa a23f 10cb d8c0 282c 8940
00000120: 9fc6 0f3f 11f1 5240 95cb c3c0 89df 5241
00000130: 8a3b a33e 8081 58c1 2697 2b41 45b1 613f
00000140: 784c 4341 85cf 94c0 bdd7 ce40 2b28 f1c0
00000150: 3ffa 3440 350f fb40 d43e c640 6d11 2840
00000160: 8263 35bf e1a6 d440 8aef fdbf fea3 4f41
00000170: dbea 62c1 420a 5e40 21d6 57bf fb1e d640
00000180: 8ecc d43f 04d6 04c1 c929 97c0 c027 ef40
00000190: 6141 8d41 031d 06c0 a5a7 e240 dda8 9141
000001a0: 1db4 ad3f e9a9 613f 152b 3ec1 8ce1 a640
000001b0: 0aeb 80c1 af3d 9141 e569 30c1 fde4 00c1
000001c0: 78b5 3d41 21d4 13c0 8c4a a1bf 8379 b2c1
000001d0: 9afc 343f 7282 65c0 015b 86c1 4a82 f23f
000001e0: 38dc 66c1 49cf b93f cf04 483f 252a 2641
000001f0: e612 11c1 9b00 ac40 68e4 1441 a85d 973f
00000200: 2582 5440 7d6e f23e e083 253f 47ef 153f
00000210: 3e88 7e40 ca47 19c1 988d 10c1 c81e 87c1
00000220: ecbd 6540 b08d 343e 8aaf 7ec0 c33b 6741
00000230: 3f55 cbc0 69a2 9040 02c4 66be f6e2 0941
00000240: d9ca 90bf b17c 0141 567c 2341 1a88 f340
00000250: bd36 07c1 cd6e c7bf 49a7 7c40 8db8 2ac1
00000260: 79bc 9e41 7421 59c1 981c cc3d dfaf 0ac0
00000270: 5164 a640 0869 d940 21c2 b140 b19e 59bf
00000280: 28ad 4b3f 9437 f8c0 9e1a 14be 0ba7 a340
00000290: a245 acc0 381f 65c1 214f ccc0 b3d1 0940
000002a0: ebd5 31c1 0530 bec0 b963 cbc0 fbc6 2240
000002b0: 4171 0141 a75c 333f 9fa0 1f41 abd9 3e40
000002c0: dc07 39c1 d351 9e41 fcbb e740 d0e6 ccc0
000002d0: 2145 51c1 155f aa40 efaa 093f 5ed0 f93f
000002e0: 932d 1141 e476 0741 d7a2 6ac1 7c23 dc40
000002f0: f068 7dc1 fa6f 30c0 89b6 e7c0 9544 3b3f
00000300: 6fa1 16c1 2892 1241 66f9 493f 177a 25c1
00000310: ae49 1e3f 36ea c241 4eac 39c1 c589 1641
00000320: 4719 e640 6231 29c1 e446 00c1 9875 e740
00000330: 2936 a8c1 d606 8bc1 9273 403e a6c4 e03e
00000340: a47d 833e 999c 0541 95e2 b740 88b9 d140
00000350: c8c9 6fc1 3367 05bf 46a1 be3f 3833 b7c0
00000360: 8647 4740 93d0 aabf 531d 6140 c7bd 4140
00000370: f546 5a41 a48a 5d41 c27a 16be 6fa7 333f
00000380: 2f47 d53f 0c32 fe3f eeae 833f fd77 86bd
00000390: 6b69 7241 9209 a1bf c0eb b040 bc87 7141
000003a0: 02df 36bf 00a2 fabe 6b92 15c1 b314 00bf
000003b0: 5dac 90c1 37a3 9640 5ac4 0dbf aa3b 6841
000003c0: a977 06bf 627c 02c0 81c2 7a41 e2e1 16c1
000003d0: f5c7 8dc1 066f 6f40 d912 04c1 3e0f e040
000003e0: f086 50c0 0d8c 3dc0 1bcb e13e 9e69 4341
000003f0: e666 85c0 61d1 f5c0 4773 ca3f c199 8141
0.3053749 -15.149327 -6.2400465 -9.203575 5.7504478 -8.724696 -1.5974346 14.596643
-23.563047 -20.655289 -7.3733273 10.167042 1.943395 -4.9695697 -0.29101256 -3.5607214
-6.091295 9.59831 7.6948743 2.2846198 -0.37308875 -0.5415796 -4.4743266 2.230414
15.945199 23.358778 -16.95858 6.602005 6.143024 0.0713201 2.3991952 -5.5782557
-11.595893 -16.914936 -18.55607 -15.052671 0.046186455 4.496475 -11.951276 16.594965
7.634807 -0.55330276 -9.135391 8.7834015 2.423422 -4.125359 5.088915 -4.7298155
5.794531 -12.709919 5.0457435 5.4244547 12.068936 -5.111926 4.1707354 15.288255
6.863096 13.510924 4.1183147 0.2658587 16.353256 -14.782053 13.034585 1.8354608
-0.31364447 5.0778275 10.85956 10.379891 2.0926912 1.2708288 -6.774788 4.28664
0.56162447 3.2959635 -6.1186013 13.179574 0.31881362 -13.531616 10.724401 0.88161117
12.206169 -4.650332 6.4638352 -7.5361533 2.8277738 7.8456063 6.1951694 2.6260636
-0.7085496 6.645371 -1.9838727 12.977537 -14.182338 3.469376 -0.8431111 6.691282
1.6624925 -8.30225 -4.7238507 7.4736023 17.656923 -2.0955207 7.0829644 18.207453
1.3570591 0.8814989 -11.885518 5.2150326 -16.114765 18.155119 -11.025853 -8.055905
11.856804 -2.3098223 -1.2600875 -22.309332 0.7069794 -3.5860868 -16.794436 1.8946011
-14.428764 1.4516383 0.7813234 10.385289 -9.067114 5.375074 9.305763 1.1825457
3.3204434 0.4734992 0.6465435 0.58568233 3.9770656 -9.580027 -9.034569 -16.89003
3.589717 0.17632174 -3.979464 14.45209 -6.354156 4.5198255 -0.22535709 8.61791
-1.1311904 8.092942 10.217855 7.610364 -8.450864 -1.5580689 3.9477103 -10.670056
19.842028 -13.570667 0.09966391 -2.1669843 5.1997457 6.794071 5.5549474 -0.8500777
0.7956109 -7.7567844 -0.14463279 5.114141 -5.3835 -14.320122 -6.3846593 2.153424
-11.114726 -5.9433618 -6.355923 2.5433948 8.09015 0.7006325 9.976714 2.9820354
-11.564419 19.789953 7.2416973 -6.4031754 -13.079377 5.3241067 0.5377645 1.9516714
9.0736265 8.466526 -14.664756 6.8793316 -15.8381195 -2.7568345 -7.241032 0.7315152
-9.4144125 9.160683 0.78896177 -10.342307 0.61831176 24.36436 -11.604567 9.408635
7.1905856 -10.574556 -8.017307 7.2331047 -21.026445 -17.378338 0.18794087 0.4390003
0.25681794 8.350732 5.746409 6.553898 -14.986763 -0.52110595 1.4892967 -5.7250023
3.1137404 -1.3344902 3.5174148 3.027208 13.6423235 13.846348 -0.14695266 0.7017736
1.6662349 1.9859023 1.0287759 -0.06565855 15.150737 -1.2581046 5.528778 15.095638
-0.7143403 -0.4895172 -9.348247 -0.50031585 -18.084162 4.7074237 -0.55377734 14.514566
-0.52526337 -2.0388417 15.672486 -9.430147 -17.722635 3.7411513 -8.2546015 7.0018606
-3.258236 -2.961673 0.4410027 12.213285 -4.168811 -7.681809 1.581643 16.200075
