two agent related files/checkpoint_actor_1.pth (torch_old, 524613 bytes, 6 tensors)

fc1.weight f4 [400, 24]
000000 0b ad 03 3c b7 ec 37 bd b9 fe ff bb 2b 77 fb 3c
       0.008036862 -0.044903483 -0.0078123477 0.030696472
000010 ca 93 48 3d 2a 40 d6 bd bb da 5e bc 12 7b 32 3d
       0.048969068 -0.10461457 -0.013601954 0.0435744
000020 5b b2 12 3c ab 9f 38 bd 20 26 8c 3c 40 c6 58 bd
       0.008953656 -0.045074146 0.017108023 -0.05292344
000030 ba 94 8b 3b 10 d8 e1 bd ab 17 e4 3c 0a 0a 3f bd
       0.004259673 -0.11027539 0.027843317 -0.046640433
000040 79 b3 82 3d 0f 72 c0 ba f3 93 54 3d 13 af 16 be
       0.06381888 -0.001468243 0.051898908 -0.14715223
000050 b3 0c 5a 3d 3b e1 1a bc 0e 31 31 3d 3a 9d c5 bd
       0.053234767 -0.009453113 0.043259673 -0.09649129
000060 b8 c6 9b bd d2 d5 87 bd 5a 2b 58 bd f2 41 23 3e
       -0.07606262 -0.0663258 -0.05277572 0.15943125
000070 e7 14 a2 bd bf e0 4b bd 5a 4e 9a bc e9 28 6a 3e
       -0.07914143 -0.04977488 -0.018836189 0.22867168
000080 67 d3 c9 bc dd 8d 5c bd f1 e5 b1 3c 6e fe de 3d
       -0.024636937 -0.05384623 0.02171609 0.10888372
000090 8f 53 ac 3c 95 ba 00 be 9b 02 05 bd ca f3 21 3d
       0.021035938 -0.12571175 -0.032473188 0.039539136
0000a0 23 c6 0e 3c 25 cd b8 bd e8 e9 07 bd 3b 96 00 3d
       0.008714232 -0.09023503 -0.033182055 0.03139327
0000b0 53 55 09 3e d3 9b 18 be 9a 49 24 3d 9d ea 89 3c
       0.13411455 -0.14903192 0.040109254 0.016835505
0000c0 0b 97 e4 3c 8a bb 07 bd 15 a8 3c bd 5a 7f b0 bd
       0.027904054 -0.033137836 -0.046058733 -0.086180404
0000d0 bf ca ae bc e6 26 9a 3c bd 7a d4 3c 2c b8 45 bd
       -0.021336911 0.018817376 0.025937432 -0.048271343
0000e0 44 a4 7b 3d f7 c2 57 bd 99 83 1b bc 80 83 26 bd
       0.061435953 -0.052676167 -0.009491825 -0.040652752
0000f0 46 7f 04 3d 40 66 9f 3d 6d 05 11 bc ea 2c fc bc
       0.03234794 0.077831745 -0.008851391 -0.030783135
000100 04 75 77 3c 68 7f 48 bd 8e bd 3b bc 19 31 06 be
       0.015103582 -0.04894963 -0.011458768 -0.13104667
000110 8d 86 51 bc 4b 6f 1e 3e e9 0b e6 bc c2 b6 c6 bd
       -0.012788427 0.15472142 -0.028081851 -0.09702827
000120 ab a4 89 3c 8a 6d 7d 3d 2c cc 04 3d 96 b3 ba 3d
       0.016802153 0.061872043 0.032421276 0.091162845
000130 6e 85 25 3d 1b d0 27 be 0e c2 da bb 77 50 29 3d
       0.04041045 -0.1638798 -0.006675965 0.041336503
000140 d0 29 c7 3b fb af c4 3d 76 27 29 ba c4 af 90 bc
       0.0060779825 0.09603878 -0.00064527185 -0.017661937
000150 36 e7 0e 3b 2a 7e 0a be b8 d2 bc 3c fc d3 3e 3b
       0.0021805293 -0.1352469 0.023049697 0.0029118052
000160 43 8c 07 3d 36 19 ad 3d 0e 3e 0f 3c d3 16 de bd
       0.03309275 0.08452074 0.008742822 -0.10844197
000170 6a bd 1f 3d f1 2e d7 bb 3a 39 83 bd 71 59 de bd
       0.038999 -0.006566875 -0.064073995 -0.10856903
000180 8e ad 57 bc f1 c0 08 bd f2 2f 13 3d 6e b8 e5 bd
       -0.013163937 -0.03338713 0.035934396 -0.11216818
000190 91 7f f2 b9 17 45 cf 3b cd c5 96 3c 0f 6e ce bd
       -0.0004625288 0.006325375 0.018404866 -0.10079586
0001a0 c8 38 03 3d 4d 04 5d bc 4c a5 01 bd 7f 83 bd bb
       0.032036573 -0.013489795 -0.03165178 -0.005783498
0001b0 57 5f be ba 11 ff bb 3c c9 db ce 3c 86 86 a3 bd
       -0.0014524263 0.022948774 0.025251286 -0.07984643
0001c0 ce 55 9e 3d 80 55 59 3d 99 2d 15 3c a6 ae 9d 3c
       0.0773121 0.053060055 0.00910511 0.019248318
0001d0 82 cd 99 bd d5 31 b3 bd ed 34 3a bb 4b d3 ab 3c
       -0.07509901 -0.08749739 -0.0028412894 0.020974776
0001e0 95 fe f4 3d e7 2f de 3d ce 0b c6 bc 6e 79 29 3e
       0.1196262 0.108489804 -0.02417555 0.16550228
0001f0 7a 74 72 bd b6 76 13 bb 8b 02 ea bb 2f 7d 22 3e
       -0.059193112 -0.0022501177 -0.0071414164 0.15868066
000200 8a a5 14 3e 6c 94 fd 3d 72 ca 62 ba 4f 6a f5 3c
       0.14516273 0.12381825 -0.00086513825 0.029957918
000210 da 06 ee bc 74 02 68 bd 80 3e 03 3d d2 d7 d6 3d
       -0.029056001 -0.056642964 0.032042027 0.10490383
000220 32 a6 ab 3c 89 d7 5e 3d 1e 03 17 bd 81 7e 10 3d
       0.020953272 0.05440477 -0.036868207 0.035276894
000230 60 d2 96 3d 92 c6 1d bd f1 7d 52 bd b5 cf bc bc
       0.073643446 -0.03851945 -0.05138964 -0.023048261
000240 dc 27 85 bd e7 cd 39 3e 4e 95 30 bb a3 f7 9d bd
       -0.06501743 0.18144952 -0.0026944461 -0.077132486
000250 d1 61 06 be 76 58 d0 3c 5f 48 7d bc 7d 8f 9a bd
       -0.13123251 0.025432806 -0.015459149 -0.075468995
000260 7f 4c f0 bc ad 5e ff 3d bb c3 24 3b 3b 92 87 bd
       -0.029333351 0.1246923 0.0025141079 -0.06619688
000270 79 bc 3d bd 27 c3 97 3c dc 58 a8 bc a6 85 52 bc
       -0.04632232 0.018525673 -0.020550184 -0.012849247
000280 d7 07 09 3c 1f 21 4f 3e 93 05 8f bb 04 39 6a bc
       0.008363686 0.20227478 -0.004364678 -0.01429582
000290 89 b8 fb bb eb 6e d4 3d 95 62 4b bc 07 92 77 bd
       -0.0076819104 0.103727184 -0.0124136405 -0.060441997
0002a0 8a 5a 05 bd cb 60 75 3c cd 0f 07 3d a2 c8 a4 bc
       -0.032557048 0.0149766905 0.032974053 -0.0201152
0002b0 4b 78 66 bb e0 2c f9 3d c4 de 13 bd 9b 9d 34 3c
       -0.0035166915 0.12166762 -0.036101118 0.011023904
0002c0 e0 e7 2e bd 88 43 de 3c d9 ed 69 bc 75 80 a0 bc
       -0.042701602 0.02713181 -0.014277899 -0.019592503
0002d0 dc e1 fe 3a 9d 82 61 bd b0 e9 4e 3c 12 14 0b bc
       0.0019445973 -0.055056203 0.012628958 -0.008488672
0002e0 56 e9 95 bc 24 e7 05 bd b0 0e fd bc 8c b9 02 3c
       -0.01829974 -0.032691136 -0.030890793 0.007978808
0002f0 6d c7 38 3d ee 0e c9 be 4a 50 8b 3b 1d 7c aa 3c
       0.045112062 -0.39269203 0.0042515146 0.020811135
000300 43 42 81 3c 12 fc 87 bd b4 d1 3e b9 ad 08 c6 bd
       0.015778666 -0.066398755 -0.00018197933 -0.096696235
000310 d9 f1 f9 bc 09 24 a9 bd a8 f9 03 bc f6 6f d9 bd
       -0.03051083 -0.08258826 -0.008055128 -0.10617058
000320 7b 34 89 3c 8f 09 8d bd 6e de a3 3c 74 63 d1 3c
       0.016748657 -0.06886589 0.020003524 0.025560118
000330 ce 7a ca bc 41 69 a2 bb b5 94 50 bd df 0e 5a 3d
       -0.024716761 -0.004956395 -0.050923068 0.05323684
000340 8a f9 b7 3c 69 59 e5 bd d1 dd 08 39 62 07 8a 3b
       0.022457857 -0.11198694 0.00013052604 0.004212306
000350 fa 19 96 3d cb 50 25 3e e6 99 4f bd b6 07 45 3d
       0.073291734 0.16144101 -0.05068388 0.048103057
000360 4a a4 20 bb 33 3c c4 bc 50 da 2f bc 98 d8 4c bd
       -0.0024511986 -0.023954486 -0.010733202 -0.050011247
000370 9e 2a 05 bd 7e a1 06 bd 24 ce f1 3b 8b 8a 02 be
       -0.032511346 -0.032868855 0.00737931 -0.12748162
000380 e7 3b 5f 3c e8 61 0f bd 8b 9a e0 bb bf ff d8 bd
       0.013625122 -0.03500548 -0.0068543605 -0.10595655
000390 a5 43 0d bd 8b bc cf bd 96 78 17 bd 5c 47 6d bd
       -0.03448834 -0.101433836 -0.036980234 -0.05792938
0003a0 70 48 64 3d 19 58 64 3d c4 d9 d4 3c 7a 1a 94 bd
       0.055733144 0.05574808 0.025982745 -0.072316125
0003b0 d1 bf af bd 61 fe 80 3c c2 bc 44 3d 96 12 a0 bd
       -0.08581508 0.015746297 0.048031576 -0.07816045
0003c0 10 da 2f bd 93 0b cb bc ce cf 48 3d 1e f6 ba 3d
       -0.04293257 -0.024785792 0.049026303 0.091289744
0003d0 15 c1 47 3c 13 17 18 3e b9 8a 95 bc d2 c1 d8 3d
       0.01219203 0.14852552 -0.018254625 0.10583843
0003e0 51 b0 23 3c 29 72 a9 bc e4 a5 98 bb d6 4d 01 bd
       0.009990768 -0.020684319 -0.0046584476 -0.03156837
0003f0 e3 7c e4 bc db 01 b9 bc 9e d0 31 3c 69 7d 05 3d
       -0.027891582 -0.022583893 0.010852961 0.032590304

fc1.bias f4 [400]
000000 f3 02 32 bd 54 c2 3e 3d 05 cd 39 3e 9a 77 f2 bc
       -0.043459844 0.046572044 0.18144615 -0.029598046
000010 f0 d5 d6 3d 19 cf 39 be 43 cc 4a be 96 1b 2a 3e
       0.10490024 -0.18145408 -0.19804482 0.16612086
000020 d0 b3 32 3e c0 68 6b 3c 50 06 4a 3e a6 6d db 3d
       0.17451406 0.014368236 0.1972897 0.10714273
000030 23 4e d6 bd 29 9c a9 3d 95 c2 a8 bd 1f 12 80 be
       -0.10464122 0.08281738 -0.082402386 -0.25013825
000040 75 39 86 be 02 d0 4a bd 66 ee 99 bd 05 ad 28 3d
       -0.2621571 -0.049514778 -0.07516174 0.04118063
000050 f0 d5 a1 bd 2a 33 58 be da 92 39 be 91 83 fb 3d
       -0.079021335 -0.21113268 -0.18122426 0.12280954
000060 10 c1 74 bd 60 e1 c0 bd 53 83 1f be 1c 5b 1c be
       -0.05975443 -0.09417987 -0.1557744 -0.1526913
000070 03 63 23 be 85 0a 16 be 18 a5 10 3e 55 80 23 be
       -0.15955739 -0.1465245 0.14125478 -0.15966924
000080 e2 c2 19 3e 5a 83 65 bd 17 55 1a bd f8 de eb 3c
       0.15015748 -0.05603347 -0.037678804 0.028792843
000090 9b ea af 3d da 63 22 3e 86 a2 0d bd 4a e6 74 bd
       0.08589669 0.15858403 -0.034578823 -0.059789933
0000a0 1e 9b 7d be 33 e2 4e 3e bd 9a 39 bc 1b 3c 9c bd
       -0.24766204 0.20203476 -0.011328396 -0.07628652
0000b0 07 4a 4e bd 5b 1f 83 bd 0c 0f 86 3d 2a 72 1c be
       -0.050363567 -0.06402465 0.06545839 -0.15277925
0000c0 50 2b 21 3e 42 32 85 bb 01 d7 85 be bc e8 c6 3d
       0.15739179 -0.004064829 -0.26140597 0.09712359
0000d0 41 fa c6 3d 36 5a 38 3e 84 c8 55 bd 39 b9 3f be
       0.09715701 0.18003163 -0.05219318 -0.18723
0000e0 a2 fc 3e 3d 1c d8 4b be f3 03 5c bd 09 17 8e bd
       0.04662765 -0.19906658 -0.053714704 -0.06937987
0000f0 09 91 e7 3b d7 aa fe 3c 4d 3f 86 3e 83 89 14 bd
       0.00706685 0.031087322 0.2622017 -0.036263954
000100 8b c9 55 3e 45 6d 24 be 07 93 11 3e 06 4e 56 3e
       0.20877664 -0.16057308 0.14216243 0.20928201
000110 ad df c2 3d 9a 8a 6d be 72 ca 5e be 1f 73 8b bc
       0.09515319 -0.23197404 -0.21756914 -0.017022667
000120 81 d1 bb bd 4a 8b 01 3e de 49 aa 3d b9 4b 4a be
       -0.09170819 0.12650791 0.0831487 -0.19755448
000130 06 35 d8 3d 3d 8d 21 3e 49 b0 2e 3e 19 c6 51 be
       0.105569884 0.15776534 0.17059435 -0.20485725
000140 92 37 03 3d e3 be 10 be ab 16 49 3e 8a ab ae bd
       0.032035418 -0.14135318 0.19637553 -0.08528812
000150 2a c8 9d 3d 32 c8 c1 bc ec 29 08 3e 1f 1c ba 3d
       0.07704194 -0.02365503 0.13297242 0.09087395
000160 71 a6 96 3d 73 65 fd bc e6 29 78 3d d3 f8 9d bd
       0.07355965 -0.030932164 0.060586832 -0.07713475
000170 b7 4d e9 3d f1 32 29 bc 94 18 b5 3c 1f 87 f1 3b
       0.11391776 -0.010327087 0.022106446 0.007370844
000180 41 a5 5e 3e 86 cf 0c be f3 44 2e 3b 4c fa c1 3b
       0.21742727 -0.13751039 0.002659139 0.0059197303
000190 4a 43 b8 bc 00 03 83 3d 32 2b 46 be 5a 6f 45 bd
       -0.022493023 0.063970566 -0.19352415 -0.048201896
0001a0 e1 f6 31 be 49 eb c9 bd 41 9d da ba 45 db 45 be
       -0.17379333 -0.0985933 -0.0016678945 -0.19321926
0001b0 9a a4 ed 3c d4 79 0f be b8 b0 04 3e f9 1f 25 be
       0.029009152 -0.14011317 0.12958038 -0.16125478
0001c0 2c b4 f4 bd 47 07 3c be 4e ae 44 3e a5 6a bc 3d
       -0.119484276 -0.18362151 0.19207117 0.09200028
0001d0 5e 74 01 3e a3 b6 8e bd 09 8f 8a bd 52 40 39 be
       0.12642047 -0.06968429 -0.06765563 -0.18090943
0001e0 98 24 46 be 11 c1 a6 bd c6 35 b7 3b 62 d5 42 3e
       -0.19349897 -0.08142293 0.005591127 0.19026712
0001f0 ac 3c 6e be 4c 37 fc 3d 13 86 21 be bd a0 f0 ba
       -0.23265332 0.123152345 -0.15773802 -0.0018358451
000200 7a 6a 35 3e b1 7e 31 be 30 e7 86 be 60 a8 26 bd
       0.17716399 -0.17333485 -0.26348257 -0.04068792
000210 59 c4 59 be f4 72 1a 3e 2a 31 e4 bd 87 c3 39 be
       -0.21266307 0.15082914 -0.1114219 -0.18140994
000220 47 12 d8 3d 5f a3 55 bc 0c a8 ba 3c 45 82 41 3e
       0.10550361 -0.013039439 0.02278521 0.1889735
000230 b0 03 8d bd 6f ca e7 bc 57 10 6a bd 7e 3f 6d 3e
       -0.06885469 -0.02829477 -0.05714449 0.23168752
000240 99 55 16 bd 8b 8f 9e 3d 47 0b 6a 3d 68 cc 46 3d
       -0.036702726 0.077422224 0.05713966 0.04853478
000250 ce 19 97 bd 26 93 f9 3c e4 90 f1 bd 99 ff 16 be
       -0.07377969 0.030465674 -0.11795214 -0.1474594
000260 16 a0 b0 3c f8 09 50 3d 06 54 12 be b4 ba fd 3c
       0.02156071 0.050790757 -0.14289865 0.030972816
000270 72 82 c9 3c 22 90 df 3d 3e ed 32 bd c1 16 26 bc
       0.024598334 0.10916163 -0.043683283 -0.010137261
000280 f5 18 cf bd 06 18 04 be 6b c9 7a be a6 f5 df bd
       -0.10112182 -0.12899789 -0.24490897 -0.109355256
000290 2e f6 94 3c 99 da 8f 3d 6c 26 28 bd 66 0e 47 bd
       0.018183794 0.07024116 -0.041052267 -0.048597716
0002a0 01 fe 30 bd 99 db 36 be 97 95 04 3e b3 0d 63 3d
       -0.043210987 -0.17857207 0.12947689 0.055432986
0002b0 3d 44 e2 bd 96 6c 81 3d cd e4 25 3e db ea 68 3d
       -0.11048172 0.06319539 0.16200562 0.0568646
0002c0 4e 0e 35 3e 9c 52 15 be 89 42 75 3d 07 48 f6 bd
       0.17681238 -0.14582294 0.059877906 -0.12025457
0002d0 5f 26 cf 3c 08 e8 29 be 37 72 ba 3d 0a cf c7 bd
       0.025286851 -0.16592419 0.09103816 -0.097562864
0002e0 07 df 9c bd e7 30 24 3e 16 6a 1a bd a8 d5 c1 3d
       -0.076597266 0.1603428 -0.037698828 0.0946458
0002f0 4e 59 70 bb 55 ea 65 3d 1d b3 67 be d6 97 97 3d
       -0.0036674323 0.05613168 -0.2262692 0.07402007
000300 10 1b 0c 3e 4d 34 3e be 2d 49 b4 3c 8d 12 94 3d
       0.13682199 -0.18574639 0.02200755 0.07230101
000310 32 d5 d6 3b 66 90 86 bd 38 88 6c be 47 26 00 3e
       0.0065561766 -0.065705106 -0.23098838 0.12514602
000320 02 4f 12 3e cb 8c 0f 3e 9a e4 f2 bd 17 cb cd 3d
       0.14287952 0.14018552 -0.118600085 0.10048502
000330 b5 d4 03 3d 40 f0 dc bd 56 8c 34 bd 34 f8 12 3e
       0.032185275 -0.107880116 -0.044079147 0.14352494
000340 1e 95 12 3e 32 6c 4d 3e dc 94 14 be 58 97 f6 3d
       0.14314696 0.20060804 -0.1450991 0.12040585
000350 2d 1b 1f 3d de 7b 2b bd 39 e7 a5 3d b1 52 29 3e
       0.038844276 -0.041866176 0.08100743 0.1653545
000360 43 9c 2f 3e 41 19 30 3e ed 3b fe bd 43 58 cd bd
       0.17149453 0.17197134 -0.12413774 -0.100266
000370 d3 cb ee 3d 48 4a ec 3d 0f 3d 88 bd 2c 7d 0a be
       0.1165997 0.115376055 -0.06652271 -0.13524312
000380 aa 38 b5 3c 40 6c 63 3e 1e 36 87 be 88 90 31 be
       0.022121746 0.22209263 -0.26408476 -0.1734029
000390 8f 3c d8 3d b2 09 4d be 90 cf 0a 3e ab 1e 19 be
       0.10558426 -0.2002323 0.13555741 -0.14953105
0003a0 d2 ab eb 3d d0 59 fd 3d 24 2e 37 bd e0 60 22 be
       0.115073815 0.12370646 -0.044721738 -0.15857267
0003b0 58 28 41 bd 6e 13 72 3d 67 a5 a5 bd 8f bc 3a bd
       -0.047157615 0.05910056 -0.080881886 -0.04558998
0003c0 34 43 9b bd 7e 65 30 3e 91 59 5a 3d 1b 25 e6 bd
       -0.07581177 0.17226216 0.053308073 -0.11237546
0003d0 36 e1 30 3e ad ff 35 3d e3 dd 5c be 67 ef ee 3d
       0.17273411 0.044433285 -0.21569018 0.11666756
0003e0 45 3b cf 3c ec 11 a0 bd bb 65 b0 bd 06 01 7a bc
       0.025296817 -0.07815918 -0.086131535 -0.015259033
0003f0 71 e2 56 3d b3 fc 0d be 00 fb 1b be e1 0f 4b be
       0.052462045 -0.13865928 -0.15232468 -0.19830276

fc2.weight f4 [300, 400]
000000 56 be 40 3d d3 1c 23 bc 24 9b 40 3d bb 75 4f bd
       0.04705652 -0.009955603 0.047022954 -0.050649386
000010 d7 7e 59 3d cc 0c 9b 3d 7e ff 03 be 61 16 78 bd
       0.05309948 0.075708 -0.12890431 -0.060568217
000020 f4 6c 75 bd 54 0c 5b 3d d5 f7 8e 3c 7a 40 0d bc
       -0.05991836 0.053478554 0.01745216 -0.008621329
000030 87 59 a6 bb 4c b8 a2 3c 5c 91 8a 3d 02 5d 08 be
       -0.0050765905 0.01986327 0.06766006 -0.1331673
000040 77 3f ac be 7a c2 1c bc 88 32 ba 3d 09 49 70 be
       -0.3364217 -0.009567851 0.09091669 -0.2346536
000050 d2 06 9e bd 24 b5 38 bd ab e1 5b 3d 74 44 5f bd
       -0.077161446 -0.045094624 0.05368201 -0.05450864
000060 9f b4 bb bc cf 07 01 bd dd 16 86 3c f8 ff b1 bb
       -0.022913275 -0.031501587 0.016368324 -0.005432125
000070 82 fd 35 bd b8 63 8b bd 29 ea 35 bb b9 5f 53 bb
       -0.044431217 -0.06806129 -0.0027757979 -0.00322531
000080 72 f9 00 3c 23 ec 86 3b 15 c8 67 3d 9d 3a c5 3b
       0.007871972 0.004117505 0.056587297 0.00601895
000090 49 5d 78 3d 85 8f 35 bd e9 45 4c 3d f2 05 40 bd
       0.06063584 -0.044326324 0.04987136 -0.04688067
0000a0 d1 66 10 be 35 28 96 3c 71 be ee bc 19 7e 81 3d
       -0.14101721 0.01832972 -0.029143544 0.06322879
0000b0 70 1f 33 3d d5 6e 68 bd 7a b9 88 bc 7c 00 5c bd
       0.043731153 -0.056746323 -0.016690005 -0.0537114
0000c0 bf ff 5c 3d 60 52 3e bd 18 78 c9 3b 40 83 e2 3c
       0.053954836 -0.046465278 0.0061483495 0.027650476
0000d0 19 78 42 bd f6 c1 f4 3c ea 64 d0 bd f7 5e 01 3d
       -0.047477815 0.029877644 -0.10175498 0.031584706
0000e0 43 54 a7 bd 17 64 0c bc ff 68 e5 3d e6 32 46 3c
       -0.081703685 -0.008568785 0.11201667 0.012097096
0000f0 8a 3e 7e bd 84 b9 6a bd 2b a9 58 3c fb 69 f4 3b
       -0.06207136 -0.057305828 0.013223927 0.007458923
000100 df 7e 93 ba b7 9c 67 bb 00 19 17 3c 22 4f 43 bd
       -0.001125302 -0.0035341212 0.009222269 -0.04768289
000110 90 1b 79 3d 00 00 e1 bb c4 6d 21 be d5 00 69 bc
       0.0608173 -0.006866455 -0.15764529 -0.01422139
000120 34 82 ba 3d b7 f9 50 3d 9d 83 d1 bd fd da 88 3d
       0.091068655 0.051019397 -0.10230181 0.06682394
000130 4a 65 f0 3a 53 af 7b 3d ab 81 96 bd ec 4d 1d 3c
       0.0018340733 0.0614465 -0.07348951 0.009601098
000140 b8 b3 ea 3d aa bd 94 bd 68 b5 19 bd 52 0b 0c 3d
       0.1146006 -0.07262738 -0.037526518 0.034190483
000150 ce e7 99 3c f8 5d 48 be f7 15 b8 3c 9a 27 59 3d
       0.01878729 -0.19567096 0.022471411 0.053016283
000160 ac 01 ec 3c fc 1a ad bd e3 71 ab 3d 82 83 85 bd
       0.028809391 -0.084524125 0.083713315 -0.06519224
000170 63 18 a6 3c 39 13 00 bb 86 17 b6 3d 6d 8d ad bc
       0.0202753 -0.0019542708 0.088912055 -0.021185601
000180 cd 33 7c 3d aa 68 fa bc ab db 93 bc 8a 82 cb bc
       0.06157284 -0.030567486 -0.018049082 -0.02484252
000190 f5 f1 3b 3c 21 6f 0f 3e 29 bb 3c bc 40 fb 6b bc
       0.011471261 0.14007236 -0.011519232 -0.014403164
0001a0 7c 74 43 3b f0 be 99 bc ad ad fa 3b 40 9d d3 3b
       0.0029824069 -0.018767804 0.0076500983 0.0064579546
0001b0 2e de 4d bd 88 a5 03 bd 3b 47 71 3d a7 de c1 3c
       -0.050260715 -0.032140285 0.05890582 0.02366574
0001c0 6c ad 6a 3b 82 e9 d1 bb 87 7d 49 3d 30 34 c2 bd
       0.0035808934 -0.00640601 0.049191978 -0.0948261
0001d0 c1 1b 68 bd dc ed 92 3c e7 6a 6a bd 3e 26 3d be
       -0.056667093 0.017935686 -0.057230856 -0.1847162
0001e0 e0 ed d2 bd 5b 1f 22 3c 7c 44 80 3d d3 3a 1e bd
       -0.10299277 0.009895171 0.06263062 -0.038630318
0001f0 53 61 73 bd 8a 80 e6 3c df a9 dd bd 89 7f 92 bc
       -0.059418987 0.028137464 -0.10823416 -0.01788308
000200 e0 60 16 3c 15 ef 26 3d df b3 bb bd 3e 20 27 3c
       0.00917837 0.04075535 -0.09165167 0.010200558
000210 0b 86 07 3d 64 9f 0c be 24 8b a5 bd 76 a4 1d 3d
       0.033086818 -0.13732678 -0.080831796 0.03848692
000220 f5 ca ca 3b f7 32 49 bd 47 9c 4f bd 90 53 a9 3c
       0.006188745 -0.04912087 -0.050686147 0.020669729
000230 e0 c1 c4 bb 09 f6 25 bc bf 50 02 3d 89 a2 5a bd
       -0.006004557 -0.01012946 0.031815287 -0.05337766
000240 0f d5 95 bc ba f8 ab bc cc 17 7e bc d2 2b 85 be
       -0.01829007 -0.020992626 -0.015508603 -0.26009995
000250 c6 89 3c 3d 92 75 2d 3d f9 25 d0 bd a0 1c ed bc
       0.04602983 0.042348452 -0.10163493 -0.028944314
000260 51 bd 05 be 27 35 cf bc 72 d9 3c 3d ad 7b 93 3d
       -0.130605 -0.0252939 0.04610581 0.07201324
000270 c5 ac 2d 3d bc b2 0e bc 49 37 b7 bd cd 3a b6 bd
       0.042401094 -0.008709606 -0.08946092 -0.08897934
000280 0f d8 b9 bc d2 f1 d0 3d 27 4d df bd b1 46 85 bc
       -0.022686033 0.102023736 -0.109033875 -0.01626906
000290 fd b5 1c 3d 48 c9 9e 3d 85 a9 2a 3c 3e 45 d5 3d
       0.038259495 0.07753235 0.010416393 0.104135975
0002a0 c7 98 0f be e1 e1 da 3c 7c 56 41 bd 71 59 83 3d
       -0.14023124 0.026719036 -0.04720162 0.06413544
0002b0 0d 62 b4 3b 63 68 a5 bd a2 60 7b 3d 12 af 7c 3c
       0.0055048526 -0.08076551 0.061371453 0.015422599
0002c0 ba 3f 0f 3d 17 da ea bd 62 95 35 bd 97 0e b3 3d
       0.034972884 -0.114673786 -0.044331916 0.08743017
0002d0 85 51 af bc 52 c6 d8 bd 08 cc 86 3c b2 21 3c 3d
       -0.021401176 -0.105847016 0.016454712 0.04593057
0002e0 b3 7a ba bd 41 6a d3 ba 49 42 c2 bd ee fc 27 bc
       -0.09105434 -0.0016129689 -0.09485299 -0.010253174
0002f0 87 f7 d3 bb 94 88 ae bc d9 98 94 bc da e5 53 3d
       -0.0064687165 -0.02130536 -0.01813929 0.051732875
000300 53 00 c7 3c 2b 0d 70 bc 5b 64 46 bd b7 78 86 bd
       0.024292147 -0.014651577 -0.04843555 -0.06565993
000310 ba d9 32 3d 98 28 52 bd e7 3b 4d bd e9 1f 58 bb
       0.04366467 -0.051308244 -0.050105955 -0.0032978004
000320 93 17 7a 3c a3 29 7c 3d 8a f1 8f bd 4a b0 5b bd
       0.01526441 0.061563145 -0.07028492 -0.05363492
000330 97 d8 2c 3d 0b 1f 35 be a1 c9 a9 bd c8 9b a6 3d
       0.042198744 -0.17687623 -0.08290411 0.08135182
000340 45 f5 43 3d b2 ba 68 3d 7b 3a 93 bd 19 e2 43 3d
       0.04784133 0.05681867 -0.07188889 0.047823045
000350 c2 ef 6a bd 71 6f da 3b 15 db 1d bd fe 85 0b bd
       -0.057357557 0.006666117 -0.03853901 -0.03406333
000360 e1 40 58 3a 46 3a 91 3d dd a5 ce bd 97 2a e0 bc
       0.0008249414 0.07091193 -0.1009023 -0.027364058
000370 d2 6c 97 3d 5a 46 07 bd 36 0f 0a bd a6 87 85 bd
       0.07393803 -0.033026077 -0.033705913 -0.065200135
000380 8b 4a d5 bc b8 ec 9a 3a c0 bf 6d 3d ef 6b 9d bd
       -0.026036521 0.0011819815 0.058044195 -0.07686602
000390 6f 8e 32 bc 69 b4 03 ba eb a6 e1 3c ae 3e 21 bd
       -0.010898217 -0.00050241366 0.027545413 -0.039366417
0003a0 91 d6 32 bd 0c e0 8d bd 46 7c 31 bd 9e 1d 2d bc
       -0.043661658 -0.06927499 -0.043331407 -0.010566143
0003b0 ce 61 e4 3c ff a6 bc bd d0 34 d5 bb ae 11 8c 3b
       0.027878668 -0.092115395 -0.00650654 0.0042745685
0003c0 6d e2 c7 3c 7f 33 52 bd 13 57 78 3d b0 b4 6d bd
       0.02439996 -0.05131864 0.060629915 -0.058033645
0003d0 8d 16 49 3d 20 f4 fc bd bf df 9b bc 61 33 a3 3d
       0.04909377 -0.12351251 -0.019027589 0.07968784
0003e0 74 cc bd 3c bc b2 7c 3d 71 de 91 bc 9a 6d a5 3d
       0.02316878 0.061693892 -0.017806264 0.080775455
0003f0 67 54 d3 bd e2 d0 f5 3c 52 6c 93 3c 2a 9a 06 3d
       -0.10318833 0.03000683 0.017995987 0.032861866

fc2.bias f4 [300]
000000 88 4b 18 3d b9 a9 a6 3c 4c eb c3 bb 51 91 0f bc
       0.037181407 0.020344602 -0.0059789773 -0.0087626735
000010 dc 3e 7b 3a 21 0b 4e 3c 43 c0 72 bd db 33 66 bd
       0.0009584257 0.0125758955 -0.059265386 -0.056201797
000020 55 86 42 bc 01 67 60 bc c9 9f 1f 3d 90 55 87 bb
       -0.011872848 -0.013696433 0.038970742 -0.004130073
000030 84 4c bf bc 1c bd da bc e6 fd 1e 3d ee d7 a6 bd
       -0.023351915 -0.026701503 0.038816355 -0.08146654
000040 89 23 c5 bc ca 49 97 3b 4e 85 ef b9 d0 b3 58 3d
       -0.024064796 0.0046169506 -0.00045684952 0.052905858
000050 71 19 7a 3d 73 6d 53 bd 14 d6 10 3d 03 e5 69 ba
       0.06105942 -0.05161805 0.03536041 -0.000892237
000060 cd 88 43 3c 04 3b 7a 3d ce 5d 5e bd 3e be 72 bb
       0.011934471 0.061091438 -0.054288678 -0.0037039663
000070 7c e4 fa 3c d9 fa 40 bd 51 14 c2 3b f3 a0 a5 bc
       0.030626528 -0.047114227 0.005922832 -0.020218348
000080 5b f1 4f bc 64 6d 6d 3c fe 5f 29 ba 26 55 89 3b
       -0.012691821 0.014491413 -0.00064611423 0.0041910587
000090 5e 7b 3f bd bd 40 31 3d 18 22 aa bd af 2b cf 3c
       -0.04674851 0.04327463 -0.08307284 0.025289385
0000a0 e1 1d 96 bc cb 00 bc bc 78 4d aa 3c 67 be 36 3b
       -0.018324794 -0.022949597 0.020788893 0.0027884485
0000b0 0a 6e a8 bb a1 c5 94 3d 28 8c 3c bb 50 32 8b bc
       -0.005140071 0.07264257 -0.0028770063 -0.016991764
0000c0 f3 a1 42 bd 24 73 7b bc 32 17 ad bd 95 2a 85 3d
       -0.047517728 -0.015347276 -0.0845169 0.065022625
0000d0 f3 96 7f 3d 24 c6 c2 bc 41 c5 f5 3c 40 99 30 3d
       0.062399816 -0.023776121 0.030001285 0.0431149
0000e0 4e 0b 06 ba cc 01 fa 3c 88 e7 d1 bb ad 4b 9e bb
       -0.0005113379 0.030518435 -0.0064057745 -0.0048307986
0000f0 cc 0c 05 bd 23 4e 9f 3c 94 86 92 3c c0 d7 b4 3b
       -0.032482907 0.019446438 0.017886437 0.0055188835
000100 26 1b c4 3c 6a 1f 6f 3c 62 9b 3c bc 62 b2 92 bc
       0.023938727 0.014594892 -0.0115116555 -0.017907325
000110 11 8a 95 bc 24 20 18 bc 62 78 ec bc 7d c3 17 bd
       -0.018254312 -0.009285007 -0.028865997 -0.037051667
000120 c7 6e 7b 3d 25 d5 ef 3b 80 61 44 bd b1 d2 d1 bc
       0.061384942 0.00731911 -0.047944546 -0.02561316
000130 9b c2 c6 3c 87 bc f5 bd ca 17 80 3c 38 2c 06 bd
       0.024262717 -0.11998849 0.015636344 -0.032757014
000140 f9 0a 03 bd 9c 16 41 3d ff e4 51 bd 2d 2f ae bc
       -0.031992886 0.047140703 -0.05124378 -0.02126273
000150 91 3a 7c 3c c7 dd ac 3c 8c 8a 78 bb bf 3a 41 bc
       0.015394823 0.021101845 -0.0037924377 -0.011793791
000160 22 42 07 bd 67 81 41 3d 88 87 b5 3a 1e 93 1c 3c
       -0.033022054 0.04724255 0.0013849596 0.00955656
000170 8a ee 49 bc ed 34 91 3c 31 5b a3 3b e9 fb c8 3c
       -0.012324939 0.017725432 0.004985236 0.024534183
000180 e6 bf 93 bc 6d 9c af 3c 1e 5d 81 bb 24 a0 36 bd
       -0.01803584 0.021436894 -0.003947868 -0.044586316
000190 5c aa 4e bd 01 ba 30 3d d5 bd ee 3c ec 9c b7 bc
       -0.050455436 0.043146137 0.029143253 -0.022413693
0001a0 b5 4b e6 bc ba 28 72 bd 6e ab 6d bc 55 b8 2a bd
       -0.028112272 -0.05912087 -0.014506204 -0.0416797
0001b0 bf b4 86 3c 17 62 b0 bc 53 78 f6 bc b4 b1 1a bd
       0.016443608 -0.021531148 -0.030086672 -0.037767127
0001c0 5a 8e 12 bd 79 a7 f5 3b ce c4 12 3d 7e 38 e8 bb
       -0.03578029 0.007496771 0.03583222 -0.0070868125
0001d0 c0 06 49 bd 11 1e 96 3d ef fc 15 bc 93 71 3c bd
       -0.049078703 0.073299535 -0.009154542 -0.04600675
0001e0 26 db 84 bd 68 bb 04 3b f4 9b ba 3b ed 87 62 3d
       -0.06487112 0.0020253304 0.0056948606 0.05530541
0001f0 55 6e 36 3d 80 21 25 bd 1a 44 5b 3d 52 d8 13 3d
       0.044538815 -0.04031515 0.053531744 0.03609497
000200 db 77 73 3d ea 14 82 bc 42 e7 6d bd 59 49 12 3d
       0.059440475 -0.015879113 -0.058081873 0.03571448
000210 a2 c0 97 3d 15 46 0b bd 54 99 10 bd 4e 06 9e 3c
       0.07409789 -0.034002382 -0.035302475 0.019290116
000220 c1 a3 19 be dd 48 27 3c 29 e3 06 3d 7f 27 44 bd
       -0.15003873 0.010210243 0.03293148 -0.04788923
000230 2e f0 fd 3c d4 44 5d 3c 2d dc 3d bc a9 7d 8e bc
       0.030998316 0.013505179 -0.0115881385 -0.017393904
000240 d3 0a 8c 3c c7 36 09 3c 06 53 0d bd 56 00 72 bc
       0.017095005 0.008374876 -0.034503005 -0.014770588
000250 91 01 5b 3d 33 ea 84 3c c7 18 0c bc dc 1b d9 3c
       0.05346829 0.016224956 -0.008550829 0.026502542
000260 f8 63 63 3d b1 9b 8b bb 13 f3 fb bc c5 67 c8 bb
       0.05551526 -0.004260503 -0.030755555 -0.006115886
000270 80 a2 00 3d 4a 34 97 bd a9 dd 5b 3d 80 5b 85 bd
       0.031404972 -0.0738302 0.05367819 -0.06511593
000280 8d 6e 2f bd 43 47 17 3d 5e 65 54 3d 9b 39 83 bc
       -0.04283004 0.036933195 0.051854484 -0.01601868
000290 c2 76 76 3b b7 51 fb bb 79 44 c3 3c ae 7b cc bc
       0.0037607406 -0.0076696533 0.023836361 -0.024961319
0002a0 7c 02 17 3d f0 99 d8 bc 43 2f db 3c 67 39 0b 3c
       0.036867604 -0.02644059 0.026755935 0.0084975725
0002b0 da bc 3f 3d 36 29 4b bd d5 32 08 3d d1 b9 e6 bc
       0.046810962 -0.04959985 0.033251602 -0.028164776
0002c0 40 bd 21 bd 00 9d 52 3c b0 af 8f ba 48 95 ae bd
       -0.039487123 0.0128548145 -0.0010962393 -0.08524567
0002d0 07 41 b9 3c fd 48 f1 ba bb 7e 14 3d 90 25 bb 3d
       0.022614015 -0.0018408593 0.036253672 0.09138024
0002e0 4c 7f 4c bc fb 5e 09 bd 4c 76 89 3d af d5 87 3c
       -0.012481522 -0.033537846 0.067120165 0.016581384
0002f0 8d e2 e6 3c 0b 93 25 bd 1c e5 51 3d f3 b8 b4 bc
       0.0281842 -0.040423434 0.051243886 -0.022060847
000300 c5 86 6a 3d a2 b1 20 3b 8c e1 87 3c a6 e0 10 3d
       0.057257432 0.002451994 0.016587041 0.03537049
000310 83 a2 6e bc b7 56 06 bc 15 26 e9 3c 90 dc 54 3d
       -0.014565113 -0.008199385 0.028460542 0.051968157
000320 72 63 2d bd 51 85 b3 bc 2e 19 c6 3b 8e 57 0f bd
       -0.042331167 -0.021914156 0.006045482 -0.034995608
000330 13 c5 6a 3b 66 45 87 3d 35 e4 b8 bd ba 5d 05 be
       0.0035823032 0.066050336 -0.09027902 -0.13024035
000340 de 45 e9 bc b1 04 1d bc 00 31 00 bd 3d 36 71 3c
       -0.028475698 -0.009583638 -0.03129673 0.014722404
000350 86 b0 ed 3b 00 43 78 3b e0 43 d5 bc 15 b8 e4 bc
       0.0072537092 0.0037881732 -0.026033342 -0.027919808
000360 01 bb 75 3d 3f b1 b7 bc ef f9 59 3c cd 54 b4 bc
       0.059992794 -0.022423385 0.013304218 -0.022013092
000370 02 9e 4f 3d b8 0f 16 3c 8c 95 27 3d a2 06 04 bd
       0.050687797 0.009159021 0.040914103 -0.032232888
000380 57 06 8d 3c 60 b3 5c 3c 11 96 50 3d b3 e7 fc bb
       0.017214937 0.013470501 0.050924364 -0.0077180504
000390 9a e6 d6 bd 18 42 d3 bd 49 2e e2 3c 37 93 a6 bd
       -0.104932025 -0.10315341 0.027609961 -0.08133548
0003a0 89 87 aa 3b b2 6c 06 3d f6 2a 6b bc 11 e7 70 bc
       0.0052041453 0.032818504 -0.014353504 -0.014703528
0003b0 f4 7e 33 bd 84 d8 18 bd 81 ed ef bb a9 00 6f 3d
       -0.043822244 -0.03731586 -0.007322014 0.05835024
0003c0 5f e1 ba bc 13 9d 04 bd 56 13 5a bd 35 72 9f bd
       -0.022812543 -0.03237636 -0.053241096 -0.07785455
0003d0 f3 29 10 bd 80 b8 4e bc 2f 36 1d 3d e7 d5 01 bd
       -0.035196256 -0.01261723 0.03838175 -0.031698134
0003e0 f1 1d 21 3d 62 a5 1f 3d 75 c9 eb 3c 0e e0 31 bd
       0.039335195 0.03897608 0.028782586 -0.043426566
0003f0 25 0c c2 3c de 20 64 3c c1 30 78 bc d1 d1 8f 3d
       0.023687432 0.013923852 -0.015148343 0.07022441

fc3.weight f4 [2, 300]
000000 90 a4 a2 bd 06 24 33 3d 32 22 8a 3c e8 e9 33 be
       -0.07941544 0.043735527 0.016862009 -0.17569697
000010 12 22 fb bd dc 79 ac bd 39 d0 a8 3d d1 19 42 3e
       -0.12262358 -0.0842168 0.0824284 0.1895516
000020 3e 01 0b be a0 8e fa bc f2 16 93 bd e7 a2 e8 bd
       -0.13574693 -0.030585587 -0.07182111 -0.11359196
000030 4c ee 92 3c 37 80 a7 bc c2 06 d8 3c 7f ec b7 be
       0.017935894 -0.02044688 0.02637041 -0.3592262
000040 1a 2c 9a be 0e fb 1e 3c f7 39 95 3d f5 59 a8 be
       -0.30111772 0.009703411 0.072864465 -0.32881132
000050 39 7d 25 bf 14 99 4d bc c8 87 22 be 4c 2c 45 bc
       -0.646442 -0.012548704 -0.15872109 -0.012034487
000060 65 ad 18 be ea 8c 80 3d bc 91 52 bf af 7c c6 3c
       -0.14909895 0.06276877 -0.82253623 0.024229376
000070 57 a6 ff bd 67 64 78 3d f2 e4 8e 3d 14 6f c9 be
       -0.12482899 0.060642626 0.069772616 -0.39342558
000080 2d 67 ea be 94 ad 3a 3d 56 c8 0b be 82 14 c6 3c
       -0.45781842 0.045575693 -0.13650641 0.0241797
000090 b9 1f cb 3d 4e 76 e5 bd 75 c4 8a bb ca a6 9c ba
       0.0991816 -0.112042055 -0.0042348453 -0.0011951562
0000a0 8f e4 2d bd 1b 66 e3 bd 18 a7 6e be e5 e1 c7 bc
       -0.0424543 -0.111034594 -0.23305929 -0.024399707
0000b0 01 88 d2 3a 54 00 16 be e7 65 36 3d 3d a1 a0 be
       0.0016062261 -0.14648563 0.044530775 -0.31373015
0000c0 dd 7f 1d be ec a8 62 3e a3 16 37 bd 88 fc df bb
       -0.15380807 0.22134751 -0.044699322 -0.006835524
0000d0 6c 29 cb bd d4 15 28 be be d1 84 be 04 b2 11 3c
       -0.0992001 -0.16414577 -0.2594127 0.00889254
0000e0 45 fd 92 bd 25 35 84 3d c6 ab e6 bc 80 b3 e8 bd
       -0.071772136 0.06455449 -0.02815808 -0.11362362
0000f0 dc eb 9e 3d 9a 3f b3 bd 17 32 f0 bb 38 57 e5 3d
       0.0775983 -0.087523654 -0.00733019 0.11198276
000100 4f b9 2c bc d5 46 e0 bd 39 c1 b5 bd 53 25 9f bd
       -0.010542228 -0.1095101 -0.08874745 -0.07770791
000110 2b 54 bd bd 01 87 4c bc 36 ce 88 be f0 d7 c4 bb
       -0.092445694 -0.012483359 -0.26719826 -0.006007187
000120 2e 1f 19 be c7 ef d1 bd 84 f3 b1 3d 4f e0 c3 3c
       -0.149533 -0.10250812 0.08689025 0.02391067
000130 05 f9 df 3a 27 bd 33 be 30 5b 9f bb 97 b4 91 3e
       0.0017087763 -0.17552625 -0.0048631653 0.28458092
000140 d8 b2 9b be 40 f2 3b bc 1b 89 63 3d 98 af 17 bd
       -0.30409884 -0.011471331 0.055550676 -0.037032694
000150 0c b8 84 bd 16 bc c1 3d b7 1d d4 bc 83 e9 97 bd
       -0.06480417 0.09459703 -0.025893075 -0.07417586
000160 9b 65 43 bc a1 4c 81 bd e0 f0 25 3d 20 0a eb 3d
       -0.01192608 -0.06313444 0.04051292 0.114765406
000170 b1 83 57 be 66 31 92 bd e1 db b8 3d 50 3b 9d 3d
       -0.2104633 -0.07138328 0.090263136 0.076773286
000180 32 0f d7 bd 6a 8e 96 bb b3 15 57 be b2 52 ec bd
       -0.10500945 -0.004594614 -0.21004371 -0.115392104
000190 2b 1f cc be 1b f2 43 bc d3 0c f7 bc eb f8 98 bb
       -0.3986753 -0.011959578 -0.030157482 -0.004668345
0001a0 93 64 6b bd bc 0f ff 3d 87 68 87 3d 99 04 27 be
       -0.057468962 0.12454173 0.06611734 -0.16310348
0001b0 87 e4 8b be 25 94 11 3c d8 83 a4 bd cb d9 8e ba
       -0.2732279 0.008885418 -0.0803296 -0.0010898648
0001c0 46 a7 9f bc 01 f4 35 3e fb d5 e0 ba 43 86 27 3a
       -0.019488942 0.17768861 -0.0017153615 0.0006390551
0001d0 a3 10 4f 3a 34 4a 1f 3c 26 42 69 bd e4 1d af 3d
       0.00078989024 0.009722281 -0.05694785 0.08550623
0001e0 82 d0 bd bb de 8c 96 bb a7 6c 32 bd 58 05 cd bd
       -0.0057926783 -0.0045944294 -0.04356065 -0.10010785
0001f0 fe a4 06 3c fa 63 97 bd 3c 87 69 be a2 4b 45 bd
       0.008218048 -0.07392116 -0.22805494 -0.048167832
000200 16 4a 81 bd 36 fe 42 bd 83 77 28 be 9e 8d a8 bd
       -0.06312959 -0.047605716 -0.1645184 -0.08230136
000210 3d 1c 37 bd 63 29 eb bd 56 ff e3 bd ce f5 48 3b
       -0.044704664 -0.11482503 -0.11132686 0.003066409
000220 ba ff 8d bc a4 e6 cd b8 7c 7b c6 bd a4 63 1f bf
       -0.017333854 -9.818122e-05 -0.096915215 -0.62261415
000230 e0 6d 3a 3d 86 48 c4 3c 4f 97 c1 3d 95 21 9a bd
       0.04551494 0.023960363 0.09452688 -0.075259365
000240 27 49 87 bd 11 9c ca 3d 58 63 4b bd c0 f0 79 be
       -0.066057496 0.098930486 -0.04965529 -0.24408245
000250 9e 3f 3f 3d 80 61 b7 bd 7c b6 f5 bc 83 e1 a6 bd
       0.04669153 -0.089541435 -0.029994242 -0.08148482
000260 5a 0b 91 bd 59 41 93 bd 30 b9 7b 3e 2f 6c 32 be
       -0.07082243 -0.071901985 0.24582362 -0.17424081
000270 4e f0 f8 bb 60 8d 04 3c e9 22 2e bf 38 98 0a 3e
       -0.007597006 0.008090347 -0.6802202 0.1353463
000280 fe e8 60 3d 25 b0 8b 3c 23 45 80 3d 16 82 c2 bc
       0.0549097 0.017051766 0.06263187 -0.02374367
000290 0d d9 d0 39 f3 81 de 3d 5f db b8 3d a7 8f d8 3d
       0.00039834567 0.108646296 0.09026217 0.105742745
0002a0 73 0d 14 3e 31 e5 29 3d 74 e0 41 bc 55 62 f5 3d
       0.14458255 0.04147834 -0.011833299 0.11981646
0002b0 23 c3 0f bd 80 9d 6a be 44 ac 94 bd b8 68 0f bb
       -0.035098206 -0.22911644 -0.072594196 -0.0021882486
0002c0 d3 23 9c 3c de 65 8b be bd 67 4c bb b0 24 03 3e
       0.019060051 -0.27226156 -0.0031189763 0.12806964
0002d0 6b d4 f1 bd b5 6c f9 3c 79 41 92 be 28 f1 75 bd
       -0.11808094 0.030447343 -0.28565577 -0.060044438
0002e0 fa 39 03 3d 4e a7 06 3d f5 6c c3 bc c0 4e 40 be
       0.032037713 0.032874398 -0.023855666 -0.1878004
0002f0 4e ca 06 bd 0c a6 66 3d 17 6e 92 3e fe 5b 93 bd
       -0.032907777 0.0563107 0.28599617 -0.071952805
000300 ec 68 f4 be e7 29 4f bb 0e 42 70 bd e2 51 ea bd
       -0.477363 -0.003161067 -0.058656745 -0.11441399
000310 82 00 a0 bd d4 80 bc bd c9 2e 12 be 8b 47 25 be
       -0.07812597 -0.092042595 -0.1427566 -0.16140573
000320 74 f9 6d bc 36 76 3c bc df 53 e4 bd e1 bc 5a bd
       -0.014524806 -0.011502793 -0.1114881 -0.053402785
000330 cc 37 0c 3e b4 02 76 3c 8e 5b 1d bd 4d 05 1e 3e
       0.1369316 0.015015293 -0.03841739 0.1543171
000340 1b ac ee bc b2 00 0a bd 50 56 1e be 0a bd 95 be
       -0.0291348 -0.03369207 -0.15462613 -0.29245788
000350 04 43 51 bc c9 c2 a4 3b 53 0f 45 3c 8f 58 49 bc
       -0.012772325 0.005028103 0.012027579 -0.01228918
000360 60 b7 a7 be 61 34 ea 3c f9 10 12 bf c8 f3 41 3c
       -0.32757092 0.02858943 -0.5705715 0.011837907
000370 3a 9d e7 bc 8f 7f cc bb 76 30 8a 3d ec 6d 0b be
       -0.028273214 -0.006240792 0.067475244 -0.1361615
000380 62 34 a1 3d ed 58 3a 3d 15 02 a1 3b 70 39 d1 bc
       0.07871319 0.045494962 0.0049135783 -0.025540084
000390 9b 78 8d be e0 f5 28 3e 42 17 d5 3d 3f cb 6b 3e
       -0.27631077 0.16500044 0.10404827 0.23026751
0003a0 22 1f ca bd da 8a 80 bd d1 2d 13 3a 5c a2 0a bc
       -0.09869219 -0.06276484 0.0005614432 -0.008461561
0003b0 8b f5 44 bc 38 72 5a bd 51 1b 39 3b dc 8f fb 3c
       -0.012021433 -0.053331584 0.0028245042 0.030708246
0003c0 55 85 78 be 14 4b a8 bc a8 41 b6 bb c2 3f 84 bc
       -0.24269612 -0.020543613 -0.005562026 -0.016143683
0003d0 b5 6d 03 bd 5a 2e 85 3d f9 4c 6f be f0 ce 57 bc
       -0.032087047 0.065029815 -0.23369206 -0.013171896
0003e0 04 57 0d bd 37 10 98 be 8f e9 2a 3d ab d6 68 be
       -0.034506813 -0.2969987 0.041726645 -0.2273814
0003f0 75 84 87 bc c0 19 28 3d 4c a8 52 bc 9c 6f 17 bd
       -0.016542653 0.041040182 -0.012857508 -0.036971673

fc3.bias f4 [2]
000000 55 49 2d 3d 58 f4 f9 bc
       0.042306263 -0.03051202
